models/optimization/IN_100_2_0.08265398519489262_0.6819869332680413_9_1_state_dict.pt (torch, 6417 bytes, 17 tensors)

R1.layers.0.weight f4 [2, 9]
0	0xbe8962a3	-0.26833066
1	0xbe5c85f6	-0.21535477
2	0x3e1e2a2b	0.15445773
3	0xbdc20000	-0.09472656
4	0xbe3fe146	-0.18738279
5	0xbab43400	-0.0013748407
6	0xbe772316	-0.24134478
7	0xbe16d79b	-0.14730684
8	0xbc28982b	-0.010290186
9	0xbe013b66	-0.12620315
10	0xbe3ec5b8	-0.18630111
11	0xbb147f56	-0.0022658906
12	0xbe93e5cc	-0.2888626
13	0x3e1c9508	0.15291226
14	0xbde7c14b	-0.113161646
15	0x3e6d2698	0.23159254
16	0xbea2897e	-0.31745523
17	0xbc015956	-0.0078948345

R1.layers.0.bias f4 [2]
0	0xbe1cdbf0	-0.15318274
1	0x3e9a3c86	0.301243

R1.layers.2.weight f4 [2, 2]
0	0xbd99de39	-0.07513089
1	0x3e712304	0.23548514
2	0xbe77b1e3	-0.24188952
3	0xbe112fc3	-0.14178376

R1.layers.2.bias f4 [2]
0	0x3d87d9fc	0.06633374
1	0x3ef9bf94	0.48778975

R1.layers.4.weight f4 [3, 2]
0	0x3e29b20e	0.16571829
1	0xbe9776d2	-0.2958284
2	0xbeb0c4fa	-0.3452528
3	0x3ee902da	0.45509988
4	0x3ed387fb	0.41314682
5	0xbed42ae2	-0.41438967

R1.layers.4.bias f4 [3]
0	0x3dddf5bb	0.10837885
1	0x3f182496	0.59430826
2	0x3e976037	0.29565594

O.layers.0.weight f4 [2, 6]
0	0x3ebb7a35	0.36616674
1	0xbeca8f32	-0.39562374
2	0xbe4cfb06	-0.20017633
3	0xbc243ff1	-0.01002501
4	0xbea73f0c	-0.32665288
5	0x3ebcbf9a	0.3686493
6	0x3e73ce06	0.2380906
7	0xbe368dce	-0.17827532
8	0x3ea85deb	0.32884154
9	0xbe42afc5	-0.19012363
10	0xbe0d53e5	-0.13801534
11	0xbe832792	-0.25616127

O.layers.0.bias f4 [2]
0	0x3da70a0c	0.08156213
1	0x3e468d9e	0.1938996

O.layers.2.weight f4 [2, 2]
0	0x3ee30fcd	0.44347993
1	0xbf2dabee	-0.6784047
2	0x3e764c0c	0.24052447
3	0xbe95c14f	-0.29249045

O.layers.2.bias f4 [2]
0	0x3f285fcf	0.6577119
1	0x3d10e853	0.03537781

O.layers.4.weight f4 [3, 2]
0	0xbf22ccd6	-0.63593805
1	0xbf1da5d8	-0.6158118
2	0xbf25549c	-0.6458223
3	0xbee4a044	-0.44653523
4	0x3f102877	0.56311744
5	0x3df9ed5d	0.122034766

O.layers.4.bias f4 [3]
0	0x3e41082e	0.18850777
1	0xbebf3b85	-0.37350097
2	0x3e8678dd	0.26264086

R2.layers.0.weight f4 [2, 9]
0	0xbe928e90	-0.28624392
1	0x3ea8bcbc	0.32956493
2	0x3e8dd69a	0.2770279
3	0xbea1b8e2	-0.31586367
4	0x3d968ab6	0.07350676
5	0x3e5dab40	0.21647358
6	0xbcd05a16	-0.025433581
7	0xbe2e81c3	-0.17041688
8	0xbc853eab	-0.016265234
9	0xbdd9e9db	-0.106403075
10	0x3cce9116	0.025215667
11	0xbdb624d6	-0.08893745
12	0x3de109a0	0.10988164
13	0x3d12fbb6	0.03588458
14	0xbea863ce	-0.32888645
15	0x3e5b9e40	0.21447086
16	0xbd138696	-0.036017023
17	0xbe1b3b50	-0.15159345

R2.layers.0.bias f4 [2]
0	0x3e97841f	0.29592988
1	0xbd11ab36	-0.03556367

R2.layers.2.weight f4 [2, 2]
0	0x3f06cc6b	0.5265567
1	0x3ee386f3	0.44438896
2	0xbf145649	-0.5794416
3	0xbf138a08	-0.57632494

R2.layers.2.bias f4 [2]
0	0xbeafc5bf	-0.34330556
1	0xbe86f2da	-0.26357156

R2.layers.4.weight f4 [1, 2]
0	0x3e26489f	0.1623864
1	0xbd0b7fe6	-0.03405752
