models/optimization/IN_100_2_0.07695777309173743_0.9434903923277936_3_26_state_dict.pt (torch, 6417 bytes, 17 tensors)

R1.layers.0.weight f4 [2, 9]
0	0xbf18f6e0	-0.597517
1	0xbf67da72	-0.90567696
2	0xbf109789	-0.56481224
3	0x3f55e422	0.8355123
4	0xbf3b346d	-0.7312687
5	0x3ea5c4f7	0.32376835
6	0xbe9bca55	-0.30427805
7	0xbedc998d	-0.430859
8	0xbf35781b	-0.7088639
9	0xbf7b3ab5	-0.98136455
10	0xbd264ffd	-0.040603627
11	0xbfb2feb4	-1.3983979
12	0x3f7743dc	0.9658792
13	0xbc98842e	-0.018617716
14	0x3fafd230	1.3736019
15	0x3e3c5699	0.1839241
16	0x3e1ff74e	0.15621683
17	0xc0e36309	-7.1058393

R1.layers.0.bias f4 [2]
0	0xbf69fa8b	-0.91397923
1	0x3e94dd82	0.29075247

R1.layers.2.weight f4 [2, 2]
0	0xbf234a8e	-0.63785636
1	0xbe7f0495	-0.24904092
2	0x3f0a5dff	0.54049677
3	0x3faa206d	1.3291146

R1.layers.2.bias f4 [2]
0	0xbe744876	-0.23855767
1	0xbdc193a6	-0.0945199

R1.layers.4.weight f4 [3, 2]
0	0x3d745216	0.059648596
1	0xbf3a1613	-0.7268993
2	0xbf0aedde	-0.54269207
3	0xbf088944	-0.5333445
4	0x3f559da5	0.8344367
5	0x3ffff83c	1.999763

R1.layers.4.bias f4 [3]
0	0x3f1f740b	0.6228644
1	0x3ea9848f	0.33108947
2	0x3e915234	0.28383029

O.layers.0.weight f4 [2, 6]
0	0xbe831ae3	-0.2560645
1	0xbf0285df	-0.5098552
2	0xbecc2c28	-0.3987744
3	0xbe2977df	-0.16549633
4	0xbee41b2e	-0.44551986
5	0x3e034c1f	0.12822007
6	0xbe497037	-0.19671713
7	0xbea7799e	-0.32709974
8	0xbe2d525e	-0.16925952
9	0xbdd0b7e1	-0.10191322
10	0xbf30edd7	-0.69112915
11	0x3f2ba15a	0.6704308

O.layers.0.bias f4 [2]
0	0xbe7fda81	-0.24985696
1	0xbee54e36	-0.44786233

O.layers.2.weight f4 [2, 2]
0	0xbe934778	-0.28765464
1	0xbe9dfb33	-0.30855712
2	0x3e75645e	0.23964068
3	0xbf467d82	-0.7753526

O.layers.2.bias f4 [2]
0	0xbdc4f59d	-0.096171595
1	0xbf26e0e1	-0.6518689

O.layers.4.weight f4 [3, 2]
0	0x3e3f69f4	0.18692762
1	0x3ef3613f	0.4753513
2	0xbeb176b7	-0.34660885
3	0xbeb8e002	-0.36108404
4	0xbe68ac58	-0.22721994
5	0x3ee5a68c	0.44853628

O.layers.4.bias f4 [3]
0	0xbd0aea2e	-0.033914737
1	0xbd595a58	-0.053064674
2	0x3ea876aa	0.32903033

R2.layers.0.weight f4 [2, 9]
0	0xbd4e4cbd	-0.050366152
1	0x3e0789c8	0.13236153
2	0xbea2c7d0	-0.3179307
3	0x3cd28c13	0.025701558
4	0xbe40a3f7	-0.18812548
5	0xbe0dd9df	-0.13852642
6	0xbf1c9e13	-0.611787
7	0xbed681ba	-0.4189585
8	0x3f951a46	1.1648643
9	0xbefe5a34	-0.49678195
10	0x3fbf2390	1.4932728
11	0xbec4274f	-0.3831124
12	0xbf4a7a93	-0.79093283
13	0x3f967d13	1.175692
14	0xbf3a248f	-0.72712034
15	0xbec562f2	-0.38552052
16	0xbd31c0bb	-0.043396693
17	0xbf2cac2e	-0.67450225

R2.layers.0.bias f4 [2]
0	0xbe6c27ec	-0.23062104
1	0xbf790048	-0.97266054

R2.layers.2.weight f4 [2, 2]
0	0xbecc1f08	-0.39867425
1	0x3daa3655	0.08311144
2	0x3f4c8331	0.7988768
3	0xbd5d57fd	-0.05403899

R2.layers.2.bias f4 [2]
0	0xbf18e8d0	-0.59730244
1	0xbf174a91	-0.59098154

R2.layers.4.weight f4 [1, 2]
0	0xbee9d1a6	-0.45667762
1	0xbef1fc16	-0.4726264
