models/optimization/IN_100_7_0.010008401981160483_0.551950099564779_1_10.pt (torch, 40474 bytes, 18 tensors)

weight f4 [7, 9]
000000 52 49 5f 3d 20 07 c5 3d 0f ef e4 bd 6b 2b 8a 3e
       0.054513283 0.096204996 -0.11178409 0.2698625
000010 2a a1 3b 3e d1 39 1d 3e e3 ac 33 bf e6 d2 60 3d
       0.18323198 0.15354086 -0.7018568 0.05488863
000020 ea e2 19 bf 0c 1f 2a be e5 8d ca be a5 73 f3 3d
       -0.6011187 -0.16613406 -0.39561382 0.11887292
000030 f6 39 ed bd 9f ba d2 3d 7f 6f c4 3e 99 7b 05 3d
       -0.11583321 0.102895014 0.38366315 0.032588575
000040 69 2a 5f be cd b9 78 be 1f 28 f4 3e a0 13 aa 3e
       -0.21793522 -0.24289627 0.4768686 0.33218098
000050 91 85 43 3e a9 c6 b8 be 48 38 44 bd 86 8b 4e bd
       0.1909392 -0.36089066 -0.047905236 -0.05042603
000060 e6 72 2a 3f 1d 31 07 be 9b 58 3f 3f ee de 86 3d
       0.6658157 -0.13202329 0.74744576 0.06585489
000070 8d aa c7 be 34 6e 93 3e 9e e4 9c be 33 fb 6e 3d
       -0.38997307 0.28795016 -0.3064317 0.05834503
000080 55 fd 9f 3e a9 f3 a3 bd e1 1a b6 bd 2d d5 c4 bd
       0.31247965 -0.08005459 -0.088918455 -0.096109726
000090 8e b2 d1 be 96 bc 86 3e 62 4b 71 be a9 af 6c 3e
       -0.4095654 0.26315755 -0.23563913 0.23113884
0000a0 c5 20 51 bd ae 2f 10 3f 1a b6 05 bf 9e 49 7e 3b
       -0.051056642 0.56322753 -0.5223099 0.0038801203
0000b0 a0 e0 1c bf 8d b2 fa 3d 7f d2 4d 3e a7 d4 27 3f
       -0.6128025 0.12241087 0.20099829 0.65558857
0000c0 d7 d7 bc be db 1f 15 bd 7a b0 50 be cc f1 4c 3f
       -0.36883423 -0.036407333 -0.2037982 0.8005645
0000d0 3a 2c b6 3d 57 29 d6 3e f1 31 83 be 3c 19 44 3e
       0.08895154 0.41828415 -0.2562404 0.19150251
0000e0 7f a2 76 be f2 55 a7 3e 42 4d 0e bc 04 88 5d bc
       -0.24085425 0.3268276 -0.008685412 -0.013521198
0000f0 32 0b c0 be 50 b8 3e be f3 46 1e bf
       -0.3750854 -0.18624997 -0.6182701

bias f4 [7]
000000 ab 03 7b bd fb 9b ac be 07 22 eb 3c 3f 99 51 3e
       -0.061282795 -0.33712754 0.028702749 0.20468615
000010 cb 70 23 3e 59 03 b2 ba 8d ca cb 3e
       0.15960996 -0.001358132 0.3980297

weight f4 [7, 7]
000000 02 63 72 3e 8a 67 b9 3d 1a d9 54 be 61 ea 26 3c
       0.23670581 0.09052952 -0.20785943 0.010187716
000010 f6 08 df 3e c6 cc 6f bd ad 1c 5c 3e 24 39 b9 3e
       0.43561524 -0.058544897 0.21495314 0.36176407
000020 da 94 03 3e de e8 22 bf eb 98 11 bd 25 f9 d7 3e
       0.12849751 -0.6363658 -0.035546225 0.4218227
000030 ef 0f 08 bd e9 f8 99 bd 4c 70 af be c8 a8 53 be
       -0.03321832 -0.07518179 -0.34265363 -0.20669854
000040 a6 f6 89 3d 4d 42 7e bd 0f 10 3c 3e 3e 25 75 3e
       0.067364976 -0.062074948 0.18365501 0.23939988
000050 c5 24 29 3e 58 de d5 be 97 e3 8d 3e 96 a7 4b be
       0.16517933 -0.41771197 0.277127 -0.19888148
000060 26 2c 58 3e ce 7a 45 bd 45 53 60 be c0 19 a4 bc
       0.21110591 -0.04821282 -0.21906765 -0.02003181
000070 59 ff 95 be b3 9c a1 3e 4d 0e 9b bd b5 64 ba 3c
       -0.29296377 0.31564865 -0.07571087 0.022753099
000080 d0 58 06 be 44 75 09 bd 6e 71 ac be fb 9e a8 be
       -0.13119817 -0.0335591 -0.3368029 -0.32933792
000090 61 fe a0 bd 4e f0 df bd f7 ca b8 3e e3 9e be be
       -0.07861019 -0.10934506 0.3609235 -0.37230596
0000a0 7d 5a 85 be dc ca a6 3d 7e 12 d3 be 19 4c 16 be
       -0.260456 0.08144161 -0.41225046 -0.14677466
0000b0 b5 85 33 3f 33 cd 83 3e e0 f4 1e bf 40 63 e0 3e
       0.70125896 0.25742492 -0.620924 0.43825722
0000c0 38 26 d6 bd
       -0.104565084

bias f4 [7]
000000 9f 61 1c 3e 79 5d 18 3d 80 13 20 3d 11 bf b3 3d
       0.15271614 0.037198517 0.039081097 0.087766774
000010 0f e5 41 be e4 72 75 bc 91 84 49 3d
       -0.18935035 -0.014981005 0.04919869

weight f4 [3, 7]
000000 28 36 8b 3e 60 b4 12 be 38 a3 f3 be 4c 24 3f be
       0.27189755 -0.1432662 -0.47585464 -0.1866619
000010 55 89 90 be d8 bc 8b be fa 7b 97 3e ec 98 e5 3e
       -0.28229776 -0.27292514 0.29586774 0.44843233
000020 fb 46 95 3e 1c da 14 3e 77 c9 47 3e e2 6b cc be
       0.29155716 0.14536327 0.19510446 -0.39926058
000030 3c 5d 09 3e 70 0d c4 3e c3 21 e0 be f1 3b e2 be
       0.13414472 0.38291502 -0.43775758 -0.44186357
000040 0f 51 04 3e 0f 41 c0 3d 8c f7 f8 bd 18 95 b5 3a
       0.12921546 0.09387409 -0.12156591 0.0013853638
000050 fa bb 63 bf
       -0.88958704

bias f4 [3]
000000 71 e5 06 3e 12 83 78 be f7 50 b2 bd
       0.13173462 -0.2426875 -0.08706849

weight f4 [7, 6]
000000 d7 7f d7 be d1 9a 8f 3e 07 61 a2 3d 08 b0 99 3e
       -0.42089722 0.28047803 0.07928663 0.30017114
000010 1e f8 c5 be 36 f1 43 3e ef a6 08 3e 69 76 c3 3e
       -0.3866586 0.19134983 0.1334493 0.38176277
000020 5b 2f ec bd 4f 07 67 be 66 52 20 3d b6 bf e8 be
       -0.1153247 -0.22561382 0.03914108 -0.45458764
000030 5a 6f 26 3c ff 7d f9 bc 01 74 ce 3e a6 7b 72 be
       0.010158384 -0.030455587 0.4032288 -0.2367998
000040 d2 09 c2 3d b1 a5 3b 3d e4 32 8c be 3a 0b cf 3e
       0.09474529 0.045812313 -0.27382576 0.40438253
000050 ba af 09 3d e1 c1 06 bf 34 9b 65 3e 3c 92 02 3f
       0.03361485 -0.52639586 0.22422487 0.51004386
000060 cf e3 cc bd f1 2e c0 bd 64 ae b6 3e 0b d9 20 3e
       -0.100043885 -0.09383953 0.35679924 0.15707795
000070 fc a7 7d 3e 07 a7 06 3e d1 de aa 3e fb 72 16 3e
       0.24771112 0.13149653 0.3337312 0.14692299
000080 15 a3 8e 3e 25 b2 dc be cf 82 91 be de a8 92 be
       0.27858797 -0.43104663 -0.28420112 -0.2864446
000090 1c a6 6e be 89 b7 68 3d 9c 83 bc 3e 80 87 8d 3e
       -0.23305553 0.056815658 0.3681916 0.2764244
0000a0 09 db 68 be 3f 05 c6 be
       -0.22739805 -0.38675877

bias f4 [7]
000000 e3 ac c6 bd f4 7b a2 3e 11 d9 04 3b eb 45 cd 3e
       -0.09700944 0.31735194 0.0020270983 0.40092406
000010 c9 b3 b9 be 7b 6c 7e be f3 76 70 be
       -0.36269978 -0.2484607 -0.23482876

weight f4 [7, 7]
000000 ea 13 4c 3e 6c 2e a0 3e 8f 38 7b be 9d 2e 93 be
       0.19929472 0.31285417 -0.24533294 -0.287465
000010 61 0c 67 be 6b 86 3e be 13 6d ba 3d 39 83 8d 3e
       -0.22563316 -0.18605964 0.091028355 0.27639177
000020 9f ff c8 3e 59 d3 21 3e a1 08 13 3e e5 78 45 be
       0.39257523 0.15803279 0.1435876 -0.19284399
000030 3b d0 d4 bc ca c0 2e 3e eb 73 cf 3e c0 07 6a be
       -0.025978198 0.1706573 0.40518126 -0.22854519
000040 43 50 7c bd 1e af 59 3e ca 3d d5 bd 27 a0 a8 3e
       -0.06159998 0.21258208 -0.10412176 0.32934687
000050 f8 09 a7 be 8c ad 80 be 6c c8 ce 3c 25 7d f1 3e
       -0.32624793 -0.25132406 0.025242053 0.4716579
000060 80 72 f9 3e 0e bb 3c bb a6 35 c3 3e 7a b6 8e be
       0.4872017 -0.0028798017 0.38126868 -0.27873594
000070 80 e1 0d 3d 3d ba e4 be c8 ca 60 3e 5d 4c c6 bc
       0.03463888 -0.4467334 0.21952355 -0.024206335
000080 06 cc 01 be 4f 25 e0 3e d8 86 3e be de 5e a1 bd
       -0.12675485 0.43778464 -0.18606126 -0.078794226
000090 20 71 be 3e 82 d8 ba 3e 0e 4c a3 be 27 1d 5e 3d
       0.37195683 0.36493307 -0.31893963 0.05422702
0000a0 fb d2 96 3e 38 1e 8d 3d b1 f3 1b 3a e3 24 df bd
       0.2945784 0.068905294 0.00059490936 -0.108957075
0000b0 df c0 fc 3c c2 27 d9 be 3f aa c7 be 26 a8 d5 be
       0.030853687 -0.42413145 -0.38997075 -0.4172985
0000c0 1d e5 5e 3b
       0.0034011074

bias f4 [7]
000000 31 47 c1 bd 42 e9 5d be 58 c2 04 3d 1c ec ec 3e
       -0.09437407 -0.21671012 0.032411903 0.46273887
000010 0d 99 b2 bd 1b b5 8c 3c 60 b5 a4 bc
       -0.08720598 0.017176202 -0.020106018

weight f4 [3, 7]
000000 b8 25 c9 3d c8 b1 c9 bd 45 21 b8 bd bb 2f ed be
       0.098216474 -0.09848362 -0.08990721 -0.46325478
000010 f0 40 3a be 0e 5b aa 3c 26 bf 29 3c f0 fe b2 3e
       -0.18188834 0.020795371 0.010360515 0.34960127
000020 80 20 19 3d 35 a5 e3 bb 03 ec 09 3c 24 c0 8b 3e
       0.03738451 -0.0069471844 0.008418086 0.2729503
000030 3c fa b7 bd cf 91 d3 3d ce e9 84 be 4d 3e b0 3e
       -0.08983275 0.10330545 -0.2595963 0.34422532
000040 37 64 c2 3e 47 3f 0f 3e 44 1b 81 3e cb eb e3 3e
       0.37967083 0.13988982 0.25216115 0.44515833
000050 26 f9 b0 be
       -0.34565085

bias f4 [3]
000000 1d 8b 73 be 49 4d 8b 3e 6b fe 1c be
       -0.23783536 0.272074 -0.15331428

weight f4 [7, 9]
000000 05 be 67 3e b4 7f f3 3e 26 89 37 3c 31 90 f6 bd
       0.2263108 0.47558367 0.011202132 -0.12039221
000010 02 f6 c0 3e f0 65 35 be 44 0b 95 3e d3 e5 03 3f
       0.3768769 -0.17714667 0.29110157 0.5152256
000020 ca 65 30 bf 8a 61 1f be 55 79 76 be 8b 68 c3 bc
       -0.6890532 -0.15564552 -0.24069722 -0.02385356
000030 65 bd 9c 3e 01 77 2e be ce bb 35 be 2c 43 4e 3e
       0.30613247 -0.17037584 -0.17747423 0.20142812
000040 11 b7 06 3e 9a 96 c8 bc bc 23 75 be 56 2a 4e 3e
       0.13155772 -0.024485875 -0.23939413 0.20133337
000050 4b 73 e6 3e 2f 05 c3 3c a5 e2 0a 3e 9a f4 91 3e
       0.45009837 0.023806183 0.1356302 0.2850693
000060 a7 16 82 be a3 88 82 be 54 65 02 3f 38 2f 44 3e
       -0.25407907 -0.2549487 0.50935864 0.19158638
000070 5c e2 80 3e c8 99 d1 be 73 aa 7c bd 1b b0 33 bc
       0.25172698 -0.40937638 -0.06168599 -0.01096728
000080 02 de 16 bd 62 16 b1 3d 7d b7 01 3f bf a4 07 bf
       -0.036832817 0.08646847 0.50670606 -0.5298576
000090 4e 2d 50 3d 1b 27 a2 be 66 f1 82 3d 4a b2 00 be
       0.050824456 -0.3167046 0.06393699 -0.12568012
0000a0 62 ec 61 3d 54 54 97 be 43 90 15 be 9e 62 07 be
       0.055157073 -0.29556525 -0.14605813 -0.13221213
0000b0 fd 52 aa bd 3c c7 93 be 45 49 94 3d 16 1d 0c 3e
       -0.0831661 -0.2886294 0.072405376 0.1368297
0000c0 7d ff 71 be d6 61 d7 3c e1 e6 b2 3e 87 8a 1a bf
       -0.23632617 0.026291769 0.34941772 -0.60367626
0000d0 86 f8 6e be 26 91 0d 3f b5 60 23 3e 44 64 a5 3c
       -0.23336992 0.55299604 0.1595486 0.020189412
0000e0 12 d1 5b 3d c6 a5 9a be 6a 75 40 3e f6 84 09 3d
       0.05366618 -0.302046 0.1879479 0.033574067
0000f0 ee 62 55 3e d9 bb 3f 3e f8 d6 16 bf
       0.2083852 0.18724002 -0.58921766

bias f4 [7]
000000 b9 99 72 3e e1 a7 b6 be c3 de c8 3e 6f 01 86 3e
       0.23691453 -0.35674956 0.39232454 0.2617297
000010 b0 77 c8 be 82 ff 01 3f 00 92 3d be
       -0.39153814 0.507805 -0.18512726

weight f4 [7, 7]
000000 51 e4 43 3f a9 f4 0a 3d e4 0c 16 bf 8c a2 34 3f
       0.7652026 0.033924732 -0.5861342 0.70560527
000010 c7 04 51 be a2 ca 19 bf ff 65 38 3f 79 d4 19 3d
       -0.20411979 -0.6007482 0.72030634 0.037556145
000020 f0 bf a7 3d 6b d9 5d 3e 7a 84 19 bf 1c cf 3e 3e
       0.08190906 0.2166497 -0.5996777 0.18633693
000030 31 52 3b 3f 9c aa 0a bf 5f e0 de be 4c cc 67 3e
       0.7317229 -0.5416658 -0.43530557 0.22636527
000040 ed 16 fc 3d 70 8f 19 3e 03 6e 73 3e a5 03 2f 3f
       0.1230906 0.14996123 0.23772435 0.68364936
000050 4c 6d ef be 29 db 24 3d 22 73 89 3e 23 ef f9 3e
       -0.46763074 0.04024807 0.26845652 0.4881526
000060 7a 50 f2 be 37 f5 a3 3c 77 8f 07 3f 60 0f b5 be
       -0.47327024 0.020014388 0.52953285 -0.35363293
000070 f0 55 a5 bd aa 51 da be 23 a1 3d 3f 0d e2 c6 be
       -0.08073032 -0.4264043 0.74074 -0.38844338
000080 c3 3d 4d 3d 4d 4d 0b 3d 88 f4 a2 be 8a f5 a7 bd
       0.05010773 0.034009267 -0.31827188 -0.0820113
000090 41 8d 9c 3e 11 c5 ed 3e 92 a1 86 be c2 a1 63 be
       0.30576518 0.46439412 -0.26295143 -0.22229674
0000a0 fb 6d 2e 3f 0f d5 b6 be b4 3e a1 be 9f 0f 1a bd
       0.68136567 -0.35709426 -0.3149315 -0.037612554
0000b0 de 9e 46 3f 1e 82 14 bf 27 99 85 3e 9c 19 30 3f
       0.7758616 -0.58011043 0.26093408 0.68789077
0000c0 5d db 99 be
       -0.30050173

bias f4 [7]
000000 bb 24 d7 3e 52 58 db 3e fb 70 f7 3e 01 50 46 3e
       0.4202021 0.4284082 0.48328385 0.19366457
000010 a5 9d b4 3e 2b 8d 17 3e 44 3c 04 3f
       0.35276523 0.14799945 0.5165446

weight f4 [1, 7]
000000 5e be 37 bf b4 4a cb 3e 93 34 07 3f d8 a7 0d 3f
       -0.7177485 0.3970543 0.52814597 0.55334234
000010 00 2b fb 3e 9d c3 0e 3f 76 3f 1c 3f
       0.49056244 0.5576723 0.61034334

E f4 [2314, 3]
000000 5c f1 f6 3e ca b1 91 3f 25 4e d6 bf 0e c0 e7 3e
       0.48231018 1.1382382 -1.6742598 0.45263714
000010 31 40 85 3e d2 aa 51 bf 79 eb 1e 3f 82 43 fe 3f
       0.26025537 -0.81901276 0.6207805 1.9864352
000020 66 f6 2b c0 ea de c4 3e fe 0c 49 3e 36 b1 05 bf
       -2.686914 0.3845132 0.19633862 -0.5222353
000030 c3 90 27 3f 3c 88 83 3f a0 23 2b c0 73 15 2c 3e
       0.65455264 1.027595 -2.6740494 0.16805057
000040 08 d8 bc 3d f0 74 b0 be ae 9b b5 3e 2e df 84 3f
       0.09220892 -0.34464216 0.35470337 1.0380609
000050 8e 3b bf bf d4 b4 2e 3e a8 93 db 3d 1b 68 be be
       -1.494005 0.17061168 0.107215226 -0.371888
000060 78 63 d5 3e 51 f3 a2 3e 0c 23 99 bf f2 55 e0 3e
       0.4167745 0.3182626 -1.196382 0.4381557
000070 9e ad 8b 3f af 6a d1 bf 8e d5 94 3e 80 a3 e2 3d
       1.0912359 -1.6360682 0.2906918 0.110663414
000080 7a c0 df be 26 00 9a 3e d6 e7 28 3e 27 0a fa be
       -0.43701535 0.30078238 0.16494688 -0.4883587
000090 ae a9 73 3e 74 cc e4 3d c7 98 c7 be e0 71 3e 3f
       0.23795196 0.11171809 -0.38983747 0.7439251
0000a0 9e 2a 9c 3f 67 bd 44 c0 76 cb 7c 3e 76 d6 0c 3e
       1.2200506 -3.0740602 0.24686989 0.13753685
0000b0 bd de d8 be 82 41 f1 3e 84 64 ae 3f 1f 00 f6 bf
       -0.42357436 0.4712029 1.3624425 -1.9218787
0000c0 97 7d 1e 3f 32 f9 5d 3f 13 c6 17 c0 67 68 38 3e
       0.61910385 0.86708367 -2.3714645 0.18008576
0000d0 50 f8 00 3e 54 17 c2 be 68 e2 1b 3f 4a 32 72 3f
       0.12594724 -0.37908423 0.60892344 0.94607985
0000e0 a0 e6 1f c0 15 d3 91 3e 5a 6e 77 3f b4 7c ae bf
       -2.4984512 0.28481355 0.9665276 -1.3631806
0000f0 9e 01 d3 3d b8 61 f1 3d a7 4f ae be 24 62 f8 3d
       0.10303043 0.117862165 -0.34045145 0.12128094
000100 a4 96 3e 3e a2 8d cf be 46 4b 8d 3e b7 bc f7 3e
       0.18612152 -0.40537745 0.27596492 0.48386165
000110 c7 4a b8 bf 76 fa 22 3d fc 2e 4c 3e ba 3e b6 be
       -1.439782 0.03978964 0.19939798 -0.35594732
000120 a9 41 95 3d 53 4b c0 3e 91 e7 13 bf cb 50 73 3f
       0.07287914 0.37557468 -0.5777522 0.95045155
000130 8c 31 e8 3f 44 1d 88 c0 10 4a 91 3d 08 5c 50 3e
       1.814012 -4.2535725 0.070942044 0.20347607
000140 b8 52 cb be 29 16 be 3d 7f ae a0 3e 68 eb 01 bf
       -0.39711547 0.092815705 0.3138313 -0.50749826
000150 da e5 85 3e 20 2a 7f 3f 9d 5c b0 bf 64 f2 53 bd
       0.26151925 0.9967365 -1.3778263 -0.051744834
000160 73 41 d3 3e 30 79 08 bf e0 5a 84 3c bf 78 f7 3e
       0.4126087 -0.5330992 0.016156614 0.4833431
000170 23 0f 53 bf be b1 4b 3e 0e a0 2e 3f ee 51 ca bf
       -0.8244497 0.19892022 0.68212974 -1.5806253
000180 d3 bc 34 3f f5 58 8f 3f b4 da 37 c0 85 13 19 3f
       0.7060062 1.1199023 -2.8727236 0.5979541
000190 d4 04 4a 3f 69 2b 0e c0 26 df f1 3e 8d 84 ab 3f
       0.7891362 -2.2213995 0.4724056 1.3399826
0001a0 53 ce f2 bf c1 7f 7e 3e f4 ad f2 3d a4 63 d6 be
       -1.8969215 0.24853422 0.11849585 -0.41872895
0001b0 52 6c 4a 3f ab 89 b2 3f 10 3e 5a c0 e4 75 02 3e
       0.79071534 1.3948263 -3.410038 0.12740284
0001c0 23 23 8d 3e 17 f3 33 bf fa 7e b1 3f bf 63 bb 40
       0.2756587 -0.702928 1.3866875 5.855926
0001d0 02 62 e4 c0 8d ac 66 3f 73 d6 51 40 1f 43 86 c0
       -7.136964 0.9010704 3.278714 -4.1956935
0001e0 0a 54 c6 3e c0 2f 35 3e 46 a1 01 bf 74 60 aa 3f
       0.38735992 0.17693996 -0.5063671 1.3310685
0001f0 95 ec b0 40 19 8d d8 c0 b7 64 4d 3f 10 63 66 3f
       5.5288796 -6.767224 0.80231804 0.8999491
000200 ba ad 24 c0 98 1c 27 3f ef 77 0b 40 a6 ac 3a c0
       -2.5731034 0.65278006 2.1791952 -2.9167876
000210 4e 7d 90 3e da 79 2d 3e d3 e7 ed be 09 c1 8e 3e
       0.282206 0.16941014 -0.4646593 0.2788165
000220 9e d3 31 3e cb 3e e8 be 53 9e 39 3f 21 ab 81 3f
       0.17365882 -0.45360407 0.7250721 1.0130349
000230 f5 20 2d c0 48 6d 0d bd d9 b8 d4 3e 18 fd f9 be
       -2.7051365 -0.034528047 0.41547278 -0.48825908
000240 00 cf 06 bd bd be c4 3e 5c e1 ea be 3e 35 35 3e
       -0.032912254 0.38426772 -0.4587506 0.17696092
000250 86 25 9d 3f cb dc c7 bf c4 46 74 3f 90 63 e7 3f
       1.2277076 -1.5614256 0.9542048 1.8077259
000260 a0 dd 87 c0 23 23 0d 3f 6a 1e 5b 3f 09 1c 13 c0
       -4.245804 0.5513174 0.85593283 -2.2985861
000270 26 03 ae 3f d4 17 33 40 4f 5c c8 c0 45 08 15 3e
       1.3594711 2.7983294 -6.261268 0.14553936
000280 61 b4 84 3e de 21 42 bf d8 d5 e3 3f 89 dc 74 40
       0.25918868 -0.7583293 1.7799635 3.8259604
000290 53 a2 05 c1 d2 4c d3 3f ae a8 60 40 1c b7 f6 c0
       -8.35213 1.6507819 3.5102954 -7.709852
0002a0 32 9d ff 3d 08 83 08 3e 31 eb b4 be 0c 68 97 3e
       0.124811545 0.13331234 -0.35335687 0.2957157
0002b0 bc 2d 7f 3f 26 73 b3 bf fd 1c 14 3f 8a af 5e 3f
       0.9967916 -1.4019516 0.5785673 0.869866
0002c0 c8 04 16 c0 73 4e 13 3e 2a f1 6e 3e d4 2e f5 be
       -2.3440418 0.14385395 0.23334184 -0.4788729
0002d0 cc 4c 8f 3f 8b 6c 08 40 8f c9 9d c0 fb cc 01 3f
       1.1195312 2.131625 -4.9308543 0.507034
0002e0 0e fa e9 3f a8 b9 19 c0 bc 73 41 3e ae 48 42 3e
       1.8279436 -2.4019566 0.18891805 0.18973038
0002f0 4a e1 d6 be e9 b3 51 3f ba 74 b3 3f de 78 5c c0
       -0.41968757 0.81915146 1.4019997 -3.4448771
000300 31 b3 48 3e d8 2f 6d 3e d9 5c e8 be ab d5 17 3f
       0.19599606 0.23162782 -0.45383337 0.59310406
000310 0b 19 15 40 19 01 3e c0 f7 b2 06 40 46 e4 93 40
       2.3296535 -2.968817 2.1046731 4.6216154
000320 6f 86 1f c1 6e 9d e7 3f ff f6 79 40 ca 30 08 c1
       -9.970321 1.8094919 3.9057004 -8.511911
000330 7d 43 33 3f 18 7b a0 3f 8c 35 46 c0 f4 2d 27 bd
       0.70024854 1.2537565 -3.0970182 -0.04081531
000340 49 d7 ca 3e 4c d6 05 bf 08 14 c9 3e 50 f2 43 3f
       0.39617375 -0.52280116 0.39273095 0.76541615
000350 b1 25 01 c0 d0 19 ab 3f 20 93 30 40 3a a1 c5 c0
       -2.0179255 1.3367252 2.7589798 -6.175931
000360 73 e4 c1 3e ba 97 41 3e 5f 0c 04 bf 0a 41 c9 3e
       0.37869605 0.18905535 -0.51581377 0.39307433
000370 a6 17 35 3e 92 91 0d bf ba 40 e9 3e 8e 0b 70 3f
       0.17684802 -0.5530025 0.45557195 0.9376763
000380 39 47 b7 bf 9c 80 3e 3e 66 f2 48 3e 8d 1f e3 be
       -1.431861 0.18603748 0.19623718 -0.4436001
000390 46 cc 3c 3e ba 38 3b 3e 55 1e d8 be 15 8b b7 3e
       0.18437299 0.18283358 -0.42210642 0.358483
0003a0 90 af 37 3e 68 99 fe be 82 e4 bd 3e f2 19 39 3e
       0.17938066 -0.49726415 0.370884 0.18076304
0003b0 f4 25 0e bf 80 10 3b 3f bd af 19 40 b8 56 4a c0
       -0.5552666 0.7307205 2.4013512 -3.161543
0003c0 48 06 f9 3e c2 3b a1 3f 05 d9 e9 bf 85 f9 04 3e
       0.48637605 1.2596362 -1.8269354 0.12985809
0003d0 e4 82 f5 3d 17 c3 b0 be 7a 45 4a 3f 2c 6b 2b 40
       0.11987856 -0.34523842 0.7901226 2.6784163
0003e0 3a 10 5f c0 fa 85 77 3f d4 42 67 40 92 9a 91 c0
       -3.4853654 0.96688807 3.6134539 -4.5501184
0003f0 9a da 11 3f a6 65 db 3f 0a 5b 17 c0 ac 8f 89 3f
       0.56974185 1.7140396 -2.3649316 1.074697
