models/optimization/IN_100_10_0.004721003367575437_0.7805900776990559_7_1.pt (torch, 16154 bytes, 18 tensors)

weight f4 [10, 9]
00000000: e289 933c 07d9 ffbc 5eb3 9abe 93e9 83be
00000010: a917 40be 3004 ac3e 9d2d c5be 8db7 ae3f
00000020: 87a5 3bbf 1572 2ebe 4ed6 b7bd 626d 13bf
00000030: ccb2 213e 829a a33d 76c3 103f 67cf ad3d
00000040: b8bf 8fbc c6c1 91c0 b1e9 1cbe 2a31 413e
00000050: 6e32 d03e b407 b4bd f8d9 a63d 1975 60be
00000060: 9f91 a8be aa66 6f3f 0b56 583f 96b9 b639
00000070: 9714 983d e201 0ebe e108 483e c4d9 cb3c
00000080: 8e97 093e e9ee 703e be55 ecbc 7699 d8bc
00000090: 6648 853e 3eb9 4dbe 7bbe 423e ab3a 61be
000000a0: e3ca 73be 335a 453e 663c cbbd 1ebd 5d3e
000000b0: 481c 16be 66ed 0d3e a05b 92be c3e0 103e
000000c0: b044 9b3e 3039 7cbe bed2 92be 563f 9d3c
000000d0: 20da 6abd d6e3 6ebd 8c9e 65be 9535 d0bc
000000e0: 15e1 d0be 7c98 d93d ff2e d6bd e669 b7be
000000f0: f4a7 4d3f 050d 7ebf ff7a 983e 6921 acbe
00000100: 3291 5bbe 3113 4ebe bb91 883d deb5 5abe
00000110: cc25 b43e be9e 4dbe 7c00 f03a 43f6 a4be
00000120: d849 353d 567e 56be 747a d73e 5621 18bd
00000130: 102e 4f3e 7b9d e8be 6017 5f3e 9c26 023d
00000140: ccbb 9740 c2a1 f23d d7d4 333b 0a50 cc3e
00000150: 9a61 73be fa7c bdbd 4707 eabe 03e4 4f3f
00000160: 87bd 683f 9f3d 2840
0.018010084 -0.031231416 -0.3021497 -0.2576414 -0.18759026 0.33596945 -0.38511363 1.3649765
-0.7329945 -0.17035706 -0.08976422 -0.5758878 0.15790862 0.079884544 0.5654825 0.084868245
-0.017547473 -4.554904 -0.15323521 0.18866411 0.40663475 -0.08790532 0.08147043 -0.21919669
-0.329236 0.9351603 0.8450629 0.00034852017 0.07425802 -0.13867906 0.19534637 0.024884112
0.1343672 0.23528637 -0.028849479 -0.026440363 0.26031798 -0.20090196 0.19017975 -0.21995036
-0.23807864 0.1927269 -0.099236295 0.21654174 -0.14659226 0.13860092 -0.2858553 0.1414824
0.30325842 -0.2463119 -0.2867641 0.01919524 -0.057336926 -0.05832275 -0.22423762 -0.025416175
-0.40796724 0.10624787 -0.104581825 -0.35822982 0.803344 -0.99238616 0.2978134 -0.3361924
-0.21442106 -0.20124508 0.06668421 -0.2135844 0.35185087 -0.20080087 0.0018310691 -0.32219133
0.044259876 -0.20946631 0.42085612 -0.037141167 0.20232415 -0.45432648 0.2178626 0.031775102
4.7416744 0.11847259 0.0027440095 0.39904815 -0.23767701 -0.09252353 -0.45708677 0.81207293
0.90914196 2.628761

bias f4 [10]
00000000: bf9d d23e 9f0e f03c 5eed b2bd 3a40 c9be
00000010: 90eb 3fbe f328 6f3e f4e1 e2bd 8049 583e
00000020: 8a82 8e3b d7a3 2abe
0.41135976 0.029303847 -0.087366804 -0.39306813 -0.18742204 0.23355465 -0.110782534 0.21121788
0.0043490576 -0.16664062

weight f4 [10, 10]
00000000: 5b92 2dbf 69c2 193f 5e8f 31bc be43 bc3c
00000010: 8c6d 10bd ac3c 0d3e dfed 8c3e 3283 893e
00000020: e77c 48bf 67fe b2bf ab58 0abe eda3 a0bf
00000030: 5b3e 5c3e d83c 38be 3daf 693e 2b21 a83d
00000040: cafc 693e 4ac5 76be 7ac4 afbf fb09 b9bf
00000050: 438b c6be 7624 1d3f f3ed 35bc 354b 013e
00000060: ebf8 91be 8725 13be de3d c1be cea1 083e
00000070: f9a4 e63e 7904 45be 181d fd3d 8dcc 0c3f
00000080: a669 32bf 5fc5 56bb f386 613e 9172 a03e
00000090: 7cf8 16bf 3325 873e 0ac7 88bf 01e5 d6bd
000000a0: 726c cebd b009 69bf f996 2e3e e1f8 a83c
000000b0: 48cf 82be 849b 75be 6b29 903c befc e7bc
000000c0: 427e 5cbf db87 85bf 1af4 b4bd ef43 cabf
000000d0: a375 47bd b695 3d3e 0231 33be 6af3 513e
000000e0: 4602 643d f2c0 73be f31b b1bf 5f8a d5be
000000f0: 2073 6c3d 6a71 e7bf 06c2 38be 541d 4b3d
00000100: 9397 033e 0456 30be 3df9 e13d 7c8d 8cbc
00000110: 2e2a d3bf 1bd4 82be dca0 b7bd 490c 95be
00000120: 6e6e 2cbe 6062 96be a5bd 223e 1150 213d
00000130: 71f9 99be c798 b13d f12b 69bc 4d6f 51be
00000140: 302c 66be 8fe5 ed3e 161f ac3e e1d6 25bd
00000150: 2ac2 a13e f37c 4bbd 0617 aabe 9aee af3e
00000160: e499 3e3f 9695 afbe 4248 04bf 4f3e b73e
00000170: de79 7b3e 680e 02be 1d8c 40be 7c65 aabd
00000180: 0d19 b3be 4cd7 a03d bee5 223f 74a1 0abd
-0.67801446 0.6006227 -0.010837404 0.02298152 -0.035260722 0.13792676 0.2752523 0.26857907
-0.78315586 -1.3983887 -0.13510387 -1.2550026 0.21508162 -0.1799196 0.22820754 0.08209451
0.22850338 -0.24098697 -1.3731835 -1.4456171 -0.38778123 0.6138376 -0.011104095 0.12626345
-0.28510222 -0.14369784 -0.37742513 0.13342974 0.4504774 -0.19239987 0.12359065 0.5499962
-0.69692457 -0.003277145 0.22024135 0.31337407 -0.5897291 0.26395568 -1.0685742 -0.10492898
-0.10079278 -0.91030407 0.17049779 0.020626487 -0.25548768 -0.23985106 0.017597875 -0.028318759
-0.86130154 -1.0432085 -0.08835621 -1.5801982 -0.04869617 0.18514141 -0.17499164 0.20503011
0.05566623 -0.23804072 -1.3836654 -0.4170713 0.05772698 -1.8081486 -0.18042764 0.049588516
0.1285079 -0.17220312 0.110338666 -0.017157309 -1.6497247 -0.2555245 -0.08966228 -0.29110935
-0.16839 -0.2937193 0.15892656 0.039382998 -0.3007312 0.08671718 -0.014231668 -0.20452614
-0.22477794 0.46464202 0.33617467 -0.040488128 0.31593448 -0.049679708 -0.3322069 0.34361726
0.7445357 -0.34293813 -0.51672757 0.35789725 0.24558207 -0.12700808 -0.18803449 -0.08320138
-0.3498005 0.078535646 0.6363181 -0.03384538

bias f4 [10]
00000000: c59b a73d ee7a b73e 8c18 f13d 0210 373e
00000010: 5953 1b3e 3a67 be3e aa62 f73e 40cc 9fbd
00000020: 1c14 0fbd e27e ebbd
0.081840076 0.35835975 0.1177226 0.178772 0.15168513 0.3718813 0.48317462 -0.078026295
-0.034931287 -0.1149881

weight f4 [3, 10]
00000000: d05a f33e 8bc7 19bf 513e 323e a893 4bbf
00000010: 39b8 b0be ffdd 2abf c22b 20bf c109 d3bd
00000020: 6cd9 dc3e 3522 a63e 833d c43e b382 e03c
00000030: a2e6 e93e 6b45 b5be 63ca 1c3d c65c 60bc
00000040: 6849 623e b8ee 02bc e984 f83e 9fa6 523e
00000050: 51b4 af3d 2704 7abf de0b cc3e 665e 80be
00000060: 7a54 61bf 2aa7 c3bf eaf9 a7bf ef16 813e
00000070: 97dc 703e 47e7 f1bd
0.47530222 -0.60070103 0.17406584 -0.7952218 -0.3451555 -0.6674499 -0.6256677 -0.10304595
0.4313463 0.32447973 0.3832818 0.027406072 0.4568377 -0.35404524 0.03827895 -0.013693994
0.22098315 -0.007991485 0.48538902 0.20571373 0.085793145 -0.97662586 0.39852804 -0.2507202
-0.88019526 -1.528539 -1.3123143 0.2521281 0.23521648 -0.11811691

bias f4 [3]
00000000: beb7 e23c f422 d6bd a281 b0bd
0.027675506 -0.104558855 -0.086184755

weight f4 [10, 6]
00000000: 7846 393e 705a fabe 2b88 8a3e dbc8 bebb
00000010: e723 453d a5c5 e8bd c20a 0c3d 7ad6 18bf
00000020: 838a ecbe acd6 6cbe b03b 3fbe 4ab4 6dbe
00000030: dd3b 463c 5646 6a3e 1fd9 75bd b1a6 3c3e
00000040: 0b0e 56be e850 e93e 76b1 603d fde1 8dbd
00000050: 631e 01bd b8ec 9cbe 8dc5 643e 7f93 2cbf
00000060: eb4f 1dbe b325 e8bd 16b4 583e 8418 35bf
00000070: 92ff 71bf f769 e2be 19fc b0bd 9f69 813d
00000080: 3285 923e fd5d 973b d3fa 0f3f 5f64 4ebf
00000090: 48f1 34bf e8f6 a7be 6f27 c9be 91c6 9b3d
000000a0: 54ec 743d 1048 0e3d 1135 51be bf3c 0a3f
000000b0: b8bc e33d 5b36 133e 07f0 b0be d4b1 9dbd
000000c0: beb1 e6be dc76 983d 8631 e2be 56bf 263e
000000d0: 9d9a 5e3e 939a 063f e714 cd3e f815 8b3e
000000e0: c43b 36be 5f62 e53e 2023 7c3d c057 aa3e
0.18093288 -0.48897123 0.27057013 -0.0058222837 0.048129942 -0.11365823 0.034189947 -0.59702265
-0.46199426 -0.23128766 -0.18675113 -0.23213306 0.012099233 0.22878394 -0.060021516 0.18422963
-0.20903794 0.4556954 0.05485674 -0.069278695 -0.03152312 -0.30649352 0.22340985 -0.6741256
-0.15362518 -0.113353156 0.21162447 -0.7074053 -0.94530594 -0.4422147 -0.08641834 0.06318974
0.28617245 0.0046193586 0.562421 -0.80621904 -0.70680666 -0.32805562 -0.39287898 0.07606233
0.059795693 0.034736693 -0.204304 0.5399894 0.111199796 0.14376204 -0.34558126 -0.07699934
-0.45057482 0.074445456 -0.44178408 0.16283926 0.21738668 0.5257961 0.4005501 0.27165198
-0.17796236 0.44801614 0.061556935 0.33270073

bias f4 [10]
00000000: 0557 2ebf 673b 303d ce94 0b3f b13a 2cbf
00000010: 1ce4 3f3e 4e31 b4be 8a6c 3fbf 9ac1 393e
00000020: 6c56 1c3e 272c 67bd
-0.6810153 0.0430254 0.5452393 -0.67277056 0.1873936 -0.35193866 -0.7477499 0.1814026
0.15267342 -0.05643859

weight f4 [10, 10]
00000000: 3fae d33d 41bd 10be 3c60 03bd cd36 34bf
00000010: e4dc 313f 3196 6f3e 8462 4c3f 44b9 1fbe
00000020: 4e04 6a3e ed96 fd3e 8f0c 943d cfda 423d
00000030: d59a e7be b74b bd3d 6a26 473e 95b1 cb3e
00000040: 61de 09be e18e 68be 1ff3 cdbd ec97 3dbe
00000050: 367a 3a3d 56c4 21be 1c21 aa3e 607f b1be
00000060: 27f6 d63d f1f0 98bd 784b a13e df93 70be
00000070: 3d9a 9dbe 1901 97be e7a5 7dbc 3a4d d1bc
00000080: cc37 07bc 4a03 6ebd 77c4 0f3e af11 09be
00000090: b603 80bd 5f9b b43e a170 e6be 4b9e 1abe
000000a0: 8813 6e3e 12b7 0b3e 79df a5be e5d7 003f
000000b0: 1819 a33e 52d3 b23e 18a1 c7be 35b9 2e3d
000000c0: bbbe 95be 17c4 74bd 88ca 45be d9bd c03e
000000d0: 52a9 1bbf 7b8a 8e3e 1223 183e 132e c73e
000000e0: a7bb 9cbe b74f 313d c752 7dbe 8e80 a0bb
000000f0: 9a1d 4c3d 6866 b73e 6f72 e03d ac5e c4be
00000100: e1de 53be b8f9 cc3d 7ff1 9d3e 29b5 f23e
00000110: a992 73bc 8ade a33e 85f6 0ebe 773c 4dbc
00000120: b784 1d3e 6859 e2be d7b1 eabe e783 053d
00000130: 3c64 86bd 4f5c 2a3e 9b1f 35bc a926 99be
00000140: c329 1b3e fc3a 853d 1117 27be 8a8b 0b3e
00000150: f7a6 6d3d d686 48be 72ab dcbe 4c2b aa3c
00000160: dd77 0b3e fe50 3ebe e663 353c 11a4 b93e
00000170: 8ab8 b7be 331e 053e ae31 b43d 23b4 42be
00000180: f9e2 643f 40e9 ce3d e7c2 7f3e ff4e 44be
0.10335969 -0.14134695 -0.032074198 -0.7039612 0.6947768 0.23397137 0.7983782 -0.15598017
0.22853205 0.4952921 0.07228958 0.047571953 -0.45235315 0.09242957 0.19448248 0.39783922
-0.13463737 -0.22710754 -0.10056137 -0.18514985 0.045526706 -0.15797552 0.33228385 -0.34667492
0.104961686 -0.07467831 0.3150289 -0.23493908 -0.30781737 -0.29493025 -0.015481449 -0.02554952
-0.008253049 -0.058108605 0.14039789 -0.13385652 -0.06250708 0.3527479 -0.45007804 -0.15099446
0.23249638 0.13644055 -0.3239706 0.5032943 0.31855083 0.3492685 -0.38990092 0.042657096
-0.29247078 -0.05975732 -0.19315541 0.37644842 -0.6080524 0.27840027 0.14857128 0.3890234
-0.30611917 0.043288913 -0.24738608 -0.0048981374 0.049832918 0.35820317 0.109593265 -0.3835348
-0.2069049 0.100085676 0.3084831 0.4740384 -0.0148665095 0.3200572 -0.13961227 -0.012526623
0.15382658 -0.44208837 -0.45838806 0.032596495 -0.06562087 0.16636775 -0.011054899 -0.29912308
0.1515265 0.06505391 -0.16317393 0.13627449 0.05802056 -0.19582686 -0.43099552 0.020772599
0.13619943 -0.18585584 0.011071181 0.36257985 -0.3588298 0.12999801 0.08798538 -0.19014029
0.8940883 0.10103083 0.24976693 -0.1917076

bias f4 [10]
00000000: b955 e0be 2f69 283d 406a d9bd 2b41 2a3d
00000010: a918 14be e6ed 1cbf 714f d1be d463 10be
00000020: d57c d4be a48d 21bf
-0.438154 0.041115936 -0.10615969 0.041566055 -0.14462532 -0.61300504 -0.4088092 -0.14100581
-0.4150149 -0.6310675

weight f4 [3, 10]
00000000: 9348 a73e 3f04 e03e e6f1 bb3e 1fc6 04bf
00000010: e1f7 9abe 7f8e 6ebd 7a4f abbe 3bd7 3d3c
00000020: 48e2 1dbe 000b 6f3d 9f8e 03bf 0c6e 913d
00000030: 339f 6e3e 0d75 963e ce1a 6e3c ea55 f13d
00000040: 7ac2 dabe 965f 973e d4ea 64bc 43b7 cbbe
00000050: d5e8 87bd 4966 ae3e dc77 87be 4d48 ddbd
00000060: c475 d23e fb85 0b3f 7366 6cbe 5600 80be
00000070: 590d 0d3d 1236 c5be
0.32672557 0.4375324 0.3670799 -0.5186481 -0.30267242 -0.058241364 -0.33459073 0.0115869595
-0.1541835 0.0583601 -0.513895 0.07101068 0.23302917 0.29386178 0.014532758 0.11783965
-0.427265 0.29565114 -0.013972003 -0.39788255 -0.06636206 0.34062412 -0.26458633 -0.10804806
0.41105473 0.5450131 -0.23085956 -0.25000256 0.034436557 -0.38517815

bias f4 [3]
00000000: f15c b13e 6744 a33e 3755 9fbe
0.3464122 0.31888124 -0.311197

weight f4 [10, 9]
00000000: 89a1 623e b079 fa3d 0845 c23d dfd7 993e
00000010: d20c 1e3e 07cd a13e b1d8 72bf f06f 4e3b
00000020: 02e8 cebe f6cc 503e c2ad 27be 126c 3abe
00000030: 05db 9c3d 5551 e53d 17bd bdbe ec33 48bf
00000040: 86af 23bd ff2d 16bf 21d7 86be 8c57 b03e
00000050: bfda b3bd e7bd f5be 3e82 ba3e f1e7 c83e
00000060: b74a 533e e1e0 343f aa92 b33e 7d41 8a3e
00000070: 9378 853e 3acd 063d f11a e83e aa01 9f3e
00000080: 9683 16be fc83 763f 3926 073f 54bb d63e
00000090: 94a5 053e 8dbc cb3e f429 3bbd 1dea 923e
000000a0: 071b d8be c6ab 19bf 67ca e7be 98a8 9dbc
000000b0: 32d4 f2be 2eb7 ca3e 8bcc 8dbd efc6 093f
000000c0: c3da 27be 9ecd 65be be01 a6be 834e 323f
000000d0: 69fa c03e 6089 093f a3d9 433e 60fd 81bc
000000e0: dfc1 363f 4700 aebe e2ed 3dbe 84f1 abbe
000000f0: 3069 ae3d 6371 60bf 4f75 e53e fc59 fbbd
00000100: de3f 923e 9709 4e3e 0dfe c93e d5bf 40be
00000110: 6c61 36be 8492 683f c3d8 a53d fe7e 1a3f
00000120: 5881 4fbd 7309 2a3d e8df 4fbe 0413 233f
00000130: ed4f a0be 0f39 97be 94b9 3ebf da0f 19be
00000140: e7ff 6dbe b255 0abf 2b4c 3bbf a438 0dbe
00000150: d0ec 04bf 1d17 36bf 2428 0fbf b60d 793e
00000160: 833c 0e3f 6040 bfbc
0.22131933 0.12230241 0.09485823 0.3004751 0.15434578 0.31601736 -0.94861895 0.0031499825
-0.40411383 0.20390686 -0.16374877 -0.18205288 0.07658962 0.111971535 -0.37058327 -0.78204226
-0.039962314 -0.58663934 -0.26336005 0.34441793 -0.08781957 -0.47996446 0.36427492 0.39239457
0.2063397 0.7065564 0.35072833 0.2700309 0.26068553 0.032910563 0.45333055 0.31055957
-0.14698634 0.9629514 0.527927 0.41939795 0.13051444 0.3979229 -0.045694306 0.2869424
-0.4220812 -0.6002773 -0.45271608 -0.01924543 -0.47427517 0.3959288 -0.06923779 0.53819174
-0.16392045 -0.22441718 -0.32423204 0.6965105 0.37691048 0.5372524 0.1912599 -0.015867889
0.71389574 -0.33984587 -0.18547776 -0.335827 0.08516157 -0.87673014 0.44816062 -0.122730225
0.28564352 0.20120846 0.39451638 -0.18823178 -0.17810601 0.90848565 0.08097985 0.60350025
-0.05066046 0.041512918 -0.20300257 0.6370089 -0.3131098 -0.2953572 -0.7450192 -0.14947453
-0.2324215 -0.5403701 -0.731631 -0.13791138 -0.5192385 -0.7112902 -0.55920625 0.24321637
0.55561084 -0.023346126

bias f4 [10]
00000000: 4c89 22bd 9d22 ff3c d073 5e3e f733 4a3e
00000010: f388 3d3e 55aa babc 03a9 ddbe 60f2 153f
00000020: ef67 96bd 09cf 53be
-0.039681718 0.031144435 0.21723866 0.19746386 0.18509273 -0.022786299 -0.43293008 0.5857296
-0.073440425 -0.20684446

weight f4 [10, 10]
00000000: c950 eabd 580c 033f 7470 36be 6699 bbbe
00000010: cec7 b63e 1fe7 85bf 952d 4cbf f1ba 19bd
00000020: 5e05 b33e dc48 b73e 1f48 b23d 6ba8 9a3e
00000030: 85a8 42bf 8413 2fbe 6144 8e3e 27fd 6fbf
00000040: 4d9b 17bf 932e eabe d844 bb3e 16e5 79be
00000050: ab32 193e b8e2 dd3e 8a1e 7f3d f409 01bf
00000060: 5364 c6be 6161 293c 9e2f 80bf 60ad 32bf
00000070: 98b4 37be 5b68 08be 3ded bfbe 76d3 98bc
00000080: 3c90 3b3e cdc7 133f 9889 95be 2555 363e
00000090: 76a2 2cbe 0d4c 023f 84cc 32bd f7e4 89bf
000000a0: d40e 4f3e 0c67 ea3d 35d1 193f 7514 823e
000000b0: 62d9 44bf b6fc 093e 4916 ddbe 28f2 243f
000000c0: 5ecc 693d eed1 22bf 64a5 4b3e 4851 e33e
000000d0: 9938 c43e 3b21 cdbe afc3 f23e 451d ddbe
000000e0: 25f1 f4bd 35c1 14bf 5932 1f3d 704f 493e
000000f0: 352a 923e 9091 c63e 2344 a63e 3d7f f2be
00000100: 1742 ac3e 9bff 9dbf f0f6 10bf fa67 08bf
00000110: 1150 943e b593 73be cd8a 53bd 9d3d 84be
00000120: 2070 103f 6e08 593f b8cc 53bd 9d9c da3e
00000130: 6f83 993c 5353 033f 948c 02be 2836 22be
00000140: 4c94 f53e 688f e93e a982 513e 46c4 e1bd
00000150: 2255 633e 21e5 39bf 9844 6b3e bf56 2bbf
00000160: eea8 113f 80f4 abbe 5b18 0cbf 14bb 8abc
00000170: 5ad9 da3e 1bbd 713f 2b0b 31be b228 dc3e
00000180: c772 85be ff4b ea3e 51ac dcbe b342 88bd
-0.1144119 0.5119071 -0.17816335 -0.3664047 0.35699314 -1.0461158 -0.7975705 -0.037531797
0.34965032 0.35797775 0.08705162 0.30206618 -0.7603839 -0.17097288 0.27786544 -0.93745655
-0.59221345 -0.45738658 0.3657596 -0.24403796 0.14960735 0.43337035 0.062284984 -0.5040581
-0.38748416 0.010338158 -1.0014532 -0.697958 -0.17939985 -0.13321058 -0.37485686 -0.01865552
0.1831674 0.57726747 -0.29206538 0.17805918 -0.16858849 0.50897294 -0.043652073 -1.0773
0.202205 0.11445436 0.6008485 0.25406232 -0.768942 0.13475308 -0.43181065 0.64432
0.057079665 -0.6360158 0.1988731 0.4439795 0.3832443 -0.40064415 0.4741492 -0.43186393
-0.11960057 -0.5810731 0.038866375 0.19659209 0.28547826 0.3878293 0.3247386 -0.473627
0.33644173 -1.234363 -0.56626797 -0.53283656 0.28967336 -0.23786815 -0.051646043 -0.25828257
0.5642109 0.8477849 -0.051708907 0.4269761 0.01873943 0.5129902 -0.12748939 -0.15840971
0.47964704 0.45617223 0.20459999 -0.11023764 0.22200444 -0.7261525 0.22975385 -0.6692924
0.5689839 -0.33584976 -0.54724663 -0.016934909 0.4274395 0.9442918 -0.17289416 0.42999798
-0.2606413 0.45761105 -0.43100217 -0.06653347

bias f4 [10]
00000000: cf21 a33e 2522 5b3d c086 d53d fdc1 2c3f
00000010: d017 f93e 3555 973e a204 d73d ebc5 803e
00000020: d440 9d3d 8095 0a3f
0.3186173 0.05349936 0.10426092 0.674835 0.4865098 0.29557195 0.104989305 0.25151
0.076783806 0.5413437

weight f4 [1, 10]
00000000: 58ee 373f b236 9c3e be9f 66bd 5ac1 90bf
00000010: b57a 5ebf 562d b83e 8493 223f 1a60 e2be
00000020: 516f c23e a087 1bbf
0.7184806 0.3051048 -0.056304686 -1.1309006 -0.86905986 0.3597209 0.6350634 -0.44213945
0.37975553 -0.6075382

E f4 [216, 3]
00000000: 2a7f 1e3f 3206 9d3f ccd8 f63e cd6a fbbe
00000010: 6ace 433e 1af8 b2bf 329a 3cbf b00d 1a3e
00000020: 0cf1 e9bf a54e 9bbe 0a6a 613e 9d54 8dbf
00000030: 7fef f0be 0be8 a33d 9697 a9bf f4cd 06bf
00000040: 683d 023e ea1d bebf fc3b 0ebf fa68 303e
00000050: ac84 bfbf badd 193f fd2c 933f 465f ee3e
00000060: 0a14 34bf 5ae9 403e 22a5 e9bf c35d 1e40
00000070: 0826 1640 bd4e 0e3f f7ba fcbe ea10 0e3d
00000080: de16 a0bf 81a3 933f d1ea fe3f 1833 493f
00000090: 5f1f cb3f 9568 cf3f bffb 083f 1234 27bf
000000a0: ba59 713e b41d e9bf 9acd 2dbf c277 523e
000000b0: 603e e8bf fcd1 9c3d 4e7d 663e f4d3 fcbe
000000c0: 30cb 1540 41e6 f83f 5ce7 293e 303a c63d
000000d0: 1c23 73bd 307a d8bd 6771 4b40 b020 3140
000000e0: b084 b63e b733 a840 f02d 9a40 807d 573f
000000f0: ef8f 8840 979e 7540 2cfa 1a3f da39 0b40
00000100: ca0f 0c40 55b9 283f 670f a2be 92c8 673e
00000110: 375d 92bf 0ffe 5cbe aacb 513e 9d57 65bf
00000120: 5c97 1e3f 28c4 b23f 3a91 0b3f c4bb 32bf
00000130: 6255 903e aab9 fabf e667 923f 1e3c b63f
00000140: 0dbe 193f 33e4 39bf ae99 7e3e c8ab f9bf
00000150: d746 f83e 503d 6f3f 2a02 ba3e 4b92 35bf
00000160: def2 113e 1178 e1bf 09d0 cd3f 1d40 d93f
00000170: ea4e 313f 7327 01bf 1db2 b23e 8acc dfbf
00000180: 4f25 05bf 6cf2 c03e 20d1 eabf c421 dbbe
00000190: 3b88 de3e 2d44 e4bf b3f4 bdbe 5f71 d13e
000001a0: 7815 cfbf 86ac 3cbf 8262 393e 8265 efbf
000001b0: 21d8 38bf 2c27 513e 134c f0bf 3bb5 723f
000001c0: 6fb7 db3f dbde 2f3f 3dd4 483d e253 353e
000001d0: b0dd a6be 12a1 28bf 9a2e 313e fed7 dbbf
000001e0: e38d 903f 1021 923f c0d1 c83e 46d3 0f3f
000001f0: 1141 f53f 49d9 403f 4c10 6d3c 7fdc ad3e
00000200: 0f93 43bf 7b2d bd40 e2aa b840 6852 b43f
00000210: 277b 6540 4268 5c40 4ab0 513f 1b26 f9be
00000220: 816b 803d 244e a3bf e34c 2840 a047 1f40
00000230: 7004 143f f989 9b40 9ff7 9640 5bf9 913f
00000240: 49f6 a4be 9a47 133e 4312 87bf be83 99bd
00000250: 387e 953e 5d63 49bf fd65 d5be 00ae a23e
00000260: 9c94 c4bf f6d8 1a40 61b3 1640 c48e 1e3f
00000270: c8d0 9d3f d31e 963f e17f a73e 4113 a53f
00000280: 6837 4e40 0d63 a63f 014c 1ebd 7b3d 803e
00000290: 58f6 3dbf 1424 ac3e c242 403e 98e4 39bc
000002a0: 34c4 3abe fa39 143e 4fb9 5ebf 8e58 383e
000002b0: e664 3a3d aa15 21bd 77e0 fabe 3e9f bd3e
000002c0: 029f e1bf b683 cd3f ee91 d53f 29f7 2a3f
000002d0: 3500 ecbe 6804 3b3e d202 abbf ef90 7f3d
000002e0: 30e4 b43e 8c23 33bf 65d0 993f 81a1 4d40
000002f0: 1cd2 9f3f 9f27 1040 99fe d840 2f50 2a40
00000300: b97e 22bf 0a33 9b3e 0c9f f2bf ec54 2e3f
00000310: e700 f43f 50d8 3c3f 1bf9 b03f 2c44 c13f
00000320: 4461 1c3f 70da 5e3b 444d 553e 87f6 9a3d
00000330: 315c 903f d1d7 913f c429 c93e 27cf 1cbf
00000340: d12b ae3e ce83 f5bf 0519 23bf 0e4e 9f3e
00000350: 34a0 f4bf e4a0 d53f aa42 d73f e66c 073f
00000360: 3b74 c73f 6532 d83f eba8 2f3f 0f3c fcbe
00000370: e1cf ac3e ac06 dabf d84b 063f e1df e83f
00000380: 3b51 3d3f 5eee 4f3e e62f 973e a868 46be
00000390: 5c9e 8a3f e3ec 873f 0d88 ab3e d716 9cbe
000003a0: d8cd 863e 8ce5 98bf e1be 963f 2bf0 dc3f
000003b0: ce48 2e3f c409 c6be b0d6 923e 951a b4bf
000003c0: c7f5 da3f a47a da3f c6a5 043f c81b 9c3f
000003d0: a280 953f e1b1 a73e ee2b 243f da6a ce3f
000003e0: 5355 2f3f 1156 fbbe 8a23 4e3e 0e2e b7bf
000003f0: 1aca 163f a790 1f40 5c11 863f 7a4c cf3e
0.61912787 1.2267516 0.48212278 -0.4910492 0.1912171 -1.3981965 -0.73672783 0.15044284
-1.8276687 -0.3033344 0.22013107 -1.1041447 -0.4705772 0.08003243 -1.3249385 -0.5265801
0.12718737 -1.4852879 -0.5556028 0.17227545 -1.4962363 0.6010395 1.1498104 0.46557063
-0.7034308 0.18839017 -1.825352 2.4744728 2.3460712 0.55588895 -0.49361393 0.0346841
-1.2506979 1.1534272 1.991541 0.7859359 1.5868949 1.6203791 0.53509134 -0.6531383
0.23569384 -1.821219 -0.6789185 0.20553496 -1.8144035 0.07657239 0.22508737 -0.49380457
2.3405266 1.9445268 0.16592163 0.09679067 -0.059359655 -0.105701804 3.1787965 2.76762
0.35648108 5.256313 4.8181076 0.8417587 4.26757 3.8378046 0.6053798 2.175406
2.1884637 0.65907794 -0.31652376 0.22635105 -1.1434697 -0.2158129 0.20487848 -0.8958681
0.61949706 1.3966112 0.54518473 -0.6981776 0.28190142 -1.958791 1.1437957 1.4237096
0.6005562 -0.7261383 0.24863312 -1.9505548 0.48491547 0.9345293 0.36329776 -0.7092635
0.14252803 -1.7614766 1.6079112 1.6972691 0.6926104 -0.5045082 0.34901515 -1.7484295
-0.52010053 0.37684953 -1.834507 -0.427992 0.4346331 -1.7833306 -0.37100753 0.40906808
-1.6178427 -0.7370075 0.18103984 -1.8702853 -0.72204787 0.20425099 -1.8773216 0.94807786
1.7165354 0.68699425 0.04903053 0.1770778 -0.3259101 -0.65870774 0.17302933 -1.717529
1.12933 1.141634 0.39222527 0.5618175 1.9160482 0.7533155 0.0144692175 0.33957288
-0.7639627 5.911802 5.7708597 1.4087648 3.5856416 3.4438634 0.8190962 -0.48661885
0.06270505 -1.2758222 2.6296928 2.4887466 0.5781927 4.8605924 4.717727 1.1404222
-0.3221915 0.14382783 -1.0552448 -0.07495831 0.2919786 -0.7866724 -0.41679373 0.31773376
-1.5357852 2.4194922 2.3546984 0.61936593 1.232934 1.1728157 0.3271475 1.2896501
3.2221317 1.2998978 -0.0386467 0.25046906 -0.74204016 0.33621275 0.18775466 -0.011346005
-0.18238908 0.14475241 -0.8700151 0.18002531 0.04550638 -0.0393273 -0.48999378 0.37035555
-1.762665 1.605582 1.6685159 0.66783386 -0.46093908 0.182634 -1.3360236 0.06239408
0.35330343 -0.69976115 1.2016722 3.2129824 1.2485995 2.2524183 6.781079 2.661144
-0.63474613 0.30312377 -1.8954787 0.6809833 1.9062775 0.73767567 1.3826021 1.509893
0.61085916 0.003400471 0.20830256 0.075665526 1.1278135 1.1393987 0.39289677 -0.6125359
0.34017804 -1.9180849 -0.6371005 0.31114239 -1.911139 1.6689725 1.6817219 0.5290054
1.5582346 1.6890379 0.68617123 -0.4926457 0.3375235 -1.7033286 0.5245948 1.8193322
0.7395207 0.20305774 0.2952873 -0.1937586 1.0829577 1.0619167 0.33502236 -0.30486175
0.2632892 -1.1945052 1.1777002 1.7260793 0.6807984 -0.38679326 0.2867942 -1.4070612
1.7106255 1.7068677 0.5181545 1.2195978 1.1679881 0.32752898 0.6412953 1.6126359
0.6848957 -0.490891 0.20130745 -1.431093 0.5890213 2.4932039 1.0474048 0.40488034
