models/optimization/IN_100_4_0.026206523260643155_0.5691905486640639_6_5.pt (torch, 25370 bytes, 18 tensors)

weight f4 [4, 9]
000000 91 41 28 3c 23 67 32 3e e6 21 84 3e 3b 69 f9 3d
       0.0102695385 0.17422156 0.25807112 0.12178274
000010 a2 70 94 be f3 f7 ef be 78 9c 7a be b0 43 f4 bf
       -0.28992182 -0.46868858 -0.2447375 -1.9083157
000020 5a 98 9c 3f c3 83 a9 3e a0 43 05 3e 19 1e 59 3f
       1.2233994 0.3310834 0.13014078 0.8481155
000030 9d 04 a4 be d0 f9 fb bd 16 74 5e bf db 54 fd 3e
       -0.3203477 -0.12303507 -0.86895883 0.49478802
000040 f9 82 32 be 55 cc 97 40 79 51 93 3e 95 b6 95 3e
       -0.17432775 4.743693 0.28773096 0.29240862
000050 ac 7d 1e 3f 3b 8c f8 bd 85 eb 85 be 54 77 11 bf
       0.6191051 -0.12136122 -0.2615625 -0.56822705
000060 30 3f 7d 3f d1 f2 6e bf de 15 35 40 7e d1 ea 3e
       0.9892454 -0.9333926 2.8294597 0.45862955
000070 83 a7 28 3e dc 59 95 3e c8 a4 19 bf 28 31 23 bd
       0.1647015 0.2917012 -0.6001706 -0.0398418
000080 4e 79 12 bf 15 a1 92 3f 4c 74 84 3f 90 24 4b 40
       -0.57216346 1.1455408 1.0347991 3.1741066

bias f4 [4]
000000 8d 8f 06 3e 23 03 34 bd 82 09 f4 3e 57 f0 97 3e
       0.13140698 -0.043948304 0.47663504 0.29675552

weight f4 [4, 4]
000000 be 63 d2 be b3 f8 4b 3f 49 66 bc bd 93 b2 9d 3d
       -0.41091722 0.7967636 -0.09199197 0.07700076
000010 e1 d8 ed be a7 22 09 c0 3e 67 30 3f 08 8a 5f 3e
       -0.46454528 -2.14274 0.68907535 0.21829998
000020 45 81 dd 3e e9 8a 5d bf 20 9b f4 3e 0b 97 37 3f
       0.43262687 -0.86540085 0.477746 0.7171485
000030 40 dc 5c bd 14 cb 2c 3e c2 2e 50 be b0 36 17 bf
       -0.053920984 0.16874343 -0.20330337 -0.5906782

bias f4 [4]
000000 fd 74 48 3f 04 0c b7 3d e9 54 bc bd bc 28 2c bf
       0.7830351 0.08937839 -0.09195883 -0.67249656

weight f4 [3, 4]
000000 62 2e 54 bc 3f 1e 2c c0 e0 ac 15 be c5 d5 66 3e
       -0.012950512 -2.689346 -0.14616728 0.22542484
000010 3a fd 3b bf 85 07 aa 3f 57 3d 4a 3f 3e e2 c8 be
       -0.7343327 1.3283545 0.7899985 -0.3923511
000020 58 c9 a2 be ca 39 91 3f 85 5c 65 3f 4e 69 e3 3d
       -0.31794238 1.1345761 0.895943 0.1110407

bias f4 [3]
000000 47 6a 2f 3e 2b 6b a8 be ab da 2f be
       0.17130385 -0.32894263 -0.17173259

weight f4 [4, 6]
000000 b6 2d 31 3f 47 02 bb bc fc e1 5c 3f 0e 5b 1e 3f
       0.69210374 -0.022828234 0.86282325 0.6185769
000010 19 a2 dd be 3c 17 91 be d1 7c 60 bf f5 98 84 be
       -0.43287733 -0.2833804 -0.87690455 -0.25897947
000020 cc 22 36 bf 0e f4 36 3e c4 c0 5e be e5 8b 78 bd
       -0.71146846 0.17866537 -0.21753222 -0.06068029
000030 9a 4a 14 3d a2 bb a0 be 0d 81 e6 3d 9e 4d 92 3e
       0.036203958 -0.31393152 0.11255083 0.28574842
000040 61 25 ae 3e 42 51 1a be 42 97 84 bb 19 36 ed 3d
       0.34012893 -0.1507006 -0.0040463516 0.11582584
000050 5b fa 54 bc 9c 6e 4d bf 5c bc 31 3f 72 d3 52 3f
       -0.0129991425 -0.802469 0.6942804 0.8235389

bias f4 [4]
000000 08 53 16 be 17 0f c6 3d 7e d3 8b bd 44 0d ae bd
       -0.14680111 0.09670847 -0.06827448 -0.08498624

weight f4 [4, 4]
000000 cd 0c 04 3f ca 8f e3 be 30 57 53 bd e5 95 2c be
       0.5158203 -0.4444564 -0.05159682 -0.16854055
000010 a8 14 eb bb b2 6a ef be 38 d6 71 be f5 b4 fa 3e
       -0.0071740933 -0.4676109 -0.23616874 0.48966184
000020 64 07 9c be f8 95 e1 bd 68 23 d3 3d 27 8b 14 bd
       -0.3047439 -0.110149324 0.103094876 -0.03626552
000030 1f 4d 04 bf 61 d3 49 3d e8 dc 1e 3e e8 c9 59 be
       -0.5168018 0.049273852 0.15513957 -0.21268427

bias f4 [4]
000000 73 db 11 bf c8 e3 f1 3e 9b 8a bd be 0e d4 21 bf
       -0.5697548 0.47244096 -0.3701981 -0.63214195

weight f4 [3, 4]
000000 13 05 41 3e 35 1a 24 bf 4d 7b 80 bb ec a6 21 3e
       0.18849592 -0.6410249 -0.0039209486 0.15786332
000010 07 ff 9f 3e de b7 5b 3e f2 6f 8b be d5 35 4b be
       0.31249258 0.21456859 -0.27233845 -0.19844754
000020 b0 1d cb 3e 71 12 c5 be 70 77 82 bd 39 10 85 be
       0.39671087 -0.38490632 -0.06370437 -0.2598894

bias f4 [3]
000000 a7 74 57 be 37 be cf be 2f 8e 0d 3f
       -0.21040593 -0.4057481 0.5529508

weight f4 [4, 9]
000000 27 7c ae 3d c0 e1 9c bd b5 ef 02 bf 1d 0f d0 3e
       0.08519774 -0.07660246 -0.51147014 0.4063653
000010 b5 cb 3a 3e 94 82 95 be 7d bf ae 3e 4c 59 39 3e
       0.1824177 -0.29201186 0.3413047 0.1810047
000020 72 5a 99 be d5 82 46 3e 73 4f 51 bf f3 f3 28 3c
       -0.29951817 0.19385846 -0.81761855 0.010312068
000030 3e 96 60 bf f1 21 53 3f 9e af 98 3e 4b e8 0d bd
       -0.8772925 0.82473665 0.29821485 -0.03464536
000040 1e 34 a7 bf ad d6 a9 be e8 3e ef 3e 66 6a 19 bf
       -1.306278 -0.33171597 0.4672768 -0.59927976
000050 57 b4 81 3e 5d 6c ba 3d 1a f0 c3 bd d6 bb 81 3e
       0.253329 0.091027 -0.0956728 0.2533862
000060 48 9c 35 bf 2f f6 16 3f c5 19 02 3e ec 2c 19 bf
       -0.7094159 0.58969396 0.12705143 -0.5983417
000070 7a 35 cf 3d b1 28 62 be 07 15 84 bd 9d 9b ed be
       0.10117622 -0.22085835 -0.06449323 -0.46407786
000080 80 ec da 3e a7 c9 cc 3e 6c 7c 9f bf 03 d8 56 bf
       0.4275856 0.399976 -1.2459846 -0.8392336

bias f4 [4]
000000 96 be d1 3c 6b d1 e1 3e 3d 2f f7 3e b6 53 23 3f
       0.025603574 0.44105086 0.48278227 0.6379961

weight f4 [4, 4]
000000 8b 93 15 be 5f 5e 4e bf 9c 46 4e 3f fd 9f 8d be
       -0.14607064 -0.8061275 0.8057649 -0.27661124
000010 ac ff 2b be 7f 75 f2 3e 53 89 b6 3d 86 32 54 3f
       -0.1679675 0.47355267 0.08912911 0.8288959
000020 cd 07 bc 3e 6b b7 48 be 91 02 b4 bd 2b 65 83 3f
       0.36724702 -0.19601218 -0.08789552 1.0265249
000030 8b f6 13 be 0a bf 3f 3f 73 4a db be fc 29 8f 3f
       -0.14449517 0.7490088 -0.42830238 1.1184688

bias f4 [4]
000000 06 f0 8d 3f 37 01 a6 be 38 5d 4c be 69 04 3b 3e
       1.1088874 -0.32422802 -0.19957435 0.18263401

weight f4 [1, 4]
000000 d1 df a0 3f 79 20 bd be f3 7d 7d be 84 e2 79 bf
       1.2568303 -0.36938837 -0.24755077 -0.9761126

E f4 [1125, 3]
000000 e6 36 a2 bd 7c 04 49 bf 76 79 a3 be e7 c1 c8 bf
       -0.07920627 -0.7852247 -0.31928605 -1.5684174
000010 29 d3 fa 3e 5b 4f 83 3f e6 36 a2 bd 7c 04 49 bf
       0.48989227 1.0258592 -0.07920627 -0.7852247
000020 76 79 a3 be de b1 09 c0 b2 d5 1f 3f df 79 73 3f
       -0.31928605 -2.1514812 0.6243545 0.95107836
000030 8f 41 0a be 90 72 12 c0 15 75 a3 bd de f1 c8 bf
       -0.13501571 -2.2882423 -0.07981316 -1.5698812
000040 49 1a e1 3e cd d7 62 3f e6 36 a2 bd 7c 04 49 bf
       0.43965366 0.88610536 -0.07920627 -0.7852247
000050 76 79 a3 be 5c ea 9f bf cf 42 8c 3e 9d f4 48 3f
       -0.31928605 -1.2493396 0.2739472 0.7849825
000060 88 2e 34 3d 5e d6 98 bf 78 69 22 be e6 36 a2 bd
       0.04398969 -1.194042 -0.15860546 -0.07920627
000070 7c 04 49 bf 76 79 a3 be 36 6c d7 bf 1d 26 c2 3e
       -0.7852247 -0.31928605 -1.6829898 0.37919703
000080 b5 d9 48 3f fe ca d6 bf 9d 09 97 3e 8e e4 25 3f
       0.78457195 -1.6780698 0.29499522 0.6480187
000090 41 bb d9 bf 8c 73 00 3f 79 21 6d 3f 45 d1 04 be
       -1.701027 0.5017631 0.926292 -0.12970455
0000a0 40 00 25 c0 b1 2f 77 be 22 c2 c4 bf 69 20 94 3e
       -2.5781403 -0.24139287 -1.5371745 0.28930977
0000b0 e5 a7 30 3f e6 36 a2 bd 7c 04 49 bf 76 79 a3 be
       0.69006187 -0.07920627 -0.7852247 -0.31928605
0000c0 80 ee 76 bd a7 fe fa bf a2 e4 34 be fc 68 a8 bf
       -0.060286045 -1.9608964 -0.17665341 -1.3157039
0000d0 02 08 7c 3e 17 75 33 3f f1 c8 12 be 64 38 0c c0
       0.2461243 0.7010054 -0.14334466 -2.1909418
0000e0 80 2e 40 bb e6 36 a2 bd 7c 04 49 bf 76 79 a3 be
       -0.002932459 -0.07920627 -0.7852247 -0.31928605
0000f0 cf 8a 96 bf b9 a6 a6 3e 0f 4e 5f 3f c6 dc 83 bf
       -1.1761111 0.32549074 0.8722848 -1.030175
000100 12 3f 4f 3e 05 35 3b 3f 7a c6 c0 bd 4b 06 90 bf
       0.20238903 0.73127776 -0.094128564 -1.125192
000110 e4 dd b4 3e a2 53 8c bf 13 f1 a9 3e 53 c9 62 3f
       0.3532554 -1.0963023 0.33191738 0.88588446
000120 11 a6 8f bf 7d 48 b9 3e 65 16 6b 3f 30 93 b3 be
       -1.1222554 0.36188117 0.91831046 -0.35073233
000130 ba ff 5a c0 ce 26 da 3d b0 4c 9d bf 79 c1 e1 3e
       -3.4218583 0.10651933 -1.2289028 0.4409292
000140 2e f9 80 3f 42 8d 7f bf fe f5 5f 3e 9f 6c 43 3f
       1.0076044 -0.9982492 0.21871182 0.7633762
000150 e6 36 a2 bd 7c 04 49 bf 76 79 a3 be 18 00 a5 bf
       -0.07920627 -0.7852247 -0.31928605 -1.2890654
000160 2e 39 35 3f a5 c6 ac 3f 92 28 a6 bd e0 91 59 bd
       0.70790374 1.3498122 -0.08113207 -0.053117633
000170 19 0b 4a 3f 43 1d 08 be 32 e4 ec be 47 93 50 3f
       0.78923184 -0.13292412 -0.4626785 0.8147473
000180 7e 2f e7 bd 57 04 16 c0 6e 59 3c be 5c b6 53 bd
       -0.11288355 -2.344015 -0.1839349 -0.051687583
000190 7c bb e2 bf 9a f2 e6 bd e6 36 a2 bd 7c 04 49 bf
       -1.7713466 -0.11276741 -0.07920627 -0.7852247
0001a0 76 79 a3 be 13 5d c6 bf 8d bb bd 3e eb 1a 51 3f
       -0.31928605 -1.5497154 0.37057152 0.816817
0001b0 c6 73 85 be 51 17 0a c0 e4 b3 d6 3e 94 46 95 be
       -0.2606489 -2.1576731 0.4193412 -0.2915541
0001c0 8f 73 08 be 5c 1d 17 3f e6 36 a2 bd 7c 04 49 bf
       -0.13325332 0.59029174 -0.07920627 -0.7852247
0001d0 76 79 a3 be e6 36 a2 bd 7c 04 49 bf 76 79 a3 be
       -0.31928605 -0.07920627 -0.7852247 -0.31928605
0001e0 7b 10 06 c0 38 86 23 3f e4 8d 81 3f e6 36 a2 bd
       -2.094756 0.63876677 1.0121427 -0.07920627
0001f0 7c 04 49 bf 76 79 a3 be 79 e6 70 be 70 45 ff 3d
       -0.7852247 -0.31928605 -0.23525418 0.12464416
000200 7b bd ba 3f e6 36 a2 bd 7c 04 49 bf 76 79 a3 be
       1.4589075 -0.07920627 -0.7852247 -0.31928605
000210 43 00 db bf 52 40 02 3f 83 44 74 3f 5d 2f fe bf
       -1.7109455 0.50879395 0.9541704 -1.9858204
000220 08 bd 3c 3f c3 f1 93 3f ee 4a d9 bd af 59 dc bf
       0.7372594 1.1558155 -0.10609995 -1.7214869
000230 86 08 cd 3d ef e5 c5 bf 3e e8 59 3f cb 52 b9 3f
       0.10011391 -1.5460795 0.8512 1.4478391
000240 5d 3d b4 bf f4 21 31 3f c4 42 a3 3f e6 36 a2 bd
       -1.4081227 0.69192433 1.275475 -0.07920627
000250 7c 04 49 bf 76 79 a3 be 8a c9 c4 be f6 d4 37 c0
       -0.7852247 -0.31928605 -0.38435012 -2.872373
000260 14 10 fd 3e 13 6c 35 be 61 81 8c bf 87 75 27 3f
       0.4942633 -0.17717008 -1.0976983 0.6541371
000270 81 ab 19 bf 37 53 97 c0 96 fd a5 3e 1a 18 d9 be
       -0.6002732 -4.728908 0.32420033 -0.424012
000280 6b de 85 3e 91 b3 6a 3f 2f 1a 53 bf 1d 9e d4 c0
       0.26146254 0.91680247 -0.8246183 -6.644301
000290 b3 e6 1d 3e 23 71 41 bf e2 db c1 c0 7d 07 52 3e
       0.15420036 -0.7556326 -6.058091 0.20510669
0002a0 d9 fc 93 bf 52 76 6d 3e 7f 53 3b 3f e6 36 a2 bd
       -1.1561538 0.23189667 0.7317428 -0.07920627
0002b0 7c 04 49 bf 76 79 a3 be 4e 1f ff bd a8 2e 0a c0
       -0.7852247 -0.31928605 -0.12457143 -2.1590977
0002c0 5e 9d 55 bd e3 87 48 bf d0 10 f1 bc 8a 5c fd 3e
       -0.05215203 -0.78332347 -0.029426962 0.49484664
0002d0 82 d4 c2 be 8a 97 46 c0 40 f6 bb 3e e6 36 a2 bd
       -0.38052756 -3.1029992 0.3671131 -0.07920627
0002e0 7c 04 49 bf 76 79 a3 be 39 56 ee bf 82 65 2d 3f
       -0.7852247 -0.31928605 -1.8620063 0.67733014
0002f0 43 ea 8b 3f bf 1a 5a be 31 ca fe bf 2e 8e ac 3e
       1.0930866 -0.21299265 -1.9905454 0.33702224
000300 62 8b c9 bf 70 97 02 3f 19 2c 7a 3f e6 36 a2 bd
       -1.5745661 0.51012325 0.9772354 -0.07920627
000310 7c 04 49 bf 76 79 a3 be 0a 94 88 bf ee 93 9c c0
       -0.7852247 -0.31928605 -1.0670178 -4.893058
000320 45 d0 ed 3f e8 8e 66 bf 79 29 77 c0 ea 52 e5 3f
       1.8579184 -0.9006181 -3.8619063 1.7915928
000330 1e dd 91 be 38 b4 30 bd b6 1c c6 3f ea ed 9e bf
       -0.28489012 -0.04314062 1.5477512 -1.2416356
000340 92 59 28 3f e9 05 a6 3f 47 9f 3d be 24 00 11 3f
       0.65761673 1.2970554 -0.1851779 0.5664084
000350 31 7f c0 3f d0 5f 22 bf 79 18 0d c0 45 2a d8 3f
       1.5038816 -0.6342745 -2.2046187 1.68879
000360 68 c0 06 c0 2e 35 17 3f d7 7c 6b 3f d4 44 15 c0
       -2.1054935 0.5906552 0.91987365 -2.332326
000370 44 79 5c 3f a7 35 9c 3f e6 36 a2 bd 7c 04 49 bf
       0.86122537 1.2203873 -0.07920627 -0.7852247
000380 76 79 a3 be cd 40 bd bf 69 2f f8 3e c9 2d 7e 3f
       -0.31928605 -1.4785401 0.4847367 0.9928861
000390 21 f7 da bf ea 66 15 3f ae 6c 85 3f 68 06 01 c0
       -1.7106668 0.5836016 1.0423791 -2.016016
0003a0 a2 c0 29 3f 8b 18 88 3f 34 32 c2 be fd 50 99 be
       0.6630956 1.063249 -0.37928927 -0.29944602
0003b0 0a 65 81 3e e6 36 a2 bd 7c 04 49 bf 76 79 a3 be
       0.252724 -0.07920627 -0.7852247 -0.31928605
0003c0 e6 36 a2 bd 7c 04 49 bf 76 79 a3 be a4 6f 98 bf
       -0.07920627 -0.7852247 -0.31928605 -1.190907
0003d0 8d 89 81 3e 14 da 3f 3f e6 36 a2 bd 7c 04 49 bf
       0.25300255 0.74942136 -0.07920627 -0.7852247
0003e0 76 79 a3 be e6 36 a2 bd 7c 04 49 bf 76 79 a3 be
       -0.31928605 -0.07920627 -0.7852247 -0.31928605
0003f0 e6 36 a2 bd 7c 04 49 bf 76 79 a3 be e6 36 a2 bd
       -0.07920627 -0.7852247 -0.31928605 -0.07920627
