models/optimization/IN_100_9_0.005335228536741739_0.8041181557311434_7_11.pt (torch, 41050 bytes, 18 tensors)

weight f4 [9, 9]
000000 66 f6 ad be 08 d9 1c be 5b c1 21 bf f0 ef c6 3c
       -0.3397705 -0.15317166 -0.6318566 0.024284333
000010 f4 ac 8a 3e 21 96 f9 3e 8e a7 bd bb 8d 78 15 bf
       0.27085078 0.48747352 -0.0057877963 -0.5838707
000020 46 97 c8 bf ad 04 38 3d 66 61 a7 3d 53 e4 8d 3e
       -1.5671165 0.044926334 0.08172874 0.2771326
000030 16 df b3 3a 25 82 0b 3e 72 ee aa be 41 ba e1 3e
       0.0013723101 0.13623865 -0.33385044 0.44087413
000040 84 37 a0 3d 24 b6 c9 3f 4e 6c 0a be 4c cb 2d 3e
       0.07823089 1.575871 -0.13517877 0.16972083
000050 ea a0 a9 be 7d 81 7a 3e 72 71 2f be 1a 81 6b 3e
       -0.3313058 0.24463458 -0.1713312 0.22998467
000060 33 da 1e be 6f 97 0c 3b bd cf ad bf 01 59 02 be
       -0.15512924 0.0021452566 -1.3579022 -0.12729265
000070 01 a7 b4 bd 8b f4 e7 be 4e 85 58 3e 1a 60 cf 3e
       -0.08820916 -0.4530376 0.21144602 0.40503007
000080 32 32 78 3e 77 83 a0 be 36 7e 59 3e aa 33 98 bf
       0.24237898 -0.313503 0.21239552 -1.1890767
000090 f7 77 d3 bd cd 60 0a be e6 6f 7a 3d b9 d1 2a be
       -0.10325616 -0.13513489 0.06114187 -0.16681565
0000a0 43 9a 99 3e 83 32 78 be ec 19 0b 3f e1 60 84 3f
       0.30000505 -0.24238019 0.5433643 1.0342065
0000b0 17 3b 89 3f fc b6 91 3e 1a 71 9e 3e 3f 94 c7 3e
       1.0721158 0.28459918 0.30945665 0.3898029
0000c0 49 eb cb be 8b f3 87 be 90 87 98 be 76 d9 bc 3e
       -0.39827946 -0.26552996 -0.29790926 0.3688466
0000d0 e9 e0 28 bf 53 64 59 3f 42 15 35 3e 4d 9c 12 3e
       -0.65968186 0.8491871 0.1768389 0.14317437
0000e0 a2 1f f1 3e 58 dd 82 be 55 57 ce bd d4 c8 d0 3b
       0.47094446 -0.25559497 -0.10075251 0.006371597
0000f0 88 89 1f 3e 91 fe 76 bf c3 c6 9e 3f cd bd c4 3e
       0.15579808 -0.9648219 1.2404407 0.38426057
000100 55 e2 1a be ed 53 ad 3d 61 31 c0 be 96 40 1e 3e
       -0.15125401 0.08463273 -0.37537673 0.15454325
000110 c1 a2 38 be 17 bd 14 3d 25 04 04 3f 5a 73 ce 3f
       -0.18030836 0.036313143 0.51568824 1.6128953
000120 cb d2 80 3e 48 16 2a be d2 b5 bb 3d 88 19 93 bd
       0.25160822 -0.16610062 0.09165539 -0.07182604
000130 ec 40 99 3e 94 70 0b bf 1a d4 b2 bc 6a c5 da be
       0.29932344 -0.54468656 -0.021829654 -0.4272874
000140 36 fc cc 3f
       1.6014469

bias f4 [9]
000000 9c 7f 4d 3e 26 96 8b bd bc 7e 62 bb 0e d4 fb bc
       0.2006821 -0.06815748 -0.0034560403 -0.030740764
000010 10 ec 7f 3d 2a 6d 92 bd ab b1 c5 bd 65 35 8e 3d
       0.062480986 -0.07149728 -0.09653028 0.06943778
000020 26 9a 48 bd
       -0.048975132

weight f4 [9, 9]
000000 00 52 cc 3e 35 d8 a6 be 6d da 52 3f 12 4a ef 3e
       0.3990631 -0.32586828 0.8236454 0.467362
000010 73 ff ad be 74 e2 ee bd 39 15 20 bf 84 51 99 bf
       -0.33983955 -0.11664286 -0.62532383 -1.1978002
000020 c3 13 e5 be ed 83 98 3e 71 df 9d be 55 cc 88 3e
       -0.4474164 0.2978815 -0.30834535 0.26718393
000030 a3 27 75 bd 2b 44 58 3d a9 a4 e5 3e 24 10 0d 3f
       -0.059852254 0.052799385 0.44852188 0.55102754
000040 8e 00 64 bd 04 91 9f 3d d5 1c 03 be d3 cc bc 3c
       -0.05566459 0.077913314 -0.12803967 0.023046887
000050 c6 05 ee 3e 65 6e 09 3e 55 1c 11 3e dd a6 14 3f
       0.4648878 0.13421018 0.14170964 0.58067113
000060 df 90 a2 3c 9c 81 b8 3e 9e c3 04 3e 23 db 9a 3e
       0.01984447 0.36036384 0.12965247 0.30245313
000070 48 73 44 be 2a 93 97 bd 6e 34 e9 bc 67 5a 95 3e
       -0.19184601 -0.07401116 -0.028467383 0.29170534
000080 78 e4 8b 3d a6 b0 21 3e 99 7d 63 bf ea 10 c8 3e
       0.06830686 0.15790042 -0.8886352 0.39075404
000090 28 85 a8 be 6c 7a e6 3d 46 4b 8c 3d 6b 59 09 be
       -0.3291409 0.11253819 0.06850295 -0.13413016
0000a0 64 fa 6c 3d 6f 91 19 3d 56 63 ae 3b 66 a4 9e be
       0.05785598 0.037492212 0.0053219004 -0.309848
0000b0 76 b8 91 be 91 2c 03 be 34 c8 a5 3e 67 0d 6a bf
       -0.28461045 -0.1280997 0.32379305 -0.914267
0000c0 08 05 e4 be 00 0f 33 3d 55 2b 03 3f 0d cc 00 3f
       -0.4453509 0.043715477 0.51237994 0.50311357
0000d0 12 83 0a 3f 5b ef 1d 3f 12 65 ac 3e c8 c5 da be
       0.5410625 0.6169335 0.3367086 -0.4272902
0000e0 48 c0 29 3e f7 14 de 3e 81 bc ea be d2 54 1f bc
       0.16577256 0.4337537 -0.45846942 -0.009724813
0000f0 3a b1 21 be b0 30 5a 3e 0b 00 bf bc 06 69 d0 be
       -0.15790263 0.21307635 -0.02331545 -0.40705127
000100 dc c7 66 be 6f 28 20 3f 34 dc 79 bd aa 6d 74 3d
       -0.22537178 0.62561697 -0.061001018 0.059674896
000110 57 c9 0f 3f a7 9c 7e 3e 6d 07 14 3f cc d4 78 3e
       0.56166595 0.24864446 0.5782383 0.24299926
000120 d1 93 93 3e 1c 95 1e 3e 4e 8d 0c 3f b5 19 f0 bd
       0.28823712 0.15486568 0.54903114 -0.11723653
000130 74 f3 eb 3c 87 47 78 3e 04 4d bc bd 82 2b ec 3e
       0.028802611 0.24246036 -0.09194377 0.46126944
000140 da 46 77 be
       -0.24148121

bias f4 [9]
000000 d9 ed 11 3d 42 c4 37 be 76 ac e3 bc 36 b7 a0 bd
       0.03562722 -0.1794596 -0.027792197 -0.07847445
000010 16 c1 c5 be 76 ea e2 bd 90 23 ea bd 56 2a 74 3e
       -0.38623875 -0.11079876 -0.11432564 0.23844275
000020 2b 4a e5 3d
       0.11195787

weight f4 [3, 9]
000000 4f 60 4a bf 00 f5 a9 3e e3 8b a1 be 19 02 a0 3d
       -0.79053205 0.33194733 -0.31552038 0.078129
000010 b8 f7 5b 3e 94 c3 42 bf 0b 66 18 bf b2 61 09 bf
       0.21481216 -0.7607968 -0.59530705 -0.53664696
000020 c6 8b aa be 54 b0 5e 3f 35 2f 30 bf 70 79 91 3e
       -0.33309764 0.86987805 -0.6882203 0.28412962
000030 3a 94 56 be b4 03 03 3e a5 41 7f 3e d4 af 02 3e
       -0.20954981 0.12794381 0.24927385 0.12762386
000040 35 b7 6a 3e 5a 4a 09 3f 79 a0 4f bf 29 39 73 3e
       0.2292145 0.53629076 -0.81104237 0.23752274
000050 22 35 de 3d 72 89 13 3f 09 53 86 3e 8c 41 3f bf
       0.10849978 0.576316 0.26235226 -0.7470939
000060 cd 20 41 bf b2 60 eb be af 5a 1a be
       -0.75440675 -0.4597221 -0.15073656

bias f4 [3]
000000 18 6f 5c be 38 93 83 3e 6d fd 21 bd
       -0.21526754 0.25698256 -0.039548326

weight f4 [9, 6]
000000 4e 56 e0 3d 98 e8 e3 be b2 5f dc be 69 30 5f 3d
       0.10953961 -0.44513392 -0.4304176 0.054489527
000010 e6 da 72 bd 52 3a 1d bd a6 b6 04 bf 98 20 7d 3d
       -0.05929079 -0.038385697 -0.518412 0.061798662
000020 30 30 fc be 53 e7 3a 3e 1a d7 a1 be 0a f0 42 bd
       -0.49255514 0.18252306 -0.31609422 -0.0475922
000030 d2 5b 5c 3e 03 5a b7 3c f5 ce 3c be 5b f7 fb 3d
       0.21519402 0.022381788 -0.18438323 0.12303039
000040 0e c3 ac be 20 51 05 3f 54 f3 11 3e 33 c5 63 3e
       -0.33742565 0.5207691 0.14252979 0.22243194
000050 d6 f3 18 be 1d 6b 23 3f 7c 0b 43 be 16 ef 99 3e
       -0.14936766 0.63835317 -0.1904735 0.3006522
000060 d3 03 92 3e 8c 3c 90 be ba b5 c5 3e 96 22 c9 be
       0.28518543 -0.28171194 0.3861521 -0.392842
000070 39 ed 9b be b3 f1 90 3e 23 16 76 3e b1 0f 23 3e
       -0.30454424 0.28309402 0.24031882 0.15923955
000080 74 10 a8 be 0a bb 21 3e 7d 56 44 bd 8c 2b ca be
       -0.32825053 0.15794006 -0.047934044 -0.3948635
000090 5e 8e 07 bd ae 72 72 3e 9c 0a ff 3e 01 6a 74 3e
       -0.033094756 0.2367656 0.49812782 0.23868562
0000a0 b1 a3 31 bf bd 20 8a 3e 5f 61 98 3c 05 8b ab be
       -0.693904 0.26978102 0.018601118 -0.335045
0000b0 dd 86 46 3e 77 ad 93 3e bc fe 4c 3e 35 d3 27 be
       0.19387384 0.2884328 0.20019048 -0.16389163
0000c0 8a e8 8d be 12 df 1b be cc ac f3 be a9 f9 16 3e
       -0.27716476 -0.15221813 -0.4759277 0.14743675
0000d0 10 b5 30 bf 9c ef bb 3e
       -0.6902628 0.36706245

bias f4 [9]
000000 2e 6e 99 be db 23 52 3d c9 0e 8c 3e f5 31 9d 3e
       -0.29966873 0.051303726 0.2735503 0.30702177
000010 64 73 c2 3c f0 01 e2 3e 3e 6c 52 be ef 07 ef bd
       0.023736663 0.44142103 -0.20549104 -0.11671435
000020 70 36 9e 3d
       0.07725227

weight f4 [9, 9]
000000 63 c8 47 bb 82 6b 42 be 84 10 3f bf 0a 31 3f bf
       -0.003048443 -0.18986323 -0.74634576 -0.746842
000010 26 d4 39 3d c9 d8 14 bd 9c 56 2b bf df 36 81 3d
       0.045368336 -0.036339555 -0.6692903 0.06309294
000020 e8 e0 1b bf 82 4b 6f be 9a 08 c5 3e 17 7e af 3d
       -0.60890055 -0.23368648 0.38483125 0.085689716
000030 a6 04 aa bb f9 00 21 3f 3b 2c 8a 3e 56 bc 38 3e
       -0.0051885424 0.6289211 0.2698687 0.18040594
000040 d4 6b c8 bd 9f 6f ee 3e a0 df 60 3e bb d3 ae 3e
       -0.097861916 0.46569535 0.21960306 0.34145913
000050 9d d5 ff bc 9b 63 bf bd 65 d3 82 be 7a 68 5d be
       -0.031229788 -0.0934517 -0.25551906 -0.21621886
000060 e8 5c ea be 34 9f dc 3d 9e c1 20 be f7 0b 56 3e
       -0.45774007 0.10772553 -0.15698859 0.20903002
000070 c7 5a 02 3c ab 7e 82 3e 8e 52 92 be ae dd 9a 3d
       0.007956213 0.25487265 -0.2857861 0.07561813
000080 7a 58 b1 bd 13 9f 1b 3e a7 b5 15 be 71 71 2a 3e
       -0.08659454 0.15197401 -0.14620076 0.16644837
000090 e6 84 fc bd 16 aa 14 bc 4f 74 83 3d 87 29 76 bd
       -0.12330036 -0.009073755 0.064186685 -0.060098197
0000a0 85 ac b5 3e 75 1b 07 3f ad ae 1d be 2f 91 b4 3c
       0.35483184 0.5277627 -0.15398665 0.022041885
0000b0 ed fa c9 3d 72 aa 7a 3e 0b f2 c5 be 40 82 b3 3d
       0.098623134 0.24479082 -0.38661227 0.087650776
0000c0 a6 26 88 be 8a ab 03 3f 96 06 93 3e f8 1e 63 3e
       -0.26591986 0.5143362 0.28715962 0.22179782
0000d0 9f a0 c3 bd b0 97 ff be f1 ce 50 be c9 b3 61 be
       -0.095521204 -0.49920416 -0.20391442 -0.22041239
0000e0 1e 5d 84 3e 73 6e fd be 3c 7c ed bd 57 84 5a 3c
       0.25852293 -0.4949833 -0.115959615 0.013337216
0000f0 8b 68 1e bc d0 8f 66 bd 14 b2 a7 be 3b 3a 06 bd
       -0.00966848 -0.056289494 -0.3275305 -0.032770377
000100 4c 80 0a 3d a4 33 d2 3e f3 a8 b3 3e 6f 41 8f 3c
       0.03381376 0.41055024 0.35089836 0.017487256
000110 25 99 c3 3e 95 19 f4 3e da 9a 29 3e df ef db 3e
       0.38202778 0.47675768 0.16562977 0.42956445
000120 bf 2d 8e be b8 0a 98 3e b5 72 b1 3d 8b 8c 03 3f
       -0.27769276 0.29695678 0.08664457 0.51386327
000130 13 f5 d8 3e 17 15 9a 3e eb 7e b1 3e a9 17 57 3e
       0.42374477 0.30094215 0.34667143 0.2100512
000140 11 52 a3 3c
       0.019936593

bias f4 [9]
000000 60 69 13 3f d8 ba 92 3e 45 6a 12 be 77 e6 c4 3e
       0.57582664 0.28658175 -0.14298351 0.3845708
000010 45 2c 50 bf 4c 2a 14 3e 26 99 23 3f 40 3b 3c bd
       -0.8131755 0.1446926 0.6390556 -0.045954943
000020 98 6b 91 3e
       0.284024

weight f4 [3, 9]
000000 fd d4 04 bf 43 8a 50 be 40 5d 8c be 19 6f f4 be
       -0.51887494 -0.20365243 -0.27414894 -0.4774101
000010 cc 2e 5f 3f b6 16 77 3c f4 91 d8 be a5 d2 d1 3d
       0.8718078 0.015081098 -0.42298853 0.102452554
000020 bd 47 9a be 68 bd bb be f6 61 3f 3e 57 6a 3a be
       -0.30132857 -0.36667943 0.18689713 -0.18204628
000030 ee 4d 9b bd f1 36 71 3e 26 c3 0d be b8 03 a9 be
       -0.07583223 0.23556115 -0.13843974 -0.3301065
000040 12 6d ab 3e da a3 89 3e 3f a0 f1 3d 10 db f2 3e
       0.33481652 0.2688282 0.11798143 0.47432756
000050 2e 36 2b be 6a 9a 22 be d7 9e 1b 3e 51 e7 f0 3e
       -0.16719887 -0.15879217 0.15197311 0.4705148
000060 66 a8 9e 3d 71 5d 7c 3e 50 f6 96 3e
       0.07746963 0.2464502 0.29484797

bias f4 [3]
000000 f3 ef b1 be 70 91 68 be 4c 53 47 3d
       -0.3475338 -0.2271173 0.048663422

weight f4 [9, 9]
000000 5f 28 ed be 0e 31 6d bc 4d ed e6 bd 13 50 e4 bd
       -0.46319863 -0.014477028 -0.1127573 -0.111480854
000010 88 9e 13 3e 00 02 6e 3e 27 22 3e 3e fe 1f d2 be
       0.14415944 0.2324295 0.18567716 -0.41040033
000020 8a 7f 41 3e 0f cb 01 bf 56 ef 3b bf 48 fd a3 3c
       0.18896309 -0.5070047 -0.7341207 0.020018235
000030 16 c0 69 be f5 31 81 be e1 d5 14 be 14 69 0d bf
       -0.22827181 -0.25233427 -0.14534713 -0.5523846
000040 fb c0 db 3e ee e1 45 be a7 13 65 bd bb 29 bb be
       0.4292067 -0.19324467 -0.055926945 -0.36555275
000050 72 b2 b6 be 85 2a 96 bc 01 4f 87 bd 20 4b 47 3e
       -0.35683018 -0.018330822 -0.06606866 0.19462252
000060 3b 94 a9 bd e6 56 e9 3e e4 5e 18 bf dd 61 fe 3d
       -0.08280226 0.4557411 -0.5951979 0.1242101
000070 ab df 85 3d d9 4d 92 be a6 60 dd bd a4 5c 7c 3d
       0.06536802 -0.28575018 -0.1080945 0.061611786
000080 73 79 4d be 06 60 81 bd 2b 5e 61 3e 57 96 c5 3e
       -0.2006586 -0.06317143 0.22008578 0.38591263
000090 83 9d 74 be f3 a2 10 bf 67 4a 9b be 32 ee 0e 3e
       -0.23888211 -0.5649864 -0.30330202 0.13958052
0000a0 4f 4b 94 3e 96 1f 8c be 17 e1 c5 be ea ea 05 3f
       0.28963706 -0.27367848 -0.38648292 0.52311575
0000b0 10 0a 00 bf fb 83 20 3e f3 04 91 be e6 1f e3 3d
       -0.50015354 0.15675347 -0.28324088 0.110900685
0000c0 64 49 a7 3d 13 f5 86 3d de c0 57 be 08 30 21 bf
       0.08168295 0.06589713 -0.21069667 -0.62963915
0000d0 51 d7 1a 3e 54 00 f2 be f8 94 c3 3d a1 fe 86 3d
       0.15121199 -0.47265875 0.09549898 0.06591535
0000e0 89 59 a9 3d 0c 8b 88 3e 1e 3b a5 3c 66 16 5e 3e
       0.082690306 0.26668584 0.02016979 0.21688232
0000f0 7e c3 78 be c5 b1 05 3f 3b 4c 39 bf 8b e7 7b be
       -0.24293324 0.5222438 -0.72381943 -0.24600045
000100 67 7b ee 3d 57 09 cb 3e 7f d2 13 bd c7 f9 79 3e
       0.11644631 0.39655563 -0.036089417 0.24411689
000110 73 e1 08 3f ca d1 2b 3f e1 9f 08 be cb 19 3b 3e
       0.5346901 0.6711699 -0.13342239 0.18271558
000120 4c c2 5c be 68 55 c5 be c3 23 63 bd 97 bd a5 be
       -0.21558493 -0.38541722 -0.055454027 -0.32371208
000130 c2 63 bd be 27 27 5a 3d 53 6a d8 3e 59 21 26 3d
       -0.36990172 0.053259995 0.4226862 0.040559147
000140 0c 23 8d 3b
       0.0043071564

bias f4 [9]
000000 e3 83 13 3f 7e 19 64 bc 74 b8 78 be 70 aa 6a be
       0.5762312 -0.013922093 -0.24289113 -0.22916579
000010 d1 cf 70 3e cc b6 9a 3d 9f 54 30 be f7 5a b8 3e
       0.23516776 0.07554397 -0.1721978 0.360069
000020 bc 07 c8 3e
       0.390684

weight f4 [9, 9]
000000 e3 8a 1a 3e 52 d0 41 bd 90 29 bc 3d ab 53 a4 bd
       0.15092044 -0.04731781 0.09187615 -0.08023771
000010 18 a2 a0 bd e6 dd 9e be 2e 59 a7 bd 5c 5b 2a be
       -0.07843417 -0.3102867 -0.081713066 -0.16636413
000020 a6 39 12 3d 08 96 90 3e ff 66 14 3f aa e3 dd 3e
       0.03569951 0.28239465 0.5796966 0.43337756
000030 5a 72 69 be 78 61 e4 3e 74 4a ee bc 96 d5 58 be
       -0.22797528 0.44605613 -0.029088236 -0.21175227
000040 8f eb b5 be a9 f7 a4 3d 1c 71 de 3e 21 37 17 3d
       -0.3553128 0.0805505 0.4344567 0.03691781
000050 fc 05 28 bf 5b 5b 86 3e b9 14 fb be 35 71 97 be
       -0.6563413 0.26241574 -0.49039248 -0.29578558
000060 b2 8c 15 bf c7 f2 ea 3e 78 db d3 3e ba 46 62 3d
       -0.5841781 0.4588835 0.4137838 0.05524323
000070 0e 25 1d 3f ce ce 98 3e 2d f5 bb bd 5d ec 17 3f
       0.61384666 0.2984528 -0.09177623 0.59345037
000080 5a 9e de 3e 41 25 fd bc 58 8b 12 ba 8c e9 40 3d
       0.43480188 -0.030901553 -0.0005590222 0.047097728
000090 ab d1 18 3f 86 72 2c be 87 bc dd be 00 d3 5e be
       0.5969493 -0.16840562 -0.43307897 -0.21760178
0000a0 62 72 b2 be fa 82 16 bf 26 b8 3c bf 5c 2d 46 3e
       -0.34852892 -0.58793604 -0.7371849 0.1935324
0000b0 a9 f6 0a 3f 4a 3b ac bd 9f 2d b6 bd 99 f2 34 3e
       0.54282624 -0.08409746 -0.0889542 0.17670669
0000c0 be 08 66 be 2e 4c 23 be ab 08 59 be 43 03 86 be
       -0.22464272 -0.15947029 -0.21194713 -0.26174363
0000d0 10 d3 4f 3d 21 da 85 3d 5a 02 98 3e c0 ca 3a be
       0.050738394 0.065357454 0.29689294 -0.18241405
0000e0 7d 20 02 bf d1 2b c5 bc 4a c0 1a bf b2 20 1a bf
       -0.50830823 -0.024068745 -0.6044966 -0.6020614
0000f0 2a 97 22 bf b1 ef 12 3f 57 c3 26 3f 6f 24 30 3d
       -0.6351191 0.5739699 0.65141815 0.043003496
000100 83 b7 c0 be e0 bc 64 be 27 7c 8b 3e 73 67 9c be
       -0.37640008 -0.22337675 0.27243158 -0.30547675
000110 03 4d cf bd 2e 53 77 3d bf 88 d2 3e 6a c3 6e 3e
       -0.10122111 0.06038206 0.41119954 0.23316732
000120 30 94 3c 3e 26 ac 64 bd ad 65 1f bf d0 89 a5 be
       0.18415904 -0.055828236 -0.6226452 -0.32331705
000130 5f 42 fe be db 76 1d bf aa f9 6e bf ca 8c fb 3e
       -0.49660012 -0.61509484 -0.9334971 0.4913085
000140 26 48 15 3f
       0.58313215

bias f4 [9]
000000 5e 52 2f be 81 f3 0b 3e b3 cb 9b 3c 04 b5 55 3e
       -0.17121264 0.13667108 0.01901803 0.20869833
000010 74 90 91 3e f4 03 9e be fe 71 c8 3e a3 f9 e8 3e
       0.2843052 -0.3086239 0.3914947 0.45502958
000020 62 cc d0 3e
       0.40780932

weight f4 [1, 9]
000000 52 43 1a be 1d 8a a3 be 97 e9 da 3e df 0d eb be
       -0.15064743 -0.3194131 0.4275634 -0.4590902
000010 30 17 1f 3f f8 ab c5 3c cc 87 06 3f 79 f3 f3 3e
       0.62144756 0.024129853 0.5255096 0.47646692
000020 94 c1 10 3f
       0.56545377

E f4 [2314, 3]
000000 40 5c 1c bf ca 8a f9 3e fa 6e d8 bd 3d 41 27 bf
       -0.6107826 0.487387 -0.10568042 -0.6533392
000010 2a f7 0c 3f d6 60 33 be 16 60 1d c0 b6 ed 06 40
       0.5506464 -0.17517409 -2.4589896 2.1082587
000020 ee 93 ea bf b4 18 a5 bf ac fc 70 3f 07 59 b6 be
       -1.8326395 -1.2898164 0.94135547 -0.35614797
000030 e0 d5 38 bf 0a 3a 40 3f b6 86 a8 3d 20 30 3b c0
       -0.7220135 0.7508856 0.08228819 -2.9248123
000040 77 9e 1d 40 9f b9 15 c0 ec c3 14 bf 78 07 08 3f
       2.462797 -2.3394544 -0.58111453 0.53136396
000050 f4 19 9b 3e 6a 32 99 bf 85 57 9c 3f a6 b0 ed be
       0.30293238 -1.196851 1.2214209 -0.46423835
000060 f6 09 07 c1 98 cb 8e 40 c8 95 c1 c0 7e e2 5b c0
       -8.439932 4.4623528 -6.049534 -3.435699
000070 f7 f8 3b 40 20 bd 2c c0 98 05 85 c0 3c 9a 60 40
       2.9370706 -2.6990433 -4.156933 3.5094137
000080 fd 07 5c c0 25 92 09 bf f2 a4 12 3f 58 77 ca 3d
       -3.4379876 -0.53738624 0.57282937 0.09886044
000090 3a 12 f6 bf 87 f6 ee 3f 0b 17 92 bf 70 d2 14 bf
       -1.9224312 1.8668984 -1.1413282 -0.581336
0000a0 5d 4a 00 3f 06 d9 dd 3e 70 d2 14 bf 5d 4a 00 3f
       0.5011347 0.43329638 -0.581336 0.5011347
0000b0 06 d9 dd 3e 60 11 36 bf 68 b2 37 3f 11 da 6f 3e
       0.43329638 -0.7112026 0.717566 0.2342303
0000c0 2d 72 fc bf 96 2c 9a 3f 26 d8 53 bf 4c e9 26 bf
       -1.9722344 1.2044857 -0.8275169 -0.6519973
0000d0 06 cc 1d 3f fb a1 ac 3e 6a 5c 71 c0 17 2b fd 3f
       0.6163944 0.3371733 -3.7712655 1.9778775
0000e0 e8 49 1a c0 46 63 05 bf f8 fd df 3e 6f 64 32 3e
       -2.4107609 -0.52104604 0.4374845 0.17421125
0000f0 ef 87 ae c0 0e ce 21 40 46 a6 80 c0 c0 44 e0 be
       -5.4540935 2.5282016 -4.020297 -0.43802452
000100 b6 ab e9 3e ec 86 4e 3e be f5 b5 c0 de 72 27 40
       0.45638818 0.20168656 -5.686248 2.616386
000110 6f 59 86 c0 8d 64 95 c0 5b a8 78 40 d2 20 87 c0
       -4.198417 -4.6685243 3.8852756 -4.2227564
000120 ed 6d f1 be e6 ee ca 3e 29 aa 52 bd a4 20 04 bf
       -0.4715418 0.3963539 -0.05143181 -0.51612306
000130 b2 8f eb 3e 98 56 ee bd b9 3c 12 bf 26 dd 13 3f
       0.46008068 -0.1163761 -0.57123905 0.5775932
000140 04 32 a5 3e d1 c5 99 c0 e0 7e 7d 40 5c 6c 8b c0
       0.3226472 -4.8053975 3.9608688 -4.3569775
000150 65 1b a6 bf fb b1 a5 3f 0a 7d 40 bf 91 8e f9 be
       -1.297711 1.294494 -0.75190794 -0.48741582
000160 fe 5d ff 3e c4 60 0f 3e 15 ba af bf 0c 5c 80 3f
       0.49876398 0.14001757 -1.3728663 1.002809
000170 c4 f2 37 bf b4 4d f5 be 94 d5 0b 3f 1c c6 88 3d
       -0.71854806 -0.47910845 0.5462277 0.06678411
000180 e4 48 ea c0 65 e4 5a 40 e2 c1 ac c0 4b 8c 02 bf
       -7.321398 3.42019 -5.3986673 -0.5099532
000190 96 40 05 3f 90 46 3e 3e ac 56 62 bf dc 99 61 3f
       0.52051675 0.18581605 -0.884135 0.88125396
0001a0 bc 2d 66 be be 29 15 c1 7c f9 99 40 91 cd d6 c0
       -0.22478384 -9.322691 4.8117046 -6.7125936
0001b0 b4 18 28 c0 58 1c 15 40 e1 9f ec bf 34 e2 59 c0
       -2.6265078 2.329855 -1.8486291 -3.4044313
0001c0 81 1e 3a 40 59 76 29 c0 e2 b2 87 bf 7c 98 8a 3f
       2.9081118 -2.6478484 -1.0601466 1.0827785
0001d0 35 0b a6 be cb 74 b8 c0 d5 a3 24 40 b1 00 88 c0
       -0.32430425 -5.764257 2.5724995 -4.2500844
0001e0 94 fd f2 c0 51 f9 51 40 23 b5 b4 c0 ac ed 04 bf
       -7.5934544 3.280842 -5.6471114 -0.5192516
0001f0 72 59 03 3f 0e fa 9f 3e 34 28 2b bf 24 2c f6 3e
       0.5130836 0.31245464 -0.6685822 0.48080552
000200 bd 03 5f 3e d0 6d f4 bf db 6d c1 3f 94 82 c7 bf
       0.2177877 -1.9096012 1.511165 -1.5586724
000210 7a e8 f2 be 60 03 f6 3e 49 14 4d 3d b0 1a b1 c0
       -0.4744299 0.4804945 0.050068174 -5.5345078
000220 14 22 11 40 70 3d 86 c0 94 a6 0a c0 4f 2f de 3f
       2.267705 -4.1949997 -2.1664171 1.7358187
000230 56 42 e9 bf 48 ed af c0 60 b5 8e 40 e4 9a 9e c0
       -1.8223369 -5.497715 4.4596405 -4.9564075
000240 2a 61 4b bf 17 3c 4d 3f e3 66 b1 be e9 8b 01 bf
       -0.79445136 0.80169815 -0.3464881 -0.5060411
000250 f4 1d 0d 3f fd d0 1f bd 39 26 92 c0 08 5d 73 40
       0.5512383 -0.039017666 -4.567166 3.8025532
000260 cc e8 82 c0 a3 af c1 c0 19 c1 35 40 07 09 8f c0
       -4.0909176 -6.05269 2.8399107 -4.469852
000270 48 36 c6 be 42 37 e7 3e 3f 30 57 3d 82 39 18 bf
       -0.38713288 0.45159346 0.052536245 -0.5946275
000280 9e 56 2b 3f 65 57 0f be 8d cd 02 bf e0 32 e9 3e
       0.6692904 -0.13998182 -0.51094896 0.45546627
000290 64 93 d7 3d ba 4c c2 c0 f6 77 2c 40 5d 07 91 c0
       0.105261594 -6.071866 2.6948218 -4.532149
0002a0 b0 44 d3 bf 1e 1b bb 3f c4 47 9a bf bc e0 0f c0
       -1.6505337 1.461765 -1.2053151 -2.2480917
0002b0 84 ad f5 3f 4a 2e ed bf 12 e7 f7 be 3e 08 fa 3e
       1.9193578 -1.8529751 -0.4841848 0.48834413
0002c0 04 f8 ba 3d 08 e9 8d c0 bb aa 66 40 65 6c 80 c0
       0.091293365 -4.434696 3.6041706 -4.0132318
0002d0 ee 70 30 c0 9e ef b4 3f a0 a8 e8 bf 27 e3 fa be
       -2.7568927 1.4135625 -1.817646 -0.49001428
0002e0 5d ea 02 3f 06 f7 20 3e 01 70 ae bf ba d0 50 3f
       0.5113886 0.15719232 -1.3627931 0.8156849
0002f0 1c cc 14 bf f8 7b 2a bf 5a 4f 04 3f 1b 9e 16 3d
       -0.58123946 -0.6659541 0.5168358 0.036771875
000300 2f 4f ac c0 3e 0a 2f 40 d5 a0 78 c0 a9 e0 e6 c0
       -5.384666 2.7350001 -3.8848164 -7.2149243
000310 dd d8 5b 40 74 fe a8 c0 28 83 01 bf 58 b7 f0 3e
       3.4351113 -5.281061 -0.50590754 0.4701488
000320 66 a6 87 3e d2 b3 fa be 21 8a 0e 3f fe 2e 54 3e
       0.2649414 -0.48965317 0.5567952 0.20721051
000330 2c e0 bd c0 a6 7a 3c 40 00 b7 89 c0 f1 0f a4 c0
       -5.9336147 2.9449859 -4.303589 -5.126946
000340 99 f8 22 40 92 ca 6e c0 c6 42 ab c0 c6 71 28 40
       2.5464232 -3.731114 -5.351901 2.6319442
000350 74 d4 79 c0 aa 95 f1 be f4 43 f5 3e 5b 7e 14 3e
       -3.903592 -0.47184497 0.47903407 0.14501326
000360 fd 55 c5 be 7e f5 e4 3e d6 db b5 3d be e6 8b c0
       -0.38542166 0.44718546 0.08879821 -4.371917
000370 50 6d 68 40 53 e2 7a c0 9a ad 3b bf 68 b1 1d 3f
       3.631672 -3.9200637 -0.7331177 0.61598825
000380 71 2f 37 be d8 d7 d2 c0 51 61 42 40 e3 29 9c c0
       -0.17889191 -6.588848 3.0371897 -4.880113
000390 a8 af 05 bf 5a 10 09 3f 66 5b de bc b4 07 e9 be
       -0.52221155 0.53540576 -0.027143192 -0.4551369
0003a0 81 ca f5 3e c0 c5 8a 3d 6d f4 c4 c0 b4 13 3d 40
       0.4800606 0.06775999 -6.154837 2.9543276
0003b0 30 ae 8f c0 90 15 03 bf f0 d8 f1 3e 6a 83 95 3e
       -4.490013 -0.51204777 0.47235823 0.29201823
0003c0 13 fd fa be 4e 80 04 3f 6e 10 8e 3e 27 f8 89 c0
       -0.49021205 0.5175828 0.2774691 -4.311542
0003d0 c1 21 66 40 07 28 79 c0 76 f1 02 bf 7f bd ea 3e
       3.5958102 -3.893068 -0.5114969 0.458477
0003e0 32 fc f5 bd 80 c4 13 bf 16 d6 d9 3e 8c b0 32 be
       -0.12010993 -0.5772171 0.42546147 -0.1745016
0003f0 da f7 a7 c0 d8 04 8b 40 94 d1 97 c0 58 89 b0 c0
       -5.2490053 4.3443413 -4.7443333 -5.5167656
