models/optimization/IN_100_2_0.08265398519489262_0.6819869332680413_9_1.pt (torch, 14042 bytes, 18 tensors)

weight f4 [2, 9]
000000 a3 62 89 be f6 85 5c be 2b 2a 1e 3e 00 00 c2 bd
       -0.26833066 -0.21535477 0.15445773 -0.09472656
000010 46 e1 3f be 00 34 b4 ba 16 23 77 be 9b d7 16 be
       -0.18738279 -0.0013748407 -0.24134478 -0.14730684
000020 2b 98 28 bc 66 3b 01 be b8 c5 3e be 56 7f 14 bb
       -0.010290186 -0.12620315 -0.18630111 -0.0022658906
000030 cc e5 93 be 08 95 1c 3e 4b c1 e7 bd 98 26 6d 3e
       -0.2888626 0.15291226 -0.113161646 0.23159254
000040 7e 89 a2 be 56 59 01 bc
       -0.31745523 -0.0078948345

bias f4 [2]
000000 f0 db 1c be 86 3c 9a 3e
       -0.15318274 0.301243

weight f4 [2, 2]
000000 39 de 99 bd 04 23 71 3e e3 b1 77 be c3 2f 11 be
       -0.07513089 0.23548514 -0.24188952 -0.14178376

bias f4 [2]
000000 fc d9 87 3d 94 bf f9 3e
       0.06633374 0.48778975

weight f4 [3, 2]
000000 0e b2 29 3e d2 76 97 be fa c4 b0 be da 02 e9 3e
       0.16571829 -0.2958284 -0.3452528 0.45509988
000010 fb 87 d3 3e e2 2a d4 be
       0.41314682 -0.41438967

bias f4 [3]
000000 bb f5 dd 3d 96 24 18 3f 37 60 97 3e
       0.10837885 0.59430826 0.29565594

weight f4 [2, 6]
000000 35 7a bb 3e 32 8f ca be 06 fb 4c be f1 3f 24 bc
       0.36616674 -0.39562374 -0.20017633 -0.01002501
000010 0c 3f a7 be 9a bf bc 3e 06 ce 73 3e ce 8d 36 be
       -0.32665288 0.3686493 0.2380906 -0.17827532
000020 eb 5d a8 3e c5 af 42 be e5 53 0d be 92 27 83 be
       0.32884154 -0.19012363 -0.13801534 -0.25616127

bias f4 [2]
000000 0c 0a a7 3d 9e 8d 46 3e
       0.08156213 0.1938996

weight f4 [2, 2]
000000 cd 0f e3 3e ee ab 2d bf 0c 4c 76 3e 4f c1 95 be
       0.44347993 -0.6784047 0.24052447 -0.29249045

bias f4 [2]
000000 cf 5f 28 3f 53 e8 10 3d
       0.6577119 0.03537781

weight f4 [3, 2]
000000 d6 cc 22 bf d8 a5 1d bf 9c 54 25 bf 44 a0 e4 be
       -0.63593805 -0.6158118 -0.6458223 -0.44653523
000010 77 28 10 3f 5d ed f9 3d
       0.56311744 0.122034766

bias f4 [3]
000000 2e 08 41 3e 85 3b bf be dd 78 86 3e
       0.18850777 -0.37350097 0.26264086

weight f4 [2, 9]
000000 90 8e 92 be bc bc a8 3e 9a d6 8d 3e e2 b8 a1 be
       -0.28624392 0.32956493 0.2770279 -0.31586367
000010 b6 8a 96 3d 40 ab 5d 3e 16 5a d0 bc c3 81 2e be
       0.07350676 0.21647358 -0.025433581 -0.17041688
000020 ab 3e 85 bc db e9 d9 bd 16 91 ce 3c d6 24 b6 bd
       -0.016265234 -0.106403075 0.025215667 -0.08893745
000030 a0 09 e1 3d b6 fb 12 3d ce 63 a8 be 40 9e 5b 3e
       0.10988164 0.03588458 -0.32888645 0.21447086
000040 96 86 13 bd 50 3b 1b be
       -0.036017023 -0.15159345

bias f4 [2]
000000 1f 84 97 3e 36 ab 11 bd
       0.29592988 -0.03556367

weight f4 [2, 2]
000000 6b cc 06 3f f3 86 e3 3e 49 56 14 bf 08 8a 13 bf
       0.5265567 0.44438896 -0.5794416 -0.57632494

bias f4 [2]
000000 bf c5 af be da f2 86 be
       -0.34330556 -0.26357156

weight f4 [1, 2]
000000 9f 48 26 3e e6 7f 0b bd
       0.1623864 -0.03405752

E f4 [216, 3]
000000 04 3b cc bc 39 1c 4b 3f 4e a8 f7 3d 04 3b cc bc
       -0.024930485 0.7933994 0.120926484 -0.024930485
000010 39 1c 4b 3f 4e a8 f7 3d 04 3b cc bc 39 1c 4b 3f
       0.7933994 0.120926484 -0.024930485 0.7933994
000020 4e a8 f7 3d 30 88 b5 bb 7a 2b 42 3f 7f 18 22 3e
       0.120926484 -0.0055399165 0.7584759 0.15829657
000030 a4 2c d3 3d cb 12 10 3f 7c 42 bc 3e 99 e9 c1 3d
       0.10311249 0.56278676 0.36769474 0.09468383
000040 a9 f5 13 3f 5b f1 b3 3e 04 3b cc bc 39 1c 4b 3f
       0.5779672 0.35145077 -0.024930485 0.7933994
000050 4e a8 f7 3d 04 3b cc bc 39 1c 4b 3f 4e a8 f7 3d
       0.120926484 -0.024930485 0.7933994 0.120926484
000060 04 3b cc bc 39 1c 4b 3f 4e a8 f7 3d fd 63 c8 3d
       -0.024930485 0.7933994 0.120926484 0.09784696
000070 4e 80 12 3f 62 10 b7 3e ce 8f bc 3d 0c 2a 15 3f
       0.5722703 0.35754687 0.09207116 0.58267283
000080 61 5d b1 3e 04 3b cc bc 39 1c 4b 3f 4e a8 f7 3d
       0.34641555 -0.024930485 0.7933994 0.120926484
000090 04 3b cc bc 39 1c 4b 3f 4e a8 f7 3d 04 3b cc bc
       -0.024930485 0.7933994 0.120926484 -0.024930485
0000a0 39 1c 4b 3f 4e a8 f7 3d 04 3b cc bc 39 1c 4b 3f
       0.7933994 0.120926484 -0.024930485 0.7933994
0000b0 4e a8 f7 3d f2 fc 58 3e c2 d3 bb 3e ba cd 13 3f
       0.120926484 0.21190241 0.36684996 0.5773579
0000c0 54 15 90 3e 0a 6d 6f 3e 5c 1f 3a 3f c0 44 8a 3e
       0.28141272 0.23381439 0.727041 0.27005577
0000d0 c6 d3 83 3e cc df 32 3f 5c 1f 92 3e dc ed 66 3e
       0.25747508 0.69872737 0.2853955 0.22551674
0000e0 17 aa 3c 3f 97 38 97 3e 4e af 51 3e 1a 05 43 3f
       0.73697037 0.29535362 0.2047703 0.7617966
0000f0 01 c6 94 3e 22 e2 5b 3e 0a f8 3f 3f a8 b4 1d 3c
       0.29057315 0.21472982 0.7498785 0.009625591
000100 6e 2d 3b 3f 4a 06 40 3e e0 40 c3 bb e6 5c 42 3f
       0.73116195 0.18752399 -0.0059586614 0.75923
000110 f2 44 21 3e 00 58 36 b8 b5 a2 3f 3f 5e f1 2c 3e
       0.15748957 -4.3474138e-05 0.74857646 0.1688895
000120 50 3d ba bb 6e 3c 42 3f ec cf 21 3e 04 3b cc bc
       -0.0056835786 0.7587346 0.15801972 -0.024930485
000130 39 1c 4b 3f 4e a8 f7 3d 04 3b cc bc 39 1c 4b 3f
       0.7933994 0.120926484 -0.024930485 0.7933994
000140 4e a8 f7 3d 04 3b cc bc 39 1c 4b 3f 4e a8 f7 3d
       0.120926484 -0.024930485 0.7933994 0.120926484
000150 04 3b cc bc 39 1c 4b 3f 4e a8 f7 3d 04 3b cc bc
       -0.024930485 0.7933994 0.120926484 -0.024930485
000160 39 1c 4b 3f 4e a8 f7 3d 04 3b cc bc 39 1c 4b 3f
       0.7933994 0.120926484 -0.024930485 0.7933994
000170 4e a8 f7 3d 3c a6 c7 bc 37 da 4a 3f 60 dd f9 3d
       0.120926484 -0.024371259 0.7923922 0.12200427
000180 04 3b cc bc 39 1c 4b 3f 4e a8 f7 3d 50 f4 a1 3b
       -0.024930485 0.7933994 0.120926484 0.0049424544
000190 32 56 3d 3f 52 c8 36 3e d8 10 2b 3c 2e cd 3a 3f
       0.7395965 0.17849854 0.010441028 0.7296933
0001a0 42 a2 41 3e 04 3b cc bc 39 1c 4b 3f 4e a8 f7 3d
       0.18909553 -0.024930485 0.7933994 0.120926484
0001b0 04 3b cc bc 39 1c 4b 3f 4e a8 f7 3d 04 3b cc bc
       -0.024930485 0.7933994 0.120926484 -0.024930485
0001c0 39 1c 4b 3f 4e a8 f7 3d 04 3b cc bc 39 1c 4b 3f
       0.7933994 0.120926484 -0.024930485 0.7933994
0001d0 4e a8 f7 3d 04 3b cc bc 39 1c 4b 3f 4e a8 f7 3d
       0.120926484 -0.024930485 0.7933994 0.120926484
0001e0 04 3b cc bc 39 1c 4b 3f 4e a8 f7 3d 04 3b cc bc
       -0.024930485 0.7933994 0.120926484 -0.024930485
0001f0 39 1c 4b 3f 4e a8 f7 3d 59 7e 50 3e 0c 7a c3 3e
       0.7933994 0.120926484 0.20360698 0.38179052
000200 fd b5 0f 3f 9f 5e f0 3d 29 80 09 3f 81 53 ca 3e
       0.5613707 0.117367975 0.5371118 0.39516833
000210 99 6e cb 3d 04 d1 11 3f 86 87 b8 3e f6 11 cc 3d
       0.09933204 0.5695956 0.36040896 0.09964363
000220 3c ac 11 3f 3b d6 b8 3e b1 52 bc 3d ce 37 15 3f
       0.56903434 0.36100945 0.0919546 0.58288276
000230 f0 3f b1 3e bc 93 df 3d fa 47 0d 3f 44 3c c2 3e
       0.34619093 0.1091685 0.5518795 0.37936604
000240 42 35 98 3d 3f 59 1d 3f 6a d9 9f 3e de c8 2b 3d
       0.07432033 0.61464304 0.3122056 0.04193961
000250 46 47 2c 3f b6 cb 7f 3e 94 dd f4 3c 71 d5 31 3f
       0.67296255 0.24980053 0.029890813 0.6946631
000260 84 04 68 3e d3 b8 77 3d ff ba 23 3f 04 31 92 3e
       0.22657973 0.060478996 0.6395721 0.2855302
000270 e6 d8 4b 3d 54 ab 28 3f 33 9f 87 3e 4c ba ae 3c
       0.049767397 0.65886426 0.26488647 0.021329068
000280 05 c8 35 3f 06 1f 57 3e 88 8e 69 3e 18 e8 ac 3e
       0.7100833 0.21007928 0.22808278 0.33770823
000290 5b c9 1b 3f 36 7c 73 3e 3c f7 a3 3e f5 91 20 3f
       0.6085412 0.23777851 0.32024562 0.6272271
0002a0 bf 4e 0d 3e c6 fa ff 3e 30 ae de 3e 5f ab 1c 3e
       0.1379957 0.49996012 0.4349227 0.15299748
0002b0 55 25 f2 3e ba 7b ed 3e 04 3b cc bc 39 1c 4b 3f
       0.47294107 0.46383458 -0.024930485 0.7933994
0002c0 4e a8 f7 3d 04 3b cc bc 39 1c 4b 3f 4e a8 f7 3d
       0.120926484 -0.024930485 0.7933994 0.120926484
0002d0 04 3b cc bc 39 1c 4b 3f 4e a8 f7 3d 10 60 63 3e
       -0.024930485 0.7933994 0.120926484 0.22204614
0002e0 26 79 b2 3e ea ce 18 3f 04 3b cc bc 39 1c 4b 3f
       0.34858054 0.59690726 -0.024930485 0.7933994
0002f0 4e a8 f7 3d 04 3b cc bc 39 1c 4b 3f 4e a8 f7 3d
       0.120926484 -0.024930485 0.7933994 0.120926484
000300 04 3b cc bc 39 1c 4b 3f 4e a8 f7 3d 04 3b cc bc
       -0.024930485 0.7933994 0.120926484 -0.024930485
000310 39 1c 4b 3f 4e a8 f7 3d b4 41 ba bc 3f 19 4a 3f
       0.7933994 0.120926484 -0.022736408 0.7894477
000320 a2 28 00 3e 04 3b cc bc 39 1c 4b 3f 4e a8 f7 3d
       0.125155 -0.024930485 0.7933994 0.120926484
000330 04 3b cc bc 39 1c 4b 3f 4e a8 f7 3d 04 3b cc bc
       -0.024930485 0.7933994 0.120926484 -0.024930485
000340 39 1c 4b 3f 4e a8 f7 3d 04 3b cc bc 39 1c 4b 3f
       0.7933994 0.120926484 -0.024930485 0.7933994
000350 4e a8 f7 3d f0 2e ea bb 22 e9 42 3f bb ec 1e 3e
       0.120926484 -0.0071467087 0.7613698 0.15519993
000360 04 3b cc bc 39 1c 4b 3f 4e a8 f7 3d 9c 6f ab bc
       -0.024930485 0.7933994 0.120926484 -0.020927243
000370 b4 43 49 3f a4 ba 03 3e 04 3b cc bc 39 1c 4b 3f
       0.7861893 0.12864166 -0.024930485 0.7933994
000380 4e a8 f7 3d 04 3b cc bc 39 1c 4b 3f 4e a8 f7 3d
       0.120926484 -0.024930485 0.7933994 0.120926484
000390 04 3b cc bc 39 1c 4b 3f 4e a8 f7 3d 00 64 e4 ba
       -0.024930485 0.7933994 0.120926484 -0.0017424822
0003a0 40 6b 40 3f 01 97 29 3e 00 99 1c bc be 05 44 3f
       0.7516365 0.1656151 -0.009557962 0.7657126
0003b0 8a 2a 1a 3e b0 4c fb bb c9 26 43 3f d5 e4 1d 3e
       0.1505529 -0.007669054 0.76231056 0.15419324
0003c0 10 ef 0b 3c 76 ad 3b 3f 49 e2 3d 3e 04 3b cc bc
       0.008540884 0.73311555 0.18543352 -0.024930485
0003d0 39 1c 4b 3f 4e a8 f7 3d 04 3b cc bc 39 1c 4b 3f
       0.7933994 0.120926484 -0.024930485 0.7933994
0003e0 4e a8 f7 3d 04 3b cc bc 39 1c 4b 3f 4e a8 f7 3d
       0.120926484 -0.024930485 0.7933994 0.120926484
0003f0 04 3b cc bc 39 1c 4b 3f 4e a8 f7 3d 04 3b cc bc
       -0.024930485 0.7933994 0.120926484 -0.024930485
