models/optimization/IN_1000_5_0.00011965783635365483_0.6602071686733351_7_11_state_dict.pt (torch, 7057 bytes, 17 tensors)

R1.layers.0.weight f4 [5, 9]
00000000: 7e52 963e fe2e a73c 15ba 363e da8b 33be
00000010: c1a4 24ba e55c f5be 1696 3f3f d08e ed3d
00000020: 5f35 9f3e aace d9be a1b0 67be a5c9 98be
00000030: 75cb 133e c65f 863e 015f 5f3e 8336 2cbf
00000040: bffa 3a3c f0a6 0dbf 1f4f f93b 89d5 96be
00000050: c9f2 653e 2ff2 90be ab51 90be e74d ecbb
00000060: cb9e bf3d c331 abbc b80e 953e b3c3 c73d
00000070: c79f 5bbe 566e e43e 7f29 f8bd 13ce 3e3e
00000080: 2241 d5be a82d 273f 73eb 953d 63f7 143f
00000090: bc43 95be 8590 2cbe 0262 32be 877a 89be
000000a0: 9e05 823e c2de a5be 0ab8 cc3e 63ac a3bc
000000b0: 2f53 aa3e
0.29359812 0.02040815 0.17844422 -0.17533818 -0.0006280654 -0.47922435 0.7483839 0.11599505
0.31095406 -0.42540485 -0.22625972 -0.29841343 0.14433081 0.26244944 0.21813585 -0.6727068
0.011412322 -0.5533285 0.007608309 -0.2945979 0.22455896 -0.2830977 -0.28187308 -0.007211435
0.09356459 -0.020897752 0.29112792 0.097541235 -0.21447669 0.4461543 -0.1211729 0.18633299
-0.41651255 0.6530404 0.07320299 0.5818998 -0.2915324 -0.16852005 -0.174202 -0.26851293
0.2539491 -0.32396513 0.3998416 -0.019979661 0.3326659

R1.layers.0.bias f4 [5]
00000000: d73e f4bd 8e6d d53e c663 a0be cd66 e03d
00000010: 64e0 9d3e
-0.11926048 0.41685146 -0.3132612 0.10957108 0.3083526

R1.layers.2.weight f4 [5, 5]
00000000: 5512 113f fab6 333f 800a c4be 80c5 993e
00000010: 80d6 c9be 05a1 393f ea5f 0c3f ecf6 983e
00000020: f94c 3f3f 56f9 91be 95a9 89be b12f 81be
00000030: 15f5 4b3d 16de 04be 9447 aebe 041c 1d3f
00000040: 9ec0 18bf 2388 c5be aa7d 323f 6129 863e
00000050: d49b c23e 82c3 ab3e 7f24 a6be 500c b03e
00000060: 2663 55be
0.566686 0.70201075 -0.3828926 0.30033493 -0.39421463 0.7251132 0.54833853 0.29875886
0.74726826 -0.2851054 -0.26887193 -0.25231698 0.049794275 -0.12975344 -0.34038985 0.61370873
-0.5966891 -0.38580427 0.69723 0.26203445 0.38009512 0.33547598 -0.3244972 0.34384394
-0.20838603

R1.layers.2.bias f4 [5]
00000000: a45f 343d 6b71 fcba 6be0 a9bd c1ab cf3d
00000010: f65e cb3e
0.044036523 -0.0019259875 -0.082947575 0.10140181 0.39720887

R1.layers.4.weight f4 [3, 5]
00000000: abda 073f 018f 4d3f 6252 8fbd c821 263f
00000010: 2681 993e 11bf 5c3f e8c2 f03e 8927 36be
00000020: f8fe 173f 0911 2b3f d735 cbbe d7e1 3abf
00000030: b40a e4bc 8af6 363d b5d7 96be
0.53068036 0.8029633 -0.06998135 0.64895296 0.29981345 0.86229044 0.47023702 -0.17788519
0.59373426 0.6682287 -0.39689514 -0.73000854 -0.027837135 0.04466871 -0.29461446

R1.layers.4.bias f4 [3]
00000000: faad 70bd 18c1 f03e 34fd 173e
-0.058759667 0.4702232 0.14842683

O.layers.0.weight f4 [5, 6]
00000000: 57bd 993c 0832 003f 7cda 3a3d 5406 943e
00000010: fe43 0c3f 6a22 96be b971 1a3e f8c0 ed3e
00000020: 009f b13e 343b 20be 472e a3be 6247 c33e
00000030: 507f cf3d 6788 ff3d f07e c2bd 8fb8 d9be
00000040: 3c42 a2be 620c 13be 95f2 4a3e d46e 80be
00000050: c022 c9bd 3e8e 87be 2dd0 883e 9f4e 26be
00000060: fcf4 63be 6e34 20bd 36e7 a4bd fa54 fb3d
00000070: 466e 21be d5ea 453e
0.018767042 0.5007634 0.04561852 0.28911078 0.5479125 -0.2932313 0.15082444 0.46436286
0.3469162 -0.15647584 -0.31871244 0.38140398 0.10131705 0.124771886 -0.09496868 -0.4252362
-0.31691158 -0.14360192 0.198191 -0.25084555 -0.09821081 -0.2647571 0.26721326 -0.16240929
-0.22261423 -0.0391125 -0.080519125 0.12272067 -0.15764722 0.19327863

O.layers.0.bias f4 [5]
00000000: cc19 29be 194e d1bd 21ca 2cbe ded8 b03e
00000010: 7ce1 dfbe
-0.16513747 -0.10219974 -0.16873981 0.34540457 -0.43726718

O.layers.2.weight f4 [5, 5]
00000000: eb3d 333f 5661 7bbe 9b2a 23bd b002 c23d
00000010: 4a85 f8bd adc2 68be fa82 163f 7079 ccbc
00000020: 3251 afbe 9812 74be 6db0 f93c fea4 b8bd
00000030: b7c1 173e 1a0f 033f 009e a8be 847d 22be
00000040: 7254 4a3e 47bb cebe b7fc a2be f85a b8be
00000050: 4913 173f 5476 af3b 2a94 c7bd f4cb d3be
00000060: 4dc4 3fbe
0.70016354 -0.2454885 -0.039835554 0.09473169 -0.12134798 -0.22730513 0.58793604 -0.02496025
-0.34241635 -0.23835218 0.030479634 -0.09015845 0.1481999 0.5119492 -0.32933044 -0.15868193
0.19758776 -0.40377256 -0.3183343 -0.36006904 0.590138 0.005354682 -0.09745057 -0.4136654
-0.18727227

O.layers.2.bias f4 [5]
00000000: 453c a93d ce60 1d3f 5a30 f7bd 7444 d6be
00000010: 0618 f03e
0.082634486 0.6147584 -0.12069769 -0.418491 0.46893328

O.layers.4.weight f4 [3, 5]
00000000: b90f 123e 78f4 2bbf 3f7c d23e 179c 093e
00000010: 196e 403e 3dfc 09bf 4399 1f3e be26 2f3e
00000020: 9948 d83e 8f43 9cbe dee5 dcbe c547 3f3e
00000030: a090 3c3e 866c 41be 6dae 3fbf
0.1426381 -0.67169905 0.41110417 0.1343845 0.18791999 -0.5390051 0.15585808 0.17104623
0.42242888 -0.30520293 -0.43144125 0.18679722 0.18414545 -0.18889055 -0.7487553

O.layers.4.bias f4 [3]
00000000: 0b44 18bf 0f2a 923e 7eca 1cbf
-0.59478825 0.28547713 -0.6124648

R2.layers.0.weight f4 [5, 9]
00000000: 022e 713e b05e ebbe 8690 d5be 3eb7 04bc
00000010: 7f01 9ebd 9cf3 43be f8ab 233f a71b 313f
00000020: a117 46be 3f95 c8be 723a 7e3e 1c77 d8be
00000030: 652f dbbe 11db 8cbc 8db2 8fbe 21c2 10bf
00000040: b08d a6bd 5fc7 253f 9604 13be 85fb 393e
00000050: dc40 763e 5381 22be b858 933d 9583 7f3c
00000060: a6ec 11be 95fa 97bd 01e5 3fbe 5304 2cbe
00000070: 208d 0f3e a089 503e 0ca0 963e 16d3 b13c
00000080: 4ed6 373e b397 a73e 6b5d a2be f607 57be
00000090: a98d c23d 117c 8fbe 70d0 97be 673f f3be
000000a0: 1d1c 82bd de44 86be cab6 e2be c62f 17bf
000000b0: 28f0 873e
0.23552707 -0.45970678 -0.41711825 -0.008100329 -0.07715129 -0.19135898 0.6393428 0.6918282
-0.19344951 -0.39176366 0.24826983 -0.42278373 -0.42809597 -0.017194303 -0.2806591 -0.5654622
-0.081324935 0.6475734 -0.14357218 0.18162353 0.2404818 -0.15869646 0.07194656 0.015595336
-0.1425043 -0.074208416 -0.18739702 -0.16798525 0.14018679 0.20365 0.2941898 0.021707099
0.17952845 0.32732925 -0.31711897 -0.2099913 0.09499676 -0.28024343 -0.29651213 -0.4750931
-0.063530184 -0.26224416 -0.44280082 -0.5905727 0.26550412

R2.layers.0.bias f4 [5]
00000000: c012 fe3d 2064 b9bd 7b77 a9be b3ff 1bbe
00000010: 4a5c b53d
0.1240592 -0.090523005 -0.3309897 -0.1523426 0.08855493

R2.layers.2.weight f4 [5, 5]
00000000: 53ad 57be 95a1 aebe 342a c2be 61e0 83bc
00000010: f776 b73e c9c4 e8be 6969 c2bb cd09 1ebe
00000020: eaa5 8d3e dbf8 d4be 4d2b 98be 5c13 b1ba
00000030: 6575 a93d 1ecd c3be 9d3c ed3c c101 843c
00000040: 3708 683e a49e dabd c6ab b4be 4a54 ef3e
00000050: c099 213f 3cc7 24bf 12b3 393e a1fc 9d3d
00000060: 1502 34bf
-0.21062212 -0.34107652 -0.37922823 -0.016098203 0.3583295 -0.45462635 -0.005932976 -0.15433426
0.27665645 -0.41596112 -0.29720536 -0.0013509798 0.08274344 -0.3824243 0.028959567 0.016114118
0.22659384 -0.106747895 -0.35287303 0.46743995 0.6312523 -0.6436651 0.18134716 0.07714201
-0.70315677

R2.layers.2.bias f4 [5]
00000000: 3b7f 6cbe 4c4c ae3d 43a1 8abe 9fd8 113d
00000010: 7fa7 863e
-0.2309541 0.08510646 -0.27076158 0.035606977 0.26299664

R2.layers.4.weight f4 [1, 5]
00000000: 5381 d33d 15c0 02be e5f6 2a3e 4bc5 d13e
00000010: b072 3abf
0.10327401 -0.12768586 0.16695745 0.40970835 -0.7283125
