models/optimization/IN_100_7_0.03238583636315555_0.7664163721577837_4_2.pt (torch, 17818 bytes, 18 tensors)

weight f4 [7, 9]
00000000: 84ba a73e 1055 06be 3e6b f33e 5022 36bf
00000010: 9e72 253e 0774 60bf 38e9 0f40 5e8c f43f
00000020: d365 9840 2d87 513e ede4 bbbe b6dd ac3e
00000030: 6269 abbd ff5c 43bd 17db ffbe 48f6 9f3e
00000040: 510b 6d3f 18cb c73f b799 803e ef89 a4be
00000050: acc2 653f 2037 2bbe 311e a53e f1f1 7ebf
00000060: f608 b73e 3d01 19bf 600d 2841 6325 b93e
00000070: 296e d7bd ca00 d43e f0fe 97be 8bbf 6a3e
00000080: dee2 43be f082 d83f 2d8f 42bf 0a40 fa40
00000090: 2685 28be cb1c 81be 9e59 703e 765f a43d
000000a0: 8628 44be 8086 64be 7eed 05be 3419 913e
000000b0: fedb 7b3e 7785 c23e 2a54 063e 518a 7b3f
000000c0: f6e6 dbbe 40a1 0dbe 8df3 79bf 6575 cf3e
000000d0: 7658 783f 0abf 2141 962a ae3c e272 d9be
000000e0: 6f4a bfbe 9dc4 443e 8997 94be 7ef3 083e
000000f0: ccd6 d8bc 7a2f fb3d bf19 afbe
0.32759488 -0.13118386 0.47542757 -0.71146107 0.16157004 -0.87677044 2.2486095 1.9105337
4.7624297 0.20461722 -0.36698094 0.33762902 -0.083697096 -0.04769611 -0.4997184 0.31242585
0.9259539 1.5608854 0.25117275 -0.32136485 0.8975017 -0.16720247 0.32249597 -0.99587923
0.35749024 -0.59767514 10.503265 0.36161336 -0.10519058 0.41406852 -0.2968669 0.2292463
-0.19129512 1.6914959 -0.7599972 7.8203173 -0.16457042 -0.2521728 0.23471686 0.0802602
-0.19156083 -0.22316933 -0.13078877 0.2833954 0.24595639 0.3799245 0.13118044 0.9825793
-0.42949647 -0.13831043 -0.97637254 0.40519252 0.9700998 10.10914 0.021260541 -0.4247046
-0.37361476 0.19215627 -0.29021862 0.13374135 -0.02646961 0.12264915 -0.3419933

bias f4 [7]
00000000: 90af a53e 3126 41bd 08ae eb3c ae7b ea3e
00000010: a60f 9abe 3758 b8bd cf50 a63d
0.32360506 -0.047155563 0.028769508 0.45797485 -0.30090064 -0.09001201 0.08120882

weight f4 [7, 7]
00000000: 6091 6ebe 4f24 31be 4aa6 a4be 03cc b9be
00000010: 0abe bcbe dfde fdbd a946 a1be 5d8f 39bf
00000020: fba3 11bf 781a 0e3f 3868 4cbc 291d 1a3d
00000030: 229e 0d3f 6132 cebc 341d b73e 661b 1abf
00000040: 331d afbf b5ad 8c3e fe75 9f3e 082e febf
00000050: 54d5 e7bd 44e6 20be c5fe 7dbd 4a24 2fc0
00000060: d06b e73e c144 c6bd 134c e03e 902d eb3c
00000070: 2fa9 8a3e 3fc5 41bd 66b0 43bd fd92 5f3f
00000080: 8eee e63d d7a3 debf 49a9 bcbd 3ae8 10bf
00000090: 92a1 3c3e 4341 f0bf 3f36 77bf b254 9f3d
000000a0: b51b 17c0 96a7 a93e b620 5bbe fa95 23be
000000b0: 7876 bdbe e29d 03bf 285c b13e 99f1 cb3d
000000c0: 39e3 043e
-0.23297644 -0.17299007 -0.32158118 -0.3628846 -0.36863738 -0.12396025 -0.31499222 -0.7248438
-0.5689084 0.5550914 -0.01247602 0.037625466 0.55319417 -0.025170507 0.35764468 -0.60198057
-1.3680786 0.27476278 0.31144708 -1.9857798 -0.11319986 -0.1571284 -0.062010545 -2.73659
0.45199442 -0.096810825 0.4380804 0.02870825 0.27082202 -0.04730725 -0.04777565 0.8733366
0.112759694 -1.739375 -0.09211976 -0.5660435 0.18421009 -1.8769916 -0.9656715 0.07779826
-2.361066 0.3313567 -0.21399197 -0.1597518 -0.37004447 -0.51412785 0.34640622 0.099581905
0.12977304

bias f4 [7]
00000000: 846a 3bbe a68a 04bc 0b2a 8b3f 41f6 863f
00000010: a1fd a43e 4798 b33f c8cc 4bbf
-0.18302351 -0.008089697 1.0872205 1.0543901 0.32224753 1.4030846 -0.79609346

weight f4 [3, 7]
00000000: f7cf 533e 41ff cdbc f368 84bf 8921 9bbf
00000010: fa08 ad3e 1cb3 503f 6dde bb3d 1796 733d
00000020: 9001 913e d326 993f 8aa2 2e3f e13b 833f
00000030: 3ba6 e9bf 6e28 da3e 73aa c9bd 0658 3a3f
00000040: ef7f 71bf 4038 04bf cf30 a8be db3d f03f
00000050: d4a5 713e
0.20684801 -0.025146129 -1.0344528 -1.2119609 0.3379591 0.815233 0.09173284 0.05946931
0.28321505 1.1964973 0.68216765 1.0252649 -1.8253855 0.4260897 -0.09846964 0.72790563
-0.94335836 -0.5164833 -0.32849738 1.8768877 0.23598415

bias f4 [3]
00000000: a06c 1c3f 7a85 03bf 583e 1f3f
0.6110325 -0.51375544 0.62204504

weight f4 [7, 6]
00000000: 7a62 89be 570f 54bf 5410 19be 257c b53e
00000010: 292a 383e a3a9 aabc 6c67 d43e 0832 98bf
00000020: 03c0 dc3e 5dce 2f3f 90fb c0bc a544 cb3d
00000030: 9926 e0bf 0404 22bf ffc0 e8bf 046c 15be
00000040: 0992 58be bb6d ce3e e04a 4e3f e8ab c53e
00000050: ce0a c13d 3b6f ec3e 768d 84be 6a8b 273f
00000060: 2b73 6f3f ef08 f0be 897d 3e3f 924a 1e3e
00000070: a846 333d 4989 f93d 0053 75bc f42d ddbe
00000080: 5125 e9be 9f3e ed3e 8061 223e b6e5 b4bd
00000090: 3620 44bd 8cc4 fcbe df25 c6bd cdcf 2dbf
000000a0: c250 923f 53cb 96be
-0.26832944 -0.82835907 -0.14947635 0.35446277 0.17984833 -0.020832842 0.41485155 -1.1890268
0.43115243 0.6867426 -0.023557454 0.09925202 -1.7511779 -0.6328738 -1.8183898 -0.14591986
-0.21149458 0.40318093 0.80583 0.38607717 0.09425889 0.46178612 -0.25889176 0.65447104
0.9353511 -0.46881816 0.744103 0.15458134 0.043768555 0.12184388 -0.014973402 -0.43199122
-0.45536283 0.4633684 0.15857506 -0.088328764 -0.04788228 -0.49368703 -0.09675192 -0.67895204
1.1430895 -0.29452

bias f4 [7]
00000000: 7616 7cbf dce3 71bf 8a9f 89bf 37d6 14bf
00000010: 819f ebbe 9605 bdbe 2fc2 92bf
-0.9847177 -0.9448831 -1.0751812 -0.58139366 -0.4602013 -0.36918324 -1.146551

weight f4 [7, 7]
00000000: 54d4 bdbe eac6 84be 849e d3be a65b d8be
00000010: 8813 883e 3f26 82be 08a0 3fbe c24f 32be
00000020: 968c 78be 7ae2 463f da58 b93e 3755 053f
00000030: 6482 8f3d dae7 cdbe e237 92be c8ff 7cbe
00000040: 00b6 50be 9e8c 9ebf fd28 debe 4d9d b2be
00000050: 5fad f2be 6bda c1be e630 56be de37 1fbf
00000060: 3784 f6be 2fea b43d 2a6e 80bd 6c8d 15be
00000070: 1094 d33a 8754 bd3d 6dad 8abe 6330 23bd
00000080: 9616 0cbe 632a cdbc 2f0e 103f 1bf1 8ebe
00000090: d582 3d3f 8c8c 06be b99b 12bf 2afe ccbe
000000a0: ea4e 34be 2304 7f3e 5902 d93d c52a 203e
000000b0: c366 453e 2f31 ed3e bcea 8f3e f11b 94be
000000c0: 3d96 10be
-0.37076056 -0.2593301 -0.41331875 -0.42257422 0.265774 -0.25419804 -0.18713391 -0.17413238
-0.2427238 0.77689326 0.362006 0.5208315 0.07007292 -0.4021595 -0.2855826 -0.24706948
-0.20381927 -1.2386663 -0.43390647 -0.34885636 -0.47397897 -0.37861952 -0.20917091 -0.6219462
-0.48147747 0.088337295 -0.06271012 -0.1460473 0.0016142149 0.09244638 -0.27085438 -0.039841067
-0.13680491 -0.025044626 0.5627164 -0.27918324 0.7402776 -0.13139552 -0.57268864 -0.40037662
-0.17608228 0.24903922 0.10596151 0.15641315 0.19277482 0.46326587 0.28108776 -0.28927568
-0.14119811

bias f4 [7]
00000000: 6064 e4be e649 4fbe 02ed d5bd 136e c5be
00000010: b2ef 49bf e990 44bf 57e8 17bf
-0.4460783 -0.20243034 -0.10445596 -0.38560542 -0.7888137 -0.76783615 -0.593389

weight f4 [3, 7]
00000000: d2a2 c2bd 309a 0f3e 8580 db3d c799 acbd
00000010: ae8b 7e3e b470 18be a4d5 8e3e 07aa ce3c
00000020: 2760 aebe f2bf b4be f872 0cbf d71e 1cbc
00000030: 64bb 85bd abe0 cf3e 46f7 8f3b 2d14 b4be
00000040: 0fc7 dd3e e238 aa3c e5b3 483f c232 6b3e
00000050: 36c1 b1be
-0.09503712 0.14023662 0.107178725 -0.08427768 0.24857971 -0.14886743 0.2789737 0.02522756
-0.34057733 -0.35302693 -0.5486293 -0.009528837 -0.065298826 0.40601096 0.004393491 -0.35171643
0.43315932 0.020779077 0.783995 0.22968581 -0.3471772

bias f4 [3]
00000000: 60ee 59bf d81d c8bd b0c7 d9be
-0.85129356 -0.09771317 -0.42535162

weight f4 [7, 9]
00000000: 491d a7be 052d 7bbd 52c6 443e a852 943f
00000010: 4585 853f 2562 2abe c446 1abe ff4a 1fbf
00000020: 88f6 a53e c4c3 3dbe aff7 83bd b136 c6be
00000030: 9b15 203e 8994 afbe adb3 c7be 5c8d 1bbf
00000040: 65aa 843f 8410 63bf dd36 4e3e 410f 283e
00000050: 40d7 3b3f d95c 08be fb52 843e e212 26be
00000060: 02f8 253f 6a04 8e3e 9db1 c13e f6c4 73bf
00000070: 18ff 9e3e 2e97 d6be 1299 823f 5003 f7be
00000080: f727 bc3f 8c08 82be 2356 c63c 934b 8fbe
00000090: 19f0 47bf b238 6c3e 1322 cdbe 64be 8bbe
000000a0: ae24 42bd 9ae9 26bf 2d29 00bf 9c54 b93e
000000b0: 70ee b4be 9aea 49bf c855 fabe a159 b0be
000000c0: 2311 793e c994 de3d 187d f83e 9c78 493f
000000d0: a1f7 39bd 60ac ba3f 2735 babd fecc 2fbe
000000e0: aa79 743f 42f9 dbbe 69e6 703c 27c2 f2be
000000f0: d8de 6f3e f227 7bbf 06bc 683f
-0.3263953 -0.06132223 0.19216278 1.1587725 1.0431296 -0.16639002 -0.15066057 -0.6222381
0.3241465 -0.1853171 -0.06443726 -0.387136 0.15633242 -0.3429301 -0.3900427 -0.6076257
1.03645 -0.88697076 0.20138116 0.16412069 0.7337532 -0.13316669 0.2584456 -0.1621814
0.64831555 0.27737743 0.3783082 -0.95222414 0.31053996 -0.41912216 1.0202963 -0.48244715
1.4699696 -0.25397146 0.024210995 -0.27987346 -0.78100735 0.23068503 -0.4006506 -0.27293694
-0.04739826 -0.652002 -0.5006283 0.36197364 -0.35338163 -0.788736 -0.4889357 -0.3444338
0.24322943 0.10868222 0.4853294 0.7869966 -0.045402173 1.4583855 -0.09092169 -0.17168042
0.95498145 -0.42963606 0.014703372 -0.4741375 0.23424852 -0.98107827 0.909119

bias f4 [7]
00000000: 0977 87bf 5896 d23e d979 b7bf a56c 6d3e
00000010: 8f28 6e3e f551 ba3f 14aa ae3f
-1.0583202 0.41130328 -1.433406 0.23185976 0.2325766 1.4556261 1.3645654

weight f4 [7, 7]
00000000: 7424 883e 088a 3cbf e751 27bf 2499 683e
00000010: 6809 8a3c 6df4 b13e 6b57 633f f65f adbe
00000020: da1c abbd c09f 4cbd 3de6 1abe 090c 43bd
00000030: b93f 39be eb7d 57be b2cc f13c 34c1 b2be
00000040: a81c 8bbe 2c6c 06bf 2ee2 f23b 234b 7ebe
00000050: 16ff 84be 7e8f e93e e73f 9ebf 16fd 50bf
00000060: 9dd1 3f3e 665c a7bf 7d10 163f 7d86 433f
00000070: 4bca 32bf e086 f63e 2fe1 523e 8a49 7abe
00000080: 1716 4d3e 69da 26bc 7c19 16bf 8bee 2fbe
00000090: 4d3b 023f ceb3 04bf 6ec1 1cbf caf1 0e3f
000000a0: 8864 94bf 1f9e a0bf 5396 1fbe 5626 0ebf
000000b0: f621 11be 7278 07bf 1680 70be fa06 f2be
000000c0: 8554 89be
0.26590312 -0.7364812 -0.6535935 0.22714669 0.016850188 0.34756795 0.88805264 -0.33862275
-0.083551124 -0.049957037 -0.15126891 -0.0476189 -0.18090715 -0.21044128 0.029516552 -0.34913027
-0.271703 -0.5250881 0.0074122166 -0.2483335 -0.25975865 0.45617288 -1.2363251 -0.8163618
0.18732305 -1.3075073 0.5861891 0.7637709 -0.69839925 0.48149776 0.20593713 -0.24442115
0.20027958 -0.010183909 -0.58632636 -0.1718084 0.50871736 -0.5183686 -0.6123265 0.5583769
-1.159318 -1.2548255 -0.15584688 -0.55527246 -0.14173111 -0.5291816 -0.23486361 -0.47270948
-0.26822296

bias f4 [7]
00000000: 2d6b 9a3f d246 a5be 32a2 55be 5338 b23e
00000010: d260 a53e 1daf de3e e01c 9dbd
1.2063957 -0.32280594 -0.20862654 0.34808597 0.3230043 0.43492976 -0.07671523

weight f4 [1, 7]
00000000: c1c0 fcbe 8b08 f73d 1c85 f5bd 3bd1 dfbe
00000010: 89c8 763e 22aa 1f3f c7af 013e
-0.4936581 0.12062176 -0.11988279 -0.43714318 0.24099936 0.6236898 0.1266471

E f4 [428, 3]
00000000: eda5 a4bf 40f7 7d40 26f5 dbbf 7962 d8bf
00000010: 9ca0 7e40 04be e9bf 90b2 06bf 2687 f3be
00000020: 3740 d23f f18e 5f3f 6ac3 f93e e643 a33e
00000030: 2241 0bc0 ec72 6d40 66b4 e7bf 90b2 06bf
00000040: 2687 f3be 3740 d23f 1cfe 0bc0 b259 8d40
00000050: f04c 0cc0 4d94 d1bf 3bb1 1940 50ec 55bf
00000060: 7ffe 1a3f 4656 c73e 94ed 3f40 90b2 06bf
00000070: 2687 f3be 3740 d23f 90b2 06bf 2687 f3be
00000080: 3740 d23f 5e97 18c0 5a81 8640 b3bd 09c0
00000090: b48f 69bf 6b37 063f 4002 483f 7409 1dc0
000000a0: 6659 9440 da48 17c0 7409 1dc0 6659 9440
000000b0: da48 17c0 e6ed 16c0 d435 8940 d062 0fc0
000000c0: 893f 443f 90e6 3a3d 6c1b e73e ab1e fdbf
000000d0: 10ec 5b40 125d dabf 6879 143f cf78 b1be
000000e0: 6845 8c3f 4839 b1bf a08e 6440 8406 d2bf
000000f0: 5026 1d3f d9f4 213f 8d31 6840 1c22 09c0
00000100: b299 6840 cca5 e1bf 42b1 1d3f f7a3 313f
00000110: 1655 7240 90b2 06bf 2687 f3be 3740 d23f
00000120: 7599 95bf 0212 5b40 c83b bdbf 39de b4bf
00000130: 603f 6540 3c06 cebf 0e5e 22c0 a729 9b40
00000140: 17fd 1ec0 90b2 06bf 2687 f3be 3740 d23f
00000150: aa6d 22bf acd9 47be c553 b33f 9993 d6bf
00000160: 1e11 6a40 88cb ddbf 308d 213f 92f3 b8be
00000170: 3946 103f 5017 09c0 14f4 5e40 782f dfbf
00000180: 66af 1f3f 6d39 6b3f 4ac7 8b40 7d6c e8bf
00000190: 0484 7440 16c3 ebbf 36e7 4cbf 8804 c03e
000001a0: 6057 9bbd 3c0f 1c3f 6174 023f 57d4 5340
000001b0: 90b2 06bf 2687 f3be 3740 d23f 90b2 06bf
000001c0: 2687 f3be 3740 d23f 73f8 f8bf 1be5 3940
000001d0: dcc5 bfbf 67dd 1a3f 90dd bf3e 5a83 3d40
000001e0: 697a 1f3f 393e 653f 60d8 8940 2845 1ac0
000001f0: 4807 8f40 e693 14c0 fe71 1ec0 429e 9340
00000200: e91a 18c0 90b2 06bf 2687 f3be 3740 d23f
00000210: 0321 c0bf fac6 5740 4cac c7bf cc62 1f3f
00000220: d793 623f d0fb 8840 90b2 06bf 2687 f3be
00000230: 3740 d23f 90b2 06bf 2687 f3be 3740 d23f
00000240: 2734 93bf 1a22 8c3f d068 bd3e e146 f3bf
00000250: f90c 3f40 b5f7 94bf 90b2 06bf 2687 f3be
00000260: 3740 d23f 6d89 1f3f 21f0 663f 9f64 8a40
00000270: c226 0ec0 1458 6340 9cf0 eebf 7908 b9bf
00000280: 88f7 ed3f 60da 92be 0803 a8bf 800c 6e40
00000290: a236 d4bf 3c50 1e3f eb95 433f d0ee 7d40
000002a0: 90b2 06bf 2687 f3be 3740 d23f 90b2 06bf
000002b0: 2687 f3be 3740 d23f 9564 cfbf 2ab7 6440
000002c0: 48ad d6bf 90b2 06bf 2687 f3be 3740 d23f
000002d0: 5f44 223f 208b fdbc 570c c03f b163 d9bf
000002e0: d49e 6440 aa04 dabf 88e3 7d3f c74b 403f
000002f0: 60eb b33e dc15 dfbe 7cf9 3340 7bda 82bf
00000300: da9f 1a3f 48f8 b13e 9005 3940 ac09 1e3f
00000310: e59e 3b3f b4c8 7840 a112 f4bf 78de 6740
00000320: c06c e6bf f19e ebbf e4ab 0b40 2c93 94bf
00000330: dda5 1b3f e81e ed3e f923 4c40 cec7 1b3f
00000340: 8ec8 f43e 059e 4e40 324b 1c3f 0539 093f
00000350: 6534 5840 cdb0 febf 01c0 4f40 4298 b8bf
00000360: 8271 10c0 04bb 6c40 0a1b f8bf 90b2 06bf
00000370: 2687 f3be 3740 d23f 8854 0b3f 4f04 713f
00000380: 60e6 663d f376 203f eadf 803f 1c0f 9340
00000390: 26f7 90bf 825d 0c40 d00f 74bf 3510 aebf
000003a0: e238 4640 e2ee b4bf 9d3f 1c3f 67ea 073f
000003b0: 155c 5740 cdaf ffbf 1a07 7140 4835 f1bf
000003c0: 8472 05c0 d6d7 4940 445c d2bf 90b2 06bf
000003d0: 2687 f3be 3740 d23f bbb7 b2bf c4b2 6140
000003e0: 4491 cabf fe80 78bf 50bd 4d40 0e83 abbf
000003f0: 90b2 06bf 2687 f3be 3740 d23f 90b2 06bf
-1.2863137 3.968216 -1.7184188 -1.6905051 3.9785528 -1.8261113 -0.52616215 -0.47564048
1.6425847 0.87327486 0.48781902 0.3188774 -2.1758504 3.7101393 -1.8101928 -0.52616215
-0.47564048 1.6425847 -2.1873846 4.417199 -2.192196 -1.6373383 2.4014423 -0.8356371
0.6054458 0.3893301 2.9988756 -0.52616215 -0.47564048 1.6425847 -0.52616215 -0.47564048
1.6425847 -2.3842387 4.20329 -2.1522033 -0.912349 0.5242831 0.78128433 -2.453702
4.635913 -2.3638215 -2.453702 4.635913 -2.3638215 -2.3582702 4.287821 -2.240406
0.76659447 0.045630038 0.4513811 -1.9774984 3.436283 -1.7059653 0.5799775 -0.34662482
1.0958681 -1.3845606 3.5712051 -1.6408238 0.61386585 0.6326423 3.6280243 -2.1427069
3.6343808 -1.7628722 0.615986 0.69390815 3.7864432 -0.52616215 -0.47564048 1.6425847
-1.1687456 3.422974 -1.4783869 -1.4130317 3.581993 -1.6095653 -2.5369906 4.8488345
-2.4841974 -0.52616215 -0.47564048 1.6425847 -0.63448584 -0.19516629 1.400994 -1.6763793
3.6572948 -1.7327738 0.6310606 -0.3612333 0.5635715 -2.142048 3.4836473 -1.7436361
0.6237701 0.918845 4.3680773 -1.8158108 3.8205576 -1.841891 -0.800403 0.37503457
-0.07585025 0.60960746 0.5095883 3.3098352 -0.52616215 -0.47564048 1.6425847 -0.52616215
-0.47564048 1.6425847 -1.9450821 2.9046085 -1.4982257 0.60494083 0.37473726 2.961142
0.6229616 0.8954807 4.307663 -2.410471 4.469639 -2.321527 -2.4757075 4.6130686
-2.3766425 -0.52616215 -0.47564048 1.6425847 -1.5010074 3.3715196 -1.5599456 0.6226013
0.88506836 4.280739 -0.52616215 -0.47564048 1.6425847 -0.52616215 -0.47564048 1.6425847
-1.1500291 1.0947907 0.36994028 -1.9006006 2.9851668 -1.1638094 -0.52616215 -0.47564048
1.6425847 0.6231907 0.9021016 4.324783 -2.2211156 3.5522509 -1.8667178 -1.4455711
1.8591166 -0.28682232 -1.3125925 3.719513 -1.6579173 0.6184118 0.7640063 3.967701
-0.52616215 -0.47564048 1.6425847 -0.52616215 -0.47564048 1.6425847 -1.620257 3.5736794
-1.6771631 -0.52616215 -0.47564048 1.6425847 0.63385576 -0.030950129 1.5003766 -1.6983548
3.572194 -1.7032673 0.9917531 0.7511563 0.35140514 -0.43571365 2.8121023 -1.0222925
0.60400164 0.34759736 2.8909645 0.6173351 0.7328933 3.88725 -1.9068185 3.6229534
-1.8001938 -1.840788 2.1823664 -1.1607413 0.6079996 0.46312642 3.1896956 0.6085175
0.4780926 3.2283947 0.6105224 0.5360263 3.378198 -1.9897705 3.246094 -1.4421465
-2.256928 3.6989145 -1.9383252 -0.52616215 -0.47564048 1.6425847 0.5442586 0.941472
0.056372046 0.626815 1.0068333 4.5955944 -1.1325424 2.1932073 -0.9533663 -1.3598696
3.0972219 -1.4135401 0.61034566 0.53092045 3.3649952 -1.9975525 3.7660584 -1.8844385
-2.0851145 3.1537986 -1.6434407 -0.52616215 -0.47564048 1.6425847 -1.396232 3.526536
-1.5825582 -0.97071826 3.2146797 -1.339937 -0.52616215 -0.47564048 1.6425847 -0.52616215
