models/optimization/IN_1000_4_0.0032082913564855597_0.6949314293422105_6_1_state_dict.pt (torch, 6801 bytes, 17 tensors)

R1.layers.0.weight f4 [4, 9]
-0.062146854 0.26920733 -0.57565 0.07453922 -0.15276526 0.5506073 0.27389833 0.7413039
-8.923069 0.067443796 -0.10184817 0.7808926 -0.09101052 0.08833395 -0.72470117 -0.003176487
-0.42291573 4.2280116 0.33211848 0.30167174 0.5849263 -0.2895584 -0.1344813 -0.64593095
-0.26917985 0.72032744 4.099605 -0.09303498 0.018965619 -0.84713936 0.07881614 -0.020558082
0.8747807 0.17383814 -0.35532328 -6.861046
00000000: b38d 7ebd 8bd5 893e cc5d 13bf 05a8 983d
00000010: 7f6e 1cbe 9af4 0c3f 673c 8c3e 18c6 3d3f
00000020: e4c4 0ec1 f91f 8a3d c695 d0bd 94e8 473f
00000030: b963 babd 6ee8 b43d 0486 39bf 9c2c 50bb
00000040: 6988 d8be df4b 8740 6f0b aa3e b874 9a3e
00000050: bbbd 153f 0041 94be 77b5 09be bb5b 25bf
00000060: f1d1 89be 6167 383f f72f 8340 2089 bebd
00000070: c95d 9b3c 20de 58bf 5b6a a13d 6c69 a8bc
00000080: a1f1 5f3f a002 323e efec b5be b08d dbc0

R1.layers.0.bias f4 [4]
0.5584489 0.65380466 0.002343484 -0.03752036
00000000: 82f6 0e3f be5f 273f 2395 193b f3ae 19bd

R1.layers.2.weight f4 [4, 4]
-0.28452587 -0.43181196 -0.19840586 -0.033046115 0.9884536 -0.103628874 0.16794017 -0.5509135
0.8056204 0.80251986 0.2220334 -2.806411 -1.0958061 0.60569423 0.78204155 -0.3522074
00000000: 60ad 91be 7516 ddbe e82a 4bbe 5d5b 07bd
00000010: 4c0b 7d3f 603b d4bd 82f8 2b3e ab08 0dbf
00000020: 233d 4e3f f171 4d3f b95c 633e 3d9c 33c0
00000030: 6043 8cbf c70e 1b3f e033 483f 8754 b4be

R1.layers.2.bias f4 [4]
0.1991853 0.15483975 0.36927393 0.21032412
00000000: 3bf7 4b3e 508e 1e3e 7911 bd3e 355f 573e

R1.layers.4.weight f4 [3, 4]
0.32016057 0.53281367 0.7890217 0.02740942 -0.021667842 0.5797071 -0.8121222 1.263746
-0.3492963 0.62328076 -0.20966181 0.3431808
00000000: 16ec a33e 7a66 083f 53fd 493f b889 e03c
00000010: c280 b1bc af67 143f 3ee7 4fbf 6ec2 a13f
00000020: f7d6 b2be 548f 1f3f 96b1 56be 65b5 af3e

R1.layers.4.bias f4 [3]
0.004485524 0.056599498 -0.26951894
00000000: 4dfb 923b e0d4 673d 63fe 89be

O.layers.0.weight f4 [4, 6]
-0.1118968 0.52460515 -0.13616154 -0.23695558 0.4015908 0.028982569 0.1251119 -0.33869675
-0.02512225 -0.36361235 -0.29209325 -0.34667698 0.026862007 -0.36928055 0.058242 0.72208655
-0.81337094 0.043336686 0.8083097 -0.09071173 -0.050553784 0.23645385 -0.26847193 -0.09538431
00000000: 262a e5bd 864c 063f ee6d 0bbe 7ca4 72be
00000010: 4f9d cd3e da6c ed3c 551d 003e a969 adbe
00000020: 2dcd cdbc 662b babe 3f8d 95be a57f b1be
00000030: b60d dc3c 5712 bdbe 2a8f 6e3d aada 383f
00000040: 1439 50bf cf81 313d 62ed 4e3f 12c7 b9bd
00000050: 7c11 4fbd f520 723e 2775 89be d958 c3bd

O.layers.0.bias f4 [4]
-1.1730156 0.25833067 -0.38228568 0.33805773
00000000: 6025 96bf eb43 843e f3ba c3be e715 ad3e

O.layers.2.weight f4 [4, 4]
0.60452574 0.030743929 0.108493865 0.021149054 0.27628794 -0.21362542 -0.49863657 0.21167423
0.1284917 -0.27423567 0.8800522 -0.054306053 -0.04135146 0.30635116 -0.5747609 0.3514583
00000000: 33c2 1a3f b1da fb3c 0832 de3d c840 ad3c
00000010: 9d75 8d3e 9fc0 5abe 4b4d ffbe 21c1 583e
00000020: 5493 033e 9e68 8cbe 1a4b 613f 0670 5ebd
00000030: 2660 29bd 0fda 9c3e 8823 13bf 58f2 b33e

O.layers.2.bias f4 [4]
-0.3648732 0.28676268 -0.73107207 -0.25144863
00000000: a9d0 babe 8fd2 923e 8a27 3bbf e0bd 80be

O.layers.4.weight f4 [3, 4]
-0.77955604 0.057780422 0.45122516 -0.32646084 -0.11151399 -0.8370864 0.4018187 -0.12028091
0.42507327 0.16949786 0.71480685 -0.0870652
00000000: fc90 47bf 2aab 6c3d fc06 e73e e025 a7be
00000010: 7261 e4bd 4b4b 56bf 2ebb cd3e d655 f6bd
00000020: 34a3 d93e d990 2d3e 95fd 363f 3d4f b2bd

O.layers.4.bias f4 [3]
-0.33746088 0.58960545 -0.56006956
00000000: acc7 acbe 62f0 163f b860 0fbf

R2.layers.0.weight f4 [4, 9]
-0.22610901 0.31538334 -0.18413515 -0.20341258 0.09820107 -0.25169963 -0.27280894 -1.8807428
-1.2446123 0.343307 -0.1271164 -0.51379675 -0.32992753 0.6980692 -0.05710292 -0.2900152
0.7928823 0.08294617 0.65613645 0.5981977 -0.40951234 -0.4546571 0.48990613 -0.5408219
-0.51968265 0.78768253 0.26434517 -0.5134656 0.094028644 -0.74480104 -0.38886136 -0.71775645
-0.76116866 -0.096326455 -0.95919204 0.006441583
00000000: 1f89 67be ed79 a13e ed8d 3cbe 634b 50be
00000010: a51d c93d c6de 80be 9dad 8bbe 2ebc f0bf
00000020: 754f 9fbf efc5 af3e cd2a 02be 2f88 03bf
00000030: 43ec a8be aab4 323f c0e4 69bd df7c 94be
00000040: 56fa 4a3f aedf a93d 8ff8 273f 7c23 193f
00000050: 9aab d1be d1c8 e8be fad4 fa3e 4e73 0abf
00000060: ec09 05bf 90a5 493f 4058 873e 7b72 03bf
00000070: 1792 c03d 48ab 3ebf d618 c7be e3be 37bf
00000080: f3db 42bf ce46 c5bd 9c8d 75bf ea13 d33b

R2.layers.0.bias f4 [4]
0.37708822 0.66333205 0.5614714 0.20308633
00000000: b511 c13e 21d0 293f 97bc 0f3f ddf5 4f3e

R2.layers.2.weight f4 [4, 4]
0.8855581 -0.17817956 0.44748443 0.7419921 -0.45875645 0.75853837 1.3715762 -0.36756116
0.95952445 -0.5888002 -0.009697233 0.8990725 -0.8610533 -0.4771613 0.4906563 -0.66720796
00000000: f0b3 623f b474 36be ae1c e53e 32f3 3d3f
00000010: 20e2 eabe 922f 423f cf8f af3f fa30 bcbe
00000020: 65a3 753f 9cbb 16bf 25e1 1ebc 9e29 663f
00000030: fd6d 5cbf 7c4e f4be 4d37 fb3e 24ce 2abf

R2.layers.2.bias f4 [4]
-0.43692085 0.74271977 0.8589244 -0.57469
00000000: 17b4 dfbe e222 3e3f 78e2 5b3f e21e 13bf

R2.layers.4.weight f4 [1, 4]
0.8756677 -1.0799437 1.0673335 1.0113114
00000000: c22b 603f 983b 8abf 629e 883f a772 813f
