models/optimization/IN_100_2_0.021699440877945633_0.8945971302079272_3_10.pt (torch, 39258 bytes, 18 tensors)

weight f4 [2, 9]
-0.32937193 -0.12711017 -0.71643156 0.34668466 0.10101063 0.68666655 0.2543967 -0.031085584
-4.521669 0.5911293 0.1284853 0.60437113 -0.60276985 -0.15220167 -0.61206746 -0.4942795
-0.33792984 4.7274013
00000000: 70a3 a8be 2b29 02be 0f68 37bf a780 b13e
00000010: a9de ce3d 61c9 2f3f 4940 823e 32a7 febc
00000020: 83b1 90c0 4054 173f a791 033e 11b8 1a3f
00000030: 204f 1abf c1da 1bbe 74b0 1cbf 3412 fdbe
00000040: 2405 adbe df46 9740

bias f4 [2]
0.04511572 0.021202983
00000000: 43cb 383d e1b1 ad3c

weight f4 [2, 2]
1.236544 1.728117 -1.5829085 -1.0104346
00000000: 1347 9e3f f032 dd3f bf9c cabf ec55 81bf

bias f4 [2]
0.10698462 0.9413312
00000000: c11a db3d 15fb 703f

weight f4 [3, 2]
1.1109256 -1.5474849 -1.8079637 0.650543 1.109836 -1.6131661
00000000: cf32 8e3f fc13 c6bf 5b6b e7bf fc89 263f
00000010: 1b0f 8e3f 3a7c cebf

bias f4 [3]
-0.7875101 -0.26216176 -0.7665548
00000000: 439a 49bf 113a 86be ef3c 44bf

weight f4 [2, 6]
0.053695604 -0.25456277 0.3805994 -0.12762928 0.23872648 0.15320797 -0.1306948 0.23686078
0.33752036 -0.3242813 -0.26431847 -0.3490291
00000000: ecef 5b3d 0d56 82be eddd c23e 40b1 02be
00000010: b774 743e 8de2 1c3e dcd4 05be a28b 723e
00000020: 78cf ac3e 3308 a6be c054 87be f1b3 b2be

bias f4 [2]
-0.34427142 -0.29176927
00000000: 5844 b0be c862 95be

weight f4 [2, 2]
-0.44916493 -0.37390938 -0.07235206 -0.30509505
00000000: f2f8 e5be 0d71 bfbe 512d 94bd 6b35 9cbe

bias f4 [2]
-0.051508337 -0.42158732
00000000: 68fa 52bd 4bda d7be

weight f4 [3, 2]
-0.27038103 -0.64550865 0.48665878 0.5702392 -0.27499342 -0.3289044
00000000: 626f 8abe 0e40 25bf 572b f93e 32fb 113f
00000010: f0cb 8cbe 2866 a8be

bias f4 [3]
0.12811106 0.42719728 -0.4810949
00000000: 8c2f 033e 9ab9 da3e 1252 f6be

weight f4 [2, 9]
-0.18344939 -0.043016095 -0.3903608 0.41119054 0.4845906 -0.27913138 -1.0323105 1.0895528
-1.1032444 -0.0023994057 -0.15620466 0.20423192 -0.27399117 -0.3765751 0.081180856 0.24049786
0.124435656 -0.03045861
00000000: 28da 3bbe a531 30bd 5fdd c7be 9187 d23e
00000010: 421c f83e 4fea 8ebe c022 84bf 7776 8b3f
00000020: 1d37 8dbf 593f 1dbb 1df4 1fbe 2c22 513e
00000030: 9248 8cbe 74ce c0be 2642 a63d 1245 763e
00000040: 1fd8 fe3d 5684 f9bc

bias f4 [2]
0.34767964 0.004637301
00000000: 1103 b23e 80f4 973b

weight f4 [2, 2]
0.9474249 0.11913139 -0.15497027 0.054640044
00000000: 708a 723f 28fb f33d 87b0 1ebe 3dce 5f3d

bias f4 [2]
-0.2763436 -0.34651494
00000000: e97c 8dbe 686a b1be

weight f4 [1, 2]
1.141817 0.10120732
00000000: 0f27 923f c945 cf3d

E f4 [2314, 3]
-2.097623 0.126685 -2.1380987 -2.0282252 0.05134499 -2.0674162 -2.125354 0.15679032
-2.166343 -2.125354 0.15679032 -2.166343 -0.56377226 -1.1769366 -0.56284666 9.025018
-16.231455 9.036349 -1.5055714 -0.5160599 -1.5350873 5.9005547 -11.146581 5.9149504
-2.125354 0.15679032 -2.166343 4.7764454 -9.317161 4.7919436 4.460571 -8.803094
4.4763784 -1.9917271 0.011721939 -2.0302424 -2.125354 0.15679032 -2.166343 2.492013
-5.599386 2.5097518 2.8451085 -6.1740274 2.8625011 -2.125354 0.15679032 -2.166343
0.4079277 -2.593398 0.41383344 -2.125354 0.15679032 -2.166343 4.707488 -9.204937
4.723054 -1.2321446 -0.81289816 -1.2565992 -2.125354 0.15679032 -2.166343 9.581547
-17.13717 9.592332 -1.355901 -0.6785455 -1.3826462 -1.9029982 -0.03312084 -1.938019
-2.088264 0.11652449 -2.1285663 4.0510187 -8.136573 4.067228 2.7530966 -6.0242834
2.7705793 3.2065938 -6.762323 3.2236319 -2.0740798 0.11299762 -2.1136925 -2.125354
0.15679032 -2.166343 0.4405399 -2.2607386 0.46029085 -2.125354 0.15679032 -2.166343
-2.125354 0.15679032 -2.166343 6.471842 -12.076315 6.485677 2.9342265 -6.3190618
2.9515316 -2.125354 0.15679032 -2.166343 5.828905 -11.029975 5.843371 -2.125354
0.15679032 -2.166343 -2.125354 0.15679032 -2.166343 4.229002 -8.42623 4.245037
9.756468 -17.421844 9.767082 -0.7752766 -1.3088846 -0.79127365 3.0716357 -6.542687
3.0888062 -2.125354 0.15679032 -2.166343 2.6925964 -5.9258237 2.7101386 3.7068331
-7.576432 3.7233806 -1.9531653 -0.030141681 -1.9909668 -1.1754663 -0.8744292 -1.1988716
-2.125354 0.15679032 -2.166343 -2.0510995 0.076177984 -2.090714 -2.125354 0.15679032
-2.166343 7.0037227 -12.941918 7.017036 7.6455307 -13.986423 7.6582146 4.114273
-8.239515 4.1304207 -2.125354 0.15679032 -2.166343 -2.125354 0.15679032 -2.166343
-2.125354 0.15679032 -2.166343 -2.125354 0.15679032 -2.166343 -2.0095508 0.031071633
-2.048396 -1.3105538 -0.5391202 -1.3296726 -1.0477345 -0.7635908 -1.059799 -2.125354
0.15679032 -2.166343 -2.125354 0.15679032 -2.166343 -2.125354 0.15679032 -2.166343
-1.0490868 -0.7624357 -1.0611875 -1.4043779 -0.4589862 -1.4260151 4.2085376 -8.392925
4.2245927 -2.0203958 0.042845517 -2.059442 2.943066 -6.333447 2.9603622 4.315908
-8.567664 4.331858 2.4294407 -5.4975533 2.4472408 -2.125354 0.15679032 -2.166343
-2.125354 0.15679032 -2.166343 -1.1117954 -0.9435519 -1.134022 -2.125354 0.15679032
-2.166343 -2.0870204 0.12405005 -2.1269805 -1.957989 0.01384607 -1.9944859 2.6966949
-5.932493 2.714233 4.0164857 -8.080373 4.032729 -1.2829156 -0.7577801 -1.3083098
-2.0069582 0.02825731 -2.0457556 -2.125354 0.15679032 -2.166343 2.623994 -5.814177
2.6416035 3.0787132 -6.554205 3.0958765 4.075486 -8.176393 4.091672 -2.1055298
00000000: 753f 06c0 b6b9 013e 9cd6 08c0 71ce 01c0
00000010: 204f 523d 8c50 04c0 cd05 08c0 a48d 203e
00000020: 5da5 0ac0 cd05 08c0 a48d 203e 5da5 0ac0
00000030: 6153 10bf dca5 96bf b816 10bf 7966 1041
00000040: 05da 81c1 e394 1041 90b6 c0bf 801c 04bf
00000050: be7d c4bf 58d1 bc40 6558 32c1 4647 bd40
00000060: cd05 08c0 a48d 203e 5da5 0ac0 a4d8 9840
00000070: 1713 15c1 9a57 9940 ffbc 8e40 79d9 0cc1
00000080: 7e3e 8f40 eaf0 febf 600d 403c 7eef 01c0
00000090: cd05 08c0 a48d 203e 5da5 0ac0 247d 1f40
000000a0: 2c2e b3c0 c69f 2040 4216 3640 a291 c5c0
000000b0: 3833 3740 cd05 08c0 a48d 203e 5da5 0ac0
000000c0: e6db d03e 3cfa 25c0 fae1 d33e cd05 08c0
000000d0: a48d 203e 5da5 0ac0 bea3 9640 6c47 13c1
000000e0: 4223 9740 eab6 9dbf 181a 50bf 3ed8 a0bf
000000f0: cd05 08c0 a48d 203e 5da5 0ac0 044e 1941
00000100: ed18 89c1 317a 1941 2a8e adbf 28b5 2dbf
00000110: 8dfa b0bf 7295 f3bf b8a9 07bd 0211 f8bf
00000120: 1ea6 05c0 64a4 ee3d 6e3a 08c0 f2a1 8140
00000130: 672f 02c1 bb26 8240 bc32 3040 eec6 c0c0
00000140: 2c51 3140 d538 4d40 f364 d8c0 fc4f 4e40
00000150: b9bd 04c0 4c6b e73d bd46 07c0 cd05 08c0
00000160: a48d 203e 5da5 0ac0 728e e13e f1af 10c0
00000170: 3eab eb3e cd05 08c0 a48d 203e 5da5 0ac0
00000180: cd05 08c0 a48d 203e 5da5 0ac0 5419 cf40
00000190: 9638 41c1 aa8a cf40 5eca 3b40 c135 cac0
000001a0: e5e5 3c40 cd05 08c0 a48d 203e 5da5 0ac0
000001b0: 6486 ba40 c77a 30c1 e5fc ba40 cd05 08c0
000001c0: a48d 203e 5da5 0ac0 cd05 08c0 a48d 203e
000001d0: 5da5 0ac0 fc53 8740 d7d1 06c1 58d7 8740
000001e0: 7e1a 1c41 f05f 8bc1 f845 1c41 8778 46bf
000001f0: 8889 a7bf e990 4abf ae95 4440 b15d d1c0
00000200: 00af 4540 cd05 08c0 a48d 203e 5da5 0ac0
00000210: 8053 2c40 59a0 bdc0 e972 2d40 c13c 6d40
00000220: 2272 f2c0 de4b 6e40 5201 fabf b0eb f6bc
00000230: 00d8 febf ae75 96bf 98da 5fbf a074 99bf
00000240: cd05 08c0 a48d 203e 5da5 0ac0 3745 03c0
00000250: 3403 9c3d 42ce 05c0 cd05 08c0 a48d 203e
00000260: 5da5 0ac0 7f1e e040 1912 4fc1 8f8b e040
00000270: 30a8 f440 63c8 5fc1 1810 f540 20a8 8340
00000280: 0ed5 03c1 682c 8440 cd05 08c0 a48d 203e
00000290: 5da5 0ac0 cd05 08c0 a48d 203e 5da5 0ac0
000002a0: cd05 08c0 a48d 203e 5da5 0ac0 cd05 08c0
000002b0: a48d 203e 5da5 0ac0 7b9c 00c0 f089 fe3c
000002c0: ec18 03c0 3ac0 a7bf c803 0abf b632 aabf
000002d0: 2a1c 86bf b07a 43bf 7ea7 87bf cd05 08c0
000002e0: a48d 203e 5da5 0ac0 cd05 08c0 a48d 203e
000002f0: 5da5 0ac0 cd05 08c0 a48d 203e 5da5 0ac0
00000300: 7a48 86bf fc2e 43bf fed4 87bf a8c2 b3bf
00000310: 3d00 ebbe aa87 b6bf 57ac 8640 6c49 06c1
00000320: dd2f 8740 2a4e 01c0 c87e 2f3d e6cd 03c0
00000330: 315b 3c40 99ab cac0 9376 3d40 eb1b 8a40
00000340: 2715 09c1 959e 8a40 f57b 1b40 f5eb afc0
00000350: 989f 1c40 cd05 08c0 a48d 203e 5da5 0ac0
00000360: cd05 08c0 a48d 203e 5da5 0ac0 504f 8ebf
00000370: 9e8c 71bf a227 91bf cd05 08c0 a48d 203e
00000380: 5da5 0ac0 be91 05c0 f40d fe3d 7320 08c0
00000390: 629f fabf a0da 623c 504b ffbf a696 2c40
000003a0: fcd6 bdc0 feb5 2d40 0d87 8040 3549 01c1
000003b0: 1e0c 8140 9436 a4bf e0fd 41bf b276 a7bf
000003c0: 0172 00c0 e07b e73c a9ed 02c0 cd05 08c0
000003d0: a48d 203e 5da5 0ac0 85ef 2740 bd0d bac0
000003e0: 0810 2940 a309 4540 0cbc d1c0 d722 4640
000003f0: 626a 8240 81d2 02c1 faee 8240 00c1 06c0
