models/optimization/IN_100_7_0.00021472835599418405_0.8865550218620517_1_1.pt (torch, 16026 bytes, 18 tensors)

weight f4 [7, 9]
0	0xbe8c0757	-0.2734935
1	0xbe9c72f2	-0.30556446
2	0x3e8f9686	0.28044528
3	0xbc9400bc	-0.018066756
4	0x3d0fa4bb	0.03506921
5	0xbe860017	-0.26171944
6	0x3dbbe321	0.09174181
7	0xbde8952b	-0.113565765
8	0xbe0a5745	-0.13509853
9	0xbe2029b5	-0.1564091
10	0x3ed5ff2a	0.41796237
11	0x3db84c16	0.08998887
12	0xbe16b05a	-0.1471571
13	0x3ec7dd1e	0.39035887
14	0x3da9205e	0.08258127
15	0xbe24792f	-0.16061853
16	0xbe657899	-0.22409286
17	0x3e0ddb27	0.13853131
18	0xbe578a98	-0.21048963
19	0xbd8debe7	-0.069297604
20	0xbec76a2b	-0.38948187
21	0x3e644436	0.22291645
22	0x3da3db65	0.080008306
23	0x3eb7c9f9	0.3589628
24	0xbf00cf47	-0.5031628
25	0xbd9ba667	-0.07600098
26	0xbf2d5dbe	-0.67721164
27	0xbca647c3	-0.02029789
28	0x3dc547b6	0.096328184
29	0x3eedd250	0.46449518
30	0xbd0e3d2c	-0.034726307
31	0xbd5393bd	-0.051654566
32	0xbec07ca9	-0.37595108
33	0x3f1600d2	0.58595
34	0x3d121515	0.035664637
35	0x3f188854	0.5958302
36	0x3e872bb5	0.26400533
37	0x3e851a56	0.25996655
38	0xbcec3568	-0.02883406
39	0xbbb55f5a	-0.0055350484
40	0xbe9c3417	-0.3050849
41	0xbef2e896	-0.47443074
42	0x3f24f08c	0.64429545
43	0xbecfc40a	-0.40579253
44	0x3f495972	0.7865211
45	0x3e867014	0.26257384
46	0xbe6bed14	-0.23039657
47	0x3ca4d13b	0.0201193
48	0xbe0ac3a2	-0.1355119
49	0xbe91076e	-0.2832598
50	0xbe78d816	-0.2430118
51	0x3e28743d	0.16450591
52	0x3ea9ba9b	0.3315018
53	0xbe8d9a05	-0.2765657
54	0xbeec611e	-0.46167845
55	0xbdc4eea8	-0.096158326
56	0xbe307485	-0.17231949
57	0x3ed2862c	0.4111799
58	0x3d942396	0.0723335
59	0x3e93048f	0.28714415
60	0xbecbb505	-0.39786544
61	0x3e8e3901	0.27777866
62	0xbf44efc2	-0.7692834

bias f4 [7]
0	0xbeb1ca62	-0.34724718
1	0x3ebdbb26	0.37056845
2	0xbd5ac666	-0.053411864
3	0xbe3484cb	-0.17628781
4	0x3e351dc4	0.17687136
5	0xbc9c3241	-0.019066932
6	0x3ddea17c	0.108706445

weight f4 [7, 7]
0	0xbeaca21e	-0.33717436
1	0x3e3419a9	0.17587914
2	0x3f19ff2f	0.60155004
3	0x3ed449d4	0.41462576
4	0x3ec4a9d6	0.38410825
5	0x3e473bc5	0.19456394
6	0x3f1b6fee	0.60717666
7	0x3e842245	0.25807396
8	0x3cf2aac1	0.029622437
9	0x3ecab0c3	0.39587983
10	0x3f1503fb	0.582092
11	0x3f2fa955	0.68617755
12	0xbe931dea	-0.2873376
13	0x3f2936c0	0.66099167
14	0xbd70606f	-0.058685716
15	0x3e8adf19	0.27123335
16	0x3d274ef5	0.040846784
17	0x3d74b5c2	0.05974365
18	0xbec0da62	-0.37666613
19	0xbe8e1aa8	-0.27754712
20	0xbd420a26	-0.04737296
21	0x3ebf42e8	0.37355733
22	0xbea240c4	-0.31690037
23	0xbe0d4e00	-0.13799286
24	0xbdf1f82c	-0.11814913
25	0x3d8d35ba	0.06895013
26	0x3e110d3a	0.14165202
27	0xbd2fb48f	-0.042896803
28	0x3e4282d9	0.18995227
29	0x3dc3b54c	0.09556064
30	0xbf19dc50	-0.60101795
31	0xbccfc505	-0.0253625
32	0x3ce43c39	0.027860748
33	0xbd811f25	-0.063047685
34	0xbe087dfa	-0.13329306
35	0x3db6346a	0.08896716
36	0xbe31068c	-0.17287654
37	0x3dcf351b	0.10117551
38	0x3e80dd5d	0.25168887
39	0x3eee4bbc	0.46542156
40	0x3e9b2524	0.30301774
41	0x3c81c97d	0.015843147
42	0xbdaa5c8c	-0.08318433
43	0x3eca1d22	0.39475352
44	0xbf3f5e57	-0.74753326
45	0xbf39fdc6	-0.7265285
46	0xbf1efc73	-0.62103957
47	0x3d5d1ce7	0.05398264
48	0xbebde1df	-0.37086388

bias f4 [7]
0	0xbebc4e43	-0.3677846
1	0xbd6c4be8	-0.057689577
2	0x3e887e77	0.26658985
3	0x3e64fe4a	0.22362629
4	0x3ec11d79	0.37717798
5	0x3da53590	0.08066857
6	0xbd120040	-0.03564477

weight f4 [3, 7]
0	0xbef30943	-0.47468004
1	0xbf487f89	-0.78319603
2	0x3e69ab04	0.22819144
3	0xbd17f94d	-0.037102986
4	0x3ecab812	0.3959356
5	0xbe529e57	-0.20568214
6	0x3f1381d0	0.57619953
7	0xbea2ea5f	-0.31819436
8	0xbe6802a4	-0.22657257
9	0xbe8c9a11	-0.27461293
10	0xbebddd5a	-0.3708294
11	0xbd8b1936	-0.06791918
12	0x3eb140eb	0.3461984
13	0x3caf093a	0.021366704
14	0xbf287405	-0.6580203
15	0xbf34bf93	-0.7060482
16	0x3cfce18d	0.03086927
17	0x3d858825	0.06520108
18	0xbe11ba0e	-0.1423113
19	0x3d3fa08b	0.046783965
20	0x3eec6847	0.46173307

bias f4 [3]
0	0xbe35064a	-0.1767818
1	0xbe41a4cd	-0.18910523
2	0x3e5def1f	0.21673249

weight f4 [7, 6]
0	0x3ecb1170	0.3966174
1	0xbd7155ed	-0.058919836
2	0x3e51b210	0.20478082
3	0x3e876d45	0.26450554
4	0x3e439651	0.1910031
5	0x3ea81cf9	0.32834604
6	0xbd6a3572	-0.057179876
7	0xbe2edc25	-0.17076166
8	0x3e3de418	0.18544042
9	0x3e8b8285	0.27248016
10	0xbeee7f55	-0.46581522
11	0x3e16d5d6	0.1473001
12	0x3e6a2d03	0.22868733
13	0xbe737cbd	-0.23778053
14	0x3ec1a7a3	0.3782321
15	0xbd0b5f53	-0.034026455
16	0x3ce7bce9	0.028288322
17	0xbe04d831	-0.12973095
18	0xbdbedf52	-0.09319939
19	0x3e8a44ce	0.2700562
20	0xbd8c1101	-0.06839181
21	0xbc9068f3	-0.017628169
22	0x3ea4a6a0	0.32158375
23	0xbe51bc67	-0.20482026
24	0xbe85914b	-0.26087412
25	0x3e812617	0.25224373
26	0x3e01d214	0.12677795
27	0xbea47d3c	-0.32126796
28	0x3aeecde4	0.0018219319
29	0x3e7edad0	0.24888158
30	0x3ef18bad	0.47176877
31	0xbe1f725e	-0.15570971
32	0xbe31dfab	-0.17370479
33	0x3d7070c3	0.058701288
34	0x3e8cf29b	0.27528843
35	0x3d6c5ccd	0.05770569
36	0xbe980e27	-0.29698297
37	0xbdeb593d	-0.1149163
38	0xbeafcdbe	-0.34336656
39	0xbebe40f4	-0.3715893
40	0x3ef1fd32	0.47263485
41	0x3c9b23cd	0.01893797

bias f4 [7]
0	0x3ee296ca	0.44255668
1	0x3e037752	0.12838486
2	0x3e9494cc	0.29019773
3	0xbe2109d3	-0.15726404
4	0xbb7b8646	-0.0038379594
5	0x3ed13938	0.40863967
6	0xbeb587f8	-0.35455298

weight f4 [7, 7]
0	0xbdf7acdf	-0.120935194
1	0xbd9916ed	-0.07475076
2	0xbd4f454d	-0.0506032
3	0xbe4e0ea1	-0.20122768
4	0xbdb69c00	-0.089164734
5	0x3e000f48	0.1250583
6	0xbdb0d1b9	-0.086337514
7	0x3ec4b083	0.38415918
8	0xbeda6970	-0.42658567
9	0xbd95c9e5	-0.07313899
10	0x3ed36097	0.4128463
11	0x3ede01c4	0.43360722
12	0xbc48c94c	-0.012255024
13	0x3c0db734	0.008649636
14	0xbe8e8c5b	-0.27841458
15	0x3debbbf2	0.11510457
16	0x3d246d12	0.04014308
17	0xbd9369a9	-0.071978875
18	0xbdfbccb8	-0.122949064
19	0xbe8faadc	-0.28060043
20	0xbe3c4708	-0.18386471
21	0x3e29cf87	0.16583072
22	0x3ec92aff	0.39290616
23	0xbb853f60	-0.004066393
24	0xbec5c2d8	-0.38625216
25	0xbcaddf10	-0.021224529
26	0xbecd71bf	-0.40125844
27	0x3e1f8997	0.1557983
28	0x3e19898e	0.14993879
29	0xbe166b39	-0.1468934
30	0x3eb601f2	0.3554836
31	0x3ec08acb	0.3760589
32	0xbe7b3e9c	-0.24535602
33	0x3f00d58a	0.50325835
34	0x3ea8671b	0.32891163
35	0xbe10ce51	-0.14141203
36	0x3ef6b41a	0.48184282
37	0xbea1ef10	-0.31627703
38	0x3d386dfd	0.045026768
39	0xbdcea96f	-0.10090911
40	0x3e091721	0.13387729
41	0x3e79b6de	0.24386165
42	0x3d1f1160	0.03883493
43	0x3e913791	0.28362706
44	0x3dbf06c9	0.09327466
45	0xbebd7b23	-0.37008008
46	0x3e984cf8	0.29746222
47	0xbd711b87	-0.058864143
48	0x3dc8114a	0.097689226

bias f4 [7]
0	0x3ebd7333	0.37001953
1	0x3dd73222	0.10507609
2	0xbe976403	-0.2956849
3	0xbdb1475a	-0.08656187
4	0xbd8a226b	-0.06744846
5	0x3e839a6c	0.25703752
6	0x3e2e3d84	0.17015654

weight f4 [3, 7]
0	0xbc301f9c	-0.010749724
1	0xbeae88a6	-0.3408863
2	0xbd17dbce	-0.037074856
3	0x3f01dd07	0.50727886
4	0xbe927c5c	-0.28610504
5	0x3e8f062d	0.279344
6	0xbe21aba1	-0.15788127
7	0xbe0846a2	-0.13308194
8	0x3e2af06e	0.16693279
9	0x3d117984	0.035516277
10	0xbe3afe6f	-0.18261121
11	0x3ee253f2	0.4420467
12	0x3e19a301	0.15003587
13	0x3d7acb09	0.061228786
14	0x3e9e3f68	0.3090775
15	0x3ede9ef4	0.43480647
16	0x3e3acf09	0.1824304
17	0xbef10c2d	-0.47079602
18	0xbca352af	-0.019936888
19	0xbe836e4d	-0.2567009
20	0xbeb3471c	-0.3501519

bias f4 [3]
0	0x3e97e2c6	0.29665202
1	0x3deb8fc7	0.11502033
2	0x3e4b38e5	0.19845922

weight f4 [7, 9]
0	0xbe3efa8a	-0.1865026
1	0xbd60063b	-0.05469344
2	0xbdd7c6a6	-0.10535936
3	0x3d462a4d	0.048380185
4	0xbe59503f	-0.21222018
5	0x3e5169ca	0.20450512
6	0xbd8ce58e	-0.068797216
7	0x3d0ca4e5	0.034336943
8	0x3e46f3ca	0.19428936
9	0xbeb20745	-0.3477117
10	0xbe5c833a	-0.21534434
11	0xbbb6cb49	-0.0055784327
12	0xbd645eac	-0.05575435
13	0x3df50461	0.11963726
14	0x3c5740d1	0.013138012
15	0x3ed90540	0.42386818
16	0xbe0662c8	-0.1312362
17	0x3ebbdad3	0.36690387
18	0xbcbef61b	-0.023310712
19	0x3ebff235	0.37489477
20	0x3eddd540	0.4332676
21	0xbdf35185	-0.11880783
22	0xbd50d790	-0.050986826
23	0x3e457c4c	0.19285697
24	0x3e520def	0.20513128
25	0x3eaedb55	0.34151712
26	0x3f2a2d6d	0.66475564
27	0xbd10ff8d	-0.035399962
28	0x3dfed957	0.12443798
29	0x3dd7fd15	0.105463184
30	0xbe354b9c	-0.17704624
31	0xbdeb848d	-0.114998914
32	0xbe6f9263	-0.23395686
33	0x3e180805	0.14846809
34	0x3e84ef20	0.25963688
35	0xbe482ec7	-0.19549094
36	0xbea56da4	-0.32310212
37	0x3d12f776	0.03588053
38	0x3e59b27e	0.21259496
39	0xbe8ec80a	-0.27886993
40	0x3d842ad6	0.06453483
41	0x3e1270c2	0.14300826
42	0x3f01e511	0.5074015
43	0x3ea658f6	0.32489747
44	0x3e5ab231	0.21357037
45	0xbe8c743e	-0.27432436
46	0x3d532a6e	0.051554136
47	0x3f07fe5c	0.53122497
48	0x3b9267b6	0.0044679297
49	0x3e700fc4	0.23443514
50	0xbd0961e2	-0.033540614
51	0x3f29e885	0.6637042
52	0x3e3f4adc	0.186809
53	0x3f37bff3	0.71777266
54	0xbe829b54	-0.2550913
55	0x3db86f55	0.0900561
56	0x3e0124db	0.12611715
57	0x3ebc07e0	0.36724758
58	0xbe569108	-0.20953763
59	0xbdfbf131	-0.12301863
60	0x3dd2eec3	0.102994464
61	0x3d5ec369	0.054385576
62	0x3e3471f8	0.176216

bias f4 [7]
0	0xbd3d422a	-0.046205677
1	0x3d9929b0	0.074786544
2	0x3e9daab4	0.307943
3	0xbe93c142	-0.28858382
4	0x3e8e4bea	0.27792293
5	0x3e827615	0.25480714
6	0xbe9342e6	-0.28761977

weight f4 [7, 7]
0	0x3e1aa793	0.15102987
1	0xbe85f49c	-0.26163185
2	0x3e935500	0.28775787
3	0x3e878e64	0.26475823
4	0xbed4f5d7	-0.4159381
5	0x3e6ceca8	0.23137152
6	0xbe44d3a1	-0.19221355
7	0xbe95e5cf	-0.29276893
8	0x3e1d68ca	0.15372005
9	0x3e8d2732	0.27568966
10	0xbeb95744	-0.3619939
11	0x3f13d078	0.57739973
12	0x3ee4d5ee	0.44694465
13	0xbec41ec2	-0.38304716
14	0xbb25fa7a	-0.0025326298
15	0x3f05abc9	0.5221525
16	0x3f20b30d	0.6277321
17	0xbe6a25d0	-0.22865987
18	0x3e955e4f	0.29173514
19	0x3eb45883	0.3522378
20	0xbe62f830	-0.22164989
21	0xbe95db4e	-0.2926888
22	0xbe3b7259	-0.18305339
23	0x3e99c0ad	0.30029812
24	0x3d4a307b	0.04936264
25	0x3ead78ba	0.3388117
26	0xbea3a2b8	-0.31960082
27	0xbe76f0de	-0.24115321
28	0xbe9f882d	-0.3115858
29	0x3e7a52ee	0.24445698
30	0x3ed6d5c2	0.4195996
31	0x3eba7b33	0.3642212
32	0x3f11fc9f	0.57026094
33	0x3e938278	0.28810477
34	0x3e33769f	0.17525719
35	0x3d88d90c	0.066820234
36	0x3e1ddd69	0.15416493
37	0x3e793ab7	0.24338804
38	0x3e52e550	0.20595288
39	0x3eae8305	0.34084335
40	0x3f0264ec	0.50935245
41	0x3c6d4518	0.014481805
42	0xbe85417c	-0.26026523
43	0xbeae3bfb	-0.34030136
44	0xbe0a328a	-0.13495842
45	0xbc21a693	-0.009866375
46	0x3e628c55	0.22123845
47	0xbe14c695	-0.14528878
48	0xbd348434	-0.04407139

bias f4 [7]
0	0xbe037076	-0.12835869
1	0xbab851cc	-0.0014062463
2	0xbcb42c8c	-0.021993898
3	0xbe0c71ec	-0.13715333
4	0xbc134b64	-0.0089901425
5	0xbcd1102e	-0.02552041
6	0xbeb5ce31	-0.35508874

weight f4 [1, 7]
0	0xbe5a878f	-0.21340774
1	0x3eacb6e1	0.33733276
2	0x3ec69dff	0.38792416
3	0x3e038c9a	0.12846604
4	0x3f0de0bc	0.5542104
5	0x3ee92b57	0.45540878
6	0x3e09dd24	0.13463265

E f4 [286, 3]
0	0x3f397c6c	0.7245548
1	0xbf22531d	-0.6340807
2	0x3ebbe9c4	0.36701787
3	0xbe6b3f17	-0.22973286
4	0xbf68d8ff	-0.9095611
5	0xbed8417e	-0.42237467
6	0x3f4c7364	0.7986357
7	0xbf21ba0b	-0.63174504
8	0x3ed9a12c	0.42505777
9	0xbf4af544	-0.79280496
10	0xbf66a6a3	-0.9009802
11	0xbf7e8450	-0.9942064
12	0x3f3a50b2	0.7277938
13	0xbf10ff39	-0.5663944
14	0x3ee31518	0.4435203
15	0xc00d08c3	-2.2036598
16	0xbf733ec9	-0.9501768
17	0xc00791f1	-2.1182826
18	0x3f28c162	0.6592008
19	0xbf140f47	-0.5783581
20	0x3ec9bd35	0.39402166
21	0xbfd55ed1	-1.6669561
22	0xbfa0522c	-1.2525077
23	0xbfd4e4b4	-1.6632295
24	0xbe4c3ac8	-0.19944298
25	0xbfbe3eab	-1.4862875
26	0xbf57152c	-0.8401668
27	0xbe8c742f	-0.2743239
28	0xbfb0e998	-1.3821287
29	0xbf81ea67	-1.0149659
30	0x3fafbd2b	1.3729604
31	0xbf87f56e	-1.0621774
32	0x3ef0ccb6	0.47031182
33	0x3fa11fc7	1.2587823
34	0xbf8a369d	-1.0797917
35	0x3ebf65c2	0.37382323
36	0xbf5a40f2	-0.8525535
37	0xbfa42aed	-1.28256
38	0xbf8eadda	-1.1146805
39	0x3f817337	1.0113286
40	0xbf470236	-0.7773775
41	0x3ef02986	0.4690668
42	0x3f8a0369	1.0782291
43	0xbf3fad5e	-0.7487391
44	0x3f099c0d	0.5375374
45	0xbde7e4b0	-0.113229156
46	0xbf7e660c	-0.9937446
47	0xbf0f30c8	-0.5593381
48	0x3f905c94	1.1278253
49	0xbf4a3a5e	-0.7899531
50	0x3f07d083	0.5305254
51	0xbffa7e92	-1.9569876
52	0xbfa1dcd8	-1.2645521
53	0xc00c5068	-2.1924076
54	0x3f804822	1.0022013
55	0xbf4e5b41	-0.8060799
56	0x3ed925aa	0.42411548
57	0x3f2b7a88	0.6698384
58	0xbf54a45b	-0.83063287
59	0x3e3ac77d	0.18240161
60	0xbdffa482	-0.12482549
61	0xbf86e3cc	-1.0538268
62	0xbf001f29	-0.50047547
63	0xc100db4d	-8.05354
64	0xc08a6736	-4.325099
65	0xc10d61f8	-8.836418
66	0xc117e66e	-9.493757
67	0xc09f92e9	-4.9866834
68	0xc126f06c	-10.433697
69	0xc0a2d31c	-5.08827
70	0xbfb88c13	-1.4417747
71	0xc09835cb	-4.7565665
72	0x3f7e102a	0.99243414
73	0xbf2f2b85	-0.6842578
74	0x3f07bc70	0.5302191
75	0xc0ddcfbd	-6.9316087
76	0xc073d373	-3.8097808
77	0xc0f2f311	-7.592171
78	0x3f369a28	0.71328974
79	0xbf0dbe0e	-0.55368125
80	0x3ee376fc	0.44426715
81	0xbfb1aad3	-1.3880256
82	0xbfa02747	-1.2511986
83	0xbfde532c	-1.7369132
84	0x3f456e48	0.771214
85	0xbf68ed2c	-0.90986896
86	0x3e577761	0.21041633
87	0xbe49b71e	-0.1969876
88	0xbf8984b7	-1.0743626
89	0xbf308740	-0.68956375
90	0x3ebba00d	0.36645547
91	0xbf82e04a	-1.0224698
92	0xbe7217c1	-0.23641874
93	0x3f9538fa	1.1658013
94	0xbf5cd050	-0.8625536
95	0x3efbbb64	0.49166405
96	0x3f89faa5	1.0779616
97	0xbf62ba0c	-0.88565135
98	0x3ed0af31	0.4075866
99	0x3fb93f70	1.4472485
100	0xbf934c04	-1.1507573
101	0x3ee4c575	0.44681898
102	0x3f3fec26	0.7496971
103	0xbf1e6acb	-0.61881703
104	0x3ed17748	0.40911317
105	0xbf3e2256	-0.7427114
106	0xbf5c8da5	-0.8615363
107	0xbf6c4306	-0.9228977
108	0xbe8bc9a7	-0.27302286
109	0xbf63c46b	-0.88971585
110	0xbedf54d4	-0.43619406
111	0x3f27ac4a	0.6549727
112	0xbf1e2998	-0.6178222
113	0x3ea8e2c6	0.32985514
114	0x3f4a9f08	0.7914891
115	0xbf1be7c2	-0.6090051
116	0x3ee57de8	0.4482262
117	0xc0a08779	-5.016537
118	0xc0355c78	-2.8337688
119	0xc0ad0101	-5.4063725
120	0xc05714d9	-3.3606474
121	0xc004f59b	-2.0774906
122	0xc064a6d2	-3.572682
123	0x3ef8d6ff	0.4860153
124	0xbf2a2269	-0.66458756
125	0x3e2baf97	0.16766201
126	0x3f436f08	0.76341295
127	0xbf0d9463	-0.55304545
128	0x3ef29926	0.47382468
129	0xbfcfb5a3	-1.6227306
130	0xbf9e457f	-1.2364959
131	0xbfcee3ba	-1.6163247
132	0xbf1d9db4	-0.6156876
133	0xbf98c67a	-1.193557
134	0xbf650d2a	-0.8947321
135	0x3f77f200	0.9685364
136	0xbf43a6c7	-0.7642636
137	0x3ee74574	0.45170176
138	0x3f894808	1.0725107
139	0xbf39ac72	-0.72528756
140	0x3f0c01fa	0.54690516
141	0x3f91a0ae	1.137716
142	0xbf5ea19b	-0.8696534
143	0x3eed74f6	0.46378297
144	0x3f8cfa1c	1.1013827
145	0xbf5ee963	-0.8707487
146	0x3eded62d	0.43522778
147	0x3fae2687	1.3605508
148	0xbf81bcdd	-1.0135761
149	0x3f01c18e	0.50685966
150	0x3fab1bd1	1.3367864
151	0xbf83a820	-1.0285683
152	0x3ef5e4f8	0.48026252
153	0xbeb5bbd6	-0.3549487
154	0xbfbe0d72	-1.4847853
155	0xbf7040d8	-0.93848944
156	0x3f15a59c	0.58455825
157	0xbf546eb5	-0.82981426
158	0x3daae68a	0.08344753
159	0x3f0e86b6	0.556743
160	0xbf588ede	-0.84593
161	0x3da9c2d2	0.08289112
162	0x3f15ae10	0.58468723
163	0xbf04de44	-0.5190165
164	0x3ec3d8f8	0.38251472
165	0xbeb1a0dc	-0.34693038
166	0xbf824135	-1.017615
167	0xbf121242	-0.5705911
168	0xc039b3a9	-2.9015906
169	0xbf98eead	-1.1947838
170	0xc0379a5c	-2.8687963
171	0x3f7e88f2	0.9942771
172	0xbf30a135	-0.6899598
173	0x3f05273f	0.5201301
174	0x3f31dc8c	0.6947715
175	0xbf372f3a	-0.71556437
176	0x3e8bb056	0.2728297
177	0xc0e8a842	-7.2705393
178	0xbfea3629	-1.8297778
179	0xc0d71725	-6.7215753
180	0xbfc8e714	-1.569552
181	0xbfaeed6a	-1.3666203
182	0xbfd54300	-1.6661072
183	0xc09181d8	-4.5471
184	0xbfae94be	-1.3639143
185	0xc088ff94	-4.2811985
186	0x3f352248	0.70755434
187	0xbeff88f6	-0.4990918
188	0x3ef7b5d8	0.48380923
189	0x3f17396c	0.59071994
190	0xbf05c126	-0.52247846
191	0x3ec0d8de	0.37665457
192	0xc079f298	-3.9054317
193	0xbfa4ff2e	-1.2890375
194	0xc06dd659	-3.7162077
195	0xc10a1297	-8.629539
196	0xc0033c89	-2.0505698
197	0xc0fd6f19	-7.9198117
198	0x3f5b4af0	0.8566122
199	0xbf2599ac	-0.6468761
200	0x3ee8d150	0.45472193
201	0xc0b37ffe	-5.609374
202	0xbfc29a72	-1.5203383
203	0xc0a6abfe	-5.208495
204	0x3f456676	0.7710947
205	0xbf392d8f	-0.7233514
206	0x3eb040d6	0.34424466
207	0xbf609152	-0.8772174
208	0xbf957591	-1.1676503
209	0xbf86f946	-1.0544822
210	0xbefd3d12	-0.49460655
211	0xbf79dd2e	-0.9760312
212	0xbf272698	-0.65293264
213	0xbf018e14	-0.5060742
214	0xbf5f0ec6	-0.8713192
215	0xbf3ec63b	-0.74521226
216	0x3f41f62a	0.7576624
217	0xbf20449f	-0.6260471
218	0x3ed22fa8	0.41051984
219	0xc0953d23	-4.663713
220	0xbfa5b267	-1.2945069
221	0xc08985a5	-4.297564
222	0xbfbe601b	-1.4873079
223	0xbf73c9ef	-0.9523
224	0xbfc85591	-1.5651113
225	0xc08580ec	-4.1719875
226	0xc01bd0ee	-2.434627
227	0xc08ec3fd	-4.4614244
228	0x3f4f5c68	0.81000376
229	0xbf18a4a7	-0.5962624
230	0x3ef3f5b6	0.476484
231	0xc0a6093e	-5.188628
232	0xc0396c36	-2.8972297
233	0xc0b2c1a1	-5.5861363
234	0x3f45f646	0.7732891
235	0xbf7cc522	-0.987383
236	0x3e274be5	0.16337545
237	0x3f9e4180	1.2363739
238	0xbf5bfa85	-0.8592914
239	0x3f0e183c	0.5550573
240	0x3f3a39ce	0.7274445
241	0xbf20e4e6	-0.6284927
242	0x3ebfaaef	0.374351
243	0x3f4817f4	0.7816155
244	0xbf24a65d	-0.6431635
245	0x3ed2a400	0.41140747
246	0xbfc9ffb4	-1.5781159
247	0xbf7c37ae	-0.9852246
248	0xbfd59940	-1.6687393
249	0xc0ae5c42	-5.448762
250	0xc04e9e8c	-3.228427
251	0xc0c0b9ba	-6.0226717
252	0xc0f11c58	-7.53471
253	0xc085cd21	-4.18129
254	0xc10552c3	-8.3327055
255	0xc0c4a24e	-6.1448126
