models/optimization/IN_1000_3_0.016427939496641147_0.8994448308979868_5_3_state_dict.pt (torch, 6481 bytes, 17 tensors)

R1.layers.0.weight f4 [3, 9]
-0.29620007 0.07933429 -0.82271856 0.43551508 0.10857006 0.5767064 -0.2467542 -0.4497028
-17.883474 -0.12452438 0.11028388 -1.5726844 0.11636265 -0.07984821 1.5579377 0.21709171
-0.1740482 -19.219141 -0.15211767 0.15401988 -0.27296293 0.15659769 -0.20785211 1.1242507
-0.44694018 4.214768 -5.277946
00000000: 89a7 97be 047a a23d af9d 52bf d5fb de3e
00000010: fb59 de3d 08a3 133f 22ad 7cbe 723f e6be
00000020: 5b11 8fc1 a306 ffbd 84dc e13d b94d c9bf
00000030: 8b4f ee3d 7587 a3bd 816a c73f 4a4d 5e3e
00000040: b139 32be cdc0 99c1 bcc4 1bbe 63b7 1d3e
00000050: ccc1 8bbe 255b 203e 2fd7 54be 72e7 8f3f
00000060: 58d5 e4be 61df 8640 efe4 a8c0

R1.layers.0.bias f4 [3]
1.262231 -0.2124043 0.4986724
00000000: c990 a13f 8380 59be fd51 ff3e

R1.layers.2.weight f4 [3, 3]
0.92999864 -3.3659706 0.16772681 -0.70959574 1.1669711 -0.27898628 -0.6016539 -0.08215164
-0.30022597
00000000: 6414 6e3f 106c 57c0 94c0 2b3e 11a8 35bf
00000010: 4f5f 953f 4ad7 8ebe fd05 1abf 1e3f a8bd
00000020: 38b7 99be

R1.layers.2.bias f4 [3]
-0.48251608 1.6573725 -0.7370409
00000000: 590c f7be c824 d43f b6ae 3cbf

R1.layers.4.weight f4 [3, 3]
0.5169496 0.74195385 -0.30950028 0.23323967 0.053065754 -0.13923728 -1.9558787 0.4627318
-0.21183357
00000000: cf56 043f b0f0 3d3f d276 9ebe 61d6 6e3e
00000010: 7a5b 593d 3894 0ebe 3c5a fabf 2feb ec3e
00000020: e6ea 58be

R1.layers.4.bias f4 [3]
-0.8149352 -0.21875998 -0.35628694
00000000: 989f 50bf 9e02 60be 3e6b b6be

O.layers.0.weight f4 [3, 6]
-1.1859905 0.009793541 -0.9605091 -0.09603766 -0.082952306 0.34571972 0.514591 1.3270178
-0.70727867 -0.026324492 -0.03134226 0.025647473 -0.46438912 -0.57444334 0.64994144 0.5991233
-0.0041093705 -1.2137672
00000000: 89ce 97bf 1775 203c ede3 75bf 65af c4bd
00000010: e6e2 a9bd 2d02 b13e 3cbc 033f b8db a93f
00000020: 3710 35bf 76a6 d7bc be60 00bd a61a d23c
00000030: 69c4 edbe b80e 13bf 9062 263f 2560 193f
00000040: e6a7 86bb b95c 9bbf

O.layers.0.bias f4 [3]
-1.7122566 -3.0118396 -2.5928862
00000000: 392b dbbf fbc1 40c0 d9f1 25c0

O.layers.2.weight f4 [3, 3]
-0.31845942 0.81319106 0.793215 -0.13776453 0.47539923 -0.7341297 0.11852157 0.75743616
-0.873315
00000000: 1d0d a3be 4a2d 503f 2310 4b3f 2512 0dbe
00000010: 8767 f33e edef 3bbf 70bb f23d 56e7 413f
00000020: 9291 5fbf

O.layers.2.bias f4 [3]
0.26874346 -1.7263514 0.63449776
00000000: be98 893e 15f9 dcbf 726e 223f

O.layers.4.weight f4 [3, 3]
0.18458532 0.74530065 0.84522605 -0.065961756 0.17825325 -0.43029353 0.8201211 -0.3255026
-0.33665755
00000000: ef03 3d3e 06cc 3e3f bc60 583f f516 87bd
00000010: 0588 363e 6f4f dcbe 75f3 513f 47a8 a6be
00000020: 615e acbe

O.layers.4.bias f4 [3]
-2.8397927 1.1672711 -1.2799982
00000000: 2abf 35c0 2469 953f fbd6 a3bf

R2.layers.0.weight f4 [3, 9]
-0.71420544 0.5770075 -0.07337418 -0.8625629 0.13440001 -0.32808086 0.060826264 -0.38561207
1.8703933 0.28637934 0.24767104 -0.17826267 -0.40404457 -0.49083182 -0.22423385 -2.7345085
-0.2352069 -1.5658 -1.3338668 0.66416866 -1.4036436 1.4408602 -0.42413023 -0.36654446
0.37286952 -0.021733597 -1.1685742
00000000: 2bd6 36bf c3b6 133f 3445 96bd ecd0 5cbf
00000010: 28a0 093e 37fa a7be f624 793d f26e c5be
00000020: 0c69 ef3f 50a0 923e 7a9d 7d3e 7d8a 36be
00000030: eede cebe 4f4e fbbe 8f9d 65be 3002 2fc0
00000040: 14da 70be 226c c8bf 26bc aabf f506 2a3f
00000050: 98aa b3bf 1b6e b83f 9927 d9be b7ab bbbe
00000060: c1e8 be3e a80a b2bc d793 95bf

R2.layers.0.bias f4 [3]
0.53672177 1.3505778 -0.21492857
00000000: 9966 093f bcdf ac3f 3c16 5cbe

R2.layers.2.weight f4 [3, 3]
-0.4658547 -0.12264628 0.10437926 0.10607958 -1.4920728 -0.07624697 0.42585555 -0.37092277
-0.35735217
00000000: 8284 eebe f92d fbbd cbc4 d53d 4040 d93d
00000010: 3efc bebf 5f27 9cbd bd09 da3e 97e9 bdbe
00000020: ddf6 b6be

R2.layers.2.bias f4 [3]
-1.1533678 -1.1540681 3.2852488
00000000: 8ea1 93bf 81b8 93bf 8441 5240

R2.layers.4.weight f4 [1, 3]
-0.11788924 0.034181617 -2.3361351
00000000: ea6f f1bd 0602 0c3d 3d83 15c0
