models/optimization/IN_100_2_0.0414514010940546_0.7959479918971145_2_8_state_dict.pt (torch, 6417 bytes, 17 tensors)

R1.layers.0.weight f4 [2, 9]
000000 32 2b 7d be 02 85 ea be 2a 11 90 be 76 c4 a7 3e
       -0.24723509 -0.45804602 -0.28138095 0.32767075
000010 9a bb ed be 12 60 34 3d 31 f0 71 3e 8d f7 a8 be
       -0.4643219 0.044036932 0.23626782 -0.33001366
000020 d2 60 93 be f6 0e 17 3d 7a 2c 31 be ac 5d 15 bf
       -0.28784806 0.036879502 -0.17302123 -0.58346057
000030 e3 45 f1 bc 89 e1 8c 3d 78 08 10 3f 0e cd b6 3c
       -0.02945227 0.06878955 0.5626292 0.022314575
000040 c0 6f e3 3d 9f b7 b6 c0
       0.11105299 -5.7099147

R1.layers.0.bias f4 [2]
000000 30 38 c2 be 3d 4c 2e 3e
       -0.37933493 0.1702127

R1.layers.2.weight f4 [2, 2]
000000 d5 6e b3 3e 9f 1d 65 bf c3 10 b7 3e 2d 79 0e c0
       0.35045496 -0.89498323 0.35754976 -2.226146

R1.layers.2.bias f4 [2]
000000 e6 2d 9a 3f 78 0f 32 3f
       1.2045257 0.69554853

R1.layers.4.weight f4 [3, 2]
000000 04 27 90 bf be 02 b2 bf c3 f2 a1 3f ab 62 d1 3e
       -1.1261907 -1.3907087 1.265221 0.4089559
000010 ab b5 92 bf 70 5b 96 be
       -1.1461691 -0.29366636

R1.layers.4.bias f4 [3]
000000 66 02 9f 3f 80 69 7d bf 97 77 bb bd
       1.2422607 -0.98989105 -0.09153669

O.layers.0.weight f4 [2, 6]
000000 53 68 3a 3f d4 44 36 3e 76 c0 b0 3f 6c e7 56 3f
       0.72815436 0.17799693 1.3808734 0.8394687
000010 dd 7e 8e 3e 5f 72 3f 3f b9 c7 a8 3e 59 87 2f be
       0.27831164 0.7478389 0.32964876 -0.17141475
000020 36 fd ea 3e 30 2f 17 bf aa af dd bd 84 f1 36 bf
       0.4589631 -0.5905638 -0.10824521 -0.71462274

O.layers.0.bias f4 [2]
000000 03 86 df bd a0 3a 4e 3e
       -0.109142326 0.20139551

O.layers.2.weight f4 [2, 2]
000000 87 e7 21 bf 34 47 7a bf 83 32 8a bf 57 11 82 3e
       -0.6324391 -0.977649 -1.0796665 0.25403854

O.layers.2.bias f4 [2]
000000 ab ce a6 bd 13 31 b0 3f
       -0.081448875 1.3764976

O.layers.4.weight f4 [3, 2]
000000 ef 9b 49 be 2a d5 3d 3f 4d 12 5f 3e e2 84 30 3f
       -0.1968839 0.7415339 0.21784325 0.68952763
000010 c9 43 22 3f 9b 35 e6 3e
       0.6338468 0.44962773

O.layers.4.bias f4 [3]
000000 a7 37 1c 3f 13 d2 7d 3f 26 6d 79 bd
       0.6102242 0.9914867 -0.060895108

R2.layers.0.weight f4 [2, 9]
000000 c5 14 97 3e 9a 6f 12 3f 34 19 c2 3e 8e 82 89 3e
       0.29508033 0.5720154 0.37909853 0.26857418
000010 a4 de 52 3e f4 91 c0 bd 06 19 71 3f cc 8d c3 bf
       0.20592743 -0.09402838 0.9417881 -1.5277648
000020 b7 d2 d5 3e af 8f 5b 3c 26 55 d7 bd 67 c4 f5 3e
       0.41762325 0.013400956 -0.10514288 0.48001406
000030 0d 41 01 be 4a 9d 17 bf 5c 78 90 be a0 89 7f 3f
       -0.12622471 -0.5922438 -0.28216827 0.99819374
000040 cd 85 28 bf 3f 69 15 3f
       -0.65829164 0.5836372

R2.layers.0.bias f4 [2]
000000 ef 10 03 3f c7 1d d1 be
       0.51197714 -0.4084303

R2.layers.2.weight f4 [2, 2]
000000 41 23 83 be 36 0a 06 bf 76 fa a1 3f 53 53 97 3c
       -0.25612834 -0.5235933 1.265456 0.01847235

R2.layers.2.bias f4 [2]
000000 0d 6c 3a bc ff 10 5f bd
       -0.0113783 -0.054459568

R2.layers.4.weight f4 [1, 2]
000000 50 85 0e 3f 48 e3 68 bf
       0.5567217 -0.90971804
