models/optimization/IN_1000_7_0.0019961274044093375_0.6039375279711349_7_1_state_dict.pt (torch, 7633 bytes, 17 tensors)

R1.layers.0.weight f4 [7, 9]
00000000: 0642 433e 7017 d0bd 5e95 923e 778a 743d
00000010: a1c7 bc3d a924 22bf a554 a13d d3f7 c5bf
00000020: 4757 0d40 9ff2 263e 8cc5 ad3c b936 043f
00000030: 350d 34be ad62 84bc fa43 ffbe e644 71be
00000040: e0d8 c9be 09b0 a440 00d0 e53d 79ab 053e
00000050: 0d67 1f3e a069 ebbd dbe7 883c 0a44 8abe
00000060: b5a6 08bf 08f5 743f e9a7 3d40 301f fbbd
00000070: bfba 863c 5708 b13e 4351 2cbe c0a9 adbe
00000080: e21d 1a3d ef38 61be 71b8 82be 6d45 00be
00000090: 5030 8ebe 109a 9bbd f71b 1ebf 12bb 8c3e
000000a0: ace4 a93d 2d4d 1f3f 7988 7b3e 7d8c 55be
000000b0: e277 bdc0 436a 0abd a6ee 173e 6c8a 1dbe
000000c0: 35e2 ffbd 6db5 483c 6d2e 8f3e 24b4 9fbe
000000d0: f138 adbf f041 46c0 72c3 843e 8ff3 273e
000000e0: dda6 953e 23b4 8cbe e74b 24be ef64 90be
000000f0: 938f b9be f64e fd3f 3932 c43f
0.19068155 -0.1016072 0.28629583 0.059702363 0.09217764 -0.6333719 0.07877473 -1.5466255
2.208452 0.1630349 0.021212362 0.51646 -0.17583163 -0.016160334 -0.4985655 -0.23561439
-0.39423275 5.1464887 0.112213135 0.13053693 0.15566655 -0.11494756 0.01671212 -0.27005035
-0.53379375 0.9568639 2.9633734 -0.12261808 0.01644647 0.34576675 -0.16827874 -0.3391857
0.037626155 -0.21994375 -0.25531343 -0.12526484 -0.27771235 -0.075977445 -0.6176142 0.27486473
0.08295569 0.62227136 0.24563779 -0.20854373 -5.920884 -0.033792745 0.14837131 -0.15384835
-0.124943174 0.0122502865 0.27965108 -0.31192124 -1.3533002 -3.0977745 0.25930363 0.16401504
0.2922887 -0.27481183 -0.1604458 -0.28202006 -0.3624235 1.9789722 1.5327827

R1.layers.0.bias f4 [7]
00000000: 1c0b b43e 63ab 36bd 7416 06be 9074 84be
00000010: 1e26 74bd 15a8 b73d fcf1 76bd
0.35164726 -0.04459704 -0.13094503 -0.2587018 -0.059606664 0.08967606 -0.060289368

R1.layers.2.weight f4 [7, 7]
00000000: ed2d 733e 3569 443e 59aa 173f 2710 6c3e
00000010: e122 18bf bb92 c7be 7ae7 b13e 98e9 e63d
00000020: a708 4abf 3970 a43e 2388 3bbe c63c c4bf
00000030: 5b0e 403e de21 1a3f af1c 9b3d 4750 9f3e
00000040: 23d9 5bbe 4253 7a3b 9500 26c0 9538 063e
00000050: c47e 83bc 897a d13e b020 86be 2bb5 a93e
00000060: 1dcc 8b3e fb3d e0be 9367 ef3e 7a3d 393f
00000070: c909 46be 30ae 93bf 3b74 d13e 9f6d a2be
00000080: 13c7 77be 5126 e7be 1641 26bd 808e e23e
00000090: e312 9d3e d00a 113e 40ac 87be 0877 94bf
000000a0: 044b 123e 35a9 e33d 52a5 ca3e 0fc7 52c0
000000b0: 8e10 51bd 4aa1 03bd 33a8 c3bf 0be2 993e
000000c0: e3d5 c9bd
0.23747988 0.19180758 0.59244305 0.23053037 -0.5942822 -0.38979134 0.34746915 0.11275023
-0.7891945 0.3211687 -0.18313651 -1.5331047 0.18755476 0.6020793 0.0757383 0.31115934
-0.2146955 0.0038196598 -2.5937855 0.13107522 -0.016051657 0.409138 -0.26196814 0.33146033
0.27304164 -0.43797287 0.46758708 0.7235943 -0.1933967 -1.1537533 0.4090899 -0.3172426
-0.24197035 -0.4514642 -0.040589415 0.44249344 0.30678472 0.14164281 -0.26498604 -1.1598825
0.14286429 0.11116258 0.39579254 -3.2933996 -0.05104118 -0.03213624 -1.5285705 0.3005527
-0.09855249

R1.layers.2.bias f4 [7]
00000000: cafa bc3c 6bdd 713e 3125 f13e 221b 013d
00000010: 5529 b23e 136b 92be aa30 c03e
0.023068804 0.2361962 0.47098687 0.031520016 0.3479716 -0.28597316 0.37537128

R1.layers.4.weight f4 [3, 7]
00000000: 44de 1b3f e5bd cebe 377b 2ebf b8ff d3be
00000010: d7f8 a1bf 953f 863e 286b 19c0 2ac3 393f
00000020: 8d5c dbbe 53a4 29bf 7377 193e 2ad9 92bd
00000030: c214 383f 4722 443e 2033 42bf 683e 093f
00000040: 6e88 1b3f 4ff8 0f3f 580b 3b3f 22d5 a0be
00000050: 04a1 da3e
0.60886025 -0.40379253 -0.6815676 -0.41406035 -1.2654065 0.26220384 -2.3971653 0.7256342
-0.42844048 -0.66266364 0.14986973 -0.07170327 0.71906674 0.19153701 -0.7585926 0.5361085
0.6075505 0.56238264 0.73064184 -0.31412607 0.4270097

R1.layers.4.bias f4 [3]
00000000: 544a cd3e a622 663e b34d 88be
0.4009577 0.22474155 -0.2662178

O.layers.0.weight f4 [7, 6]
00000000: fb28 34bd 9ca2 bbbe e744 da3d 1664 54bf
00000010: cc58 c03e de36 603e b568 823e 284d 713e
00000020: f1fd a23e 09cb 85bd 0663 bfbe 2a14 bc3d
00000030: ca4b cebb f0a2 d0bd 2ce5 693e 7f12 83be
00000040: 4906 88bf 2650 073f 64e4 5c3d 797f b2be
00000050: 8bb9 8a3c 1401 87bd ec26 933e 49f3 1d3f
00000060: 84d5 a3bd a2db 193f 91da 4fbe 6f87 5f3d
00000070: e011 b2bc 9bf5 bc3d 7d49 993d 3759 a0be
00000080: dfa8 503e a950 6c3e 4c43 0cbe b52b 563e
00000090: 9ae2 603f 8d2f bf3d 407f 183f 8f9c f7bc
000000a0: b7d0 b4bc 0ac7 3ebe
-0.043984395 -0.366475 0.10657673 -0.8296522 0.37567747 0.2189593 0.2547051 0.23564589
0.31834367 -0.065328665 -0.37380236 0.091835335 -0.006295656 -0.10187328 0.22841328 -0.2560005
-1.0626918 0.5285667 0.053928748 -0.3486288 0.016934177 -0.065920025 0.28740633 0.6169935
-0.07999709 0.6010076 -0.2029822 0.05457252 -0.02173704 0.09226533 0.0748472 -0.31318066
0.20376919 0.23077644 -0.13697547 0.2091511 0.87845767 0.093352415 0.5956917 -0.03022602
-0.02207218 -0.18630615

O.layers.0.bias f4 [7]
00000000: 5f7d 0fbf ea99 d23e 0eef c7be 818f 34bf
00000010: 73d3 83be 76e0 07bd c7f6 183e
-0.56050676 0.41133052 -0.39049572 -0.7053147 -0.2574726 -0.033173047 0.14937888

O.layers.2.weight f4 [7, 7]
00000000: 7dc7 14bf 401b 00be 97c4 f2be b829 853f
00000010: 22e3 db3e 3d6f 2cbe a20d 413e 86c0 563f
00000020: a65f 743e 43fd 0c3f ad5b 49bf a450 cd3e
00000030: 8a76 b8be df6e 9abd 3886 eabe 79e9 88bd
00000040: 8b4f a93e df13 de3d f79e e5be 57a4 6cbe
00000050: f36a 9e3a 83e3 c1be 7e44 9fbe 394a 553e
00000060: 6197 b8be 74ec 413e 62fb e03c fd4d b73e
00000070: cd23 c23d a7d8 973d 7881 81be f050 f23a
00000080: 65f2 98be a5dd 703e cd60 adbe de43 fe3e
00000090: 169e 15bf 150d 26bf b45e 90be 41ce b0bd
000000a0: 5326 133e 006d 8f3e 48e2 54be ba22 2e3e
000000b0: 5181 a33e dceb b0be ece2 a8be 5e06 15be
000000c0: cdd9 a23e
-0.58116895 -0.12510395 -0.4741561 1.0403357 0.42946726 -0.16839309 0.18852857 0.8388752
0.23864612 0.55073947 -0.7865551 0.40100586 -0.36027938 -0.07540678 -0.45805526 -0.066851564
0.330685 0.10843634 -0.44847843 -0.23109566 0.0012086317 -0.3786889 -0.31106943 0.20829095
-0.36052993 0.18937856 0.027463619 0.35801688 0.09479485 0.0741437 -0.2529409 0.0018487256
-0.29872432 0.2352205 -0.33862916 0.49661154 -0.58444345 -0.6486371 -0.28197253 -0.0863309
0.14370088 0.28012848 -0.20789444 0.17005435 0.31934598 -0.34554946 -0.32985628 -0.1455321
0.31806794

O.layers.2.bias f4 [7]
00000000: eb62 c7ba 7a04 0a3e 839b a1be 7ae2 de3d
00000010: afb7 02bf 4c32 023e 4e2d e5bd
-0.0015211975 0.1347827 -0.3156396 0.10883041 -0.5106153 0.12714499 -0.11190282

O.layers.4.weight f4 [3, 7]
00000000: 88be f0be cccc 363e a492 453e 51e8 1bbd
00000010: 9509 51be 1ab3 b53e 074c 20be 6255 c7be
00000020: 7375 00bf fbb4 e13e a8c6 e7bd d454 b1bd
00000030: 683c 8bbe 43ce 1e3f 2f68 05bf 150d 163f
00000040: 29eb ecbe 9e49 fcbe 4f67 83bd f29d 023f
00000050: 197e 16be
-0.47020364 0.17851561 0.1929422 -0.03806335 -0.20413812 0.35488206 -0.15654002 -0.3893233
-0.50179213 0.4408339 -0.113171875 -0.08658758 -0.27194524 0.6203348 -0.52112097 0.5861371
-0.46273163 -0.49274915 -0.06416189 0.51022255 -0.1469654

O.layers.4.bias f4 [3]
00000000: 2558 96be cb57 613f f808 583e
-0.29364124 0.88024586 0.21097171

R2.layers.0.weight f4 [7, 9]
00000000: a6fd a0be feed fe3e b9e6 d5be 650a 19bf
00000010: 551f 28be 5d11 d6bd 5caa 16bf 875e 06bf
00000020: 4c33 183f 3585 28bb f857 2abe 13cf f4bd
00000030: 2e8e b33d 0e00 e73d b3d9 dcbd b2c9 d1be
00000040: 8521 a7be 4ef9 fe3e ed71 26be 16f5 48bd
00000050: 6c2e 98be 48cb e1bd f29e 29bf 31cb 373f
00000060: 45d3 173e 79ed a03f 2cf1 043d 7e11 03bd
00000070: 1bea 3fbd 5a96 6c3c 5f24 e5be 04fa 8cbe
00000080: 446d 253e 02b0 cc3e 41b6 f73d 5b16 1bbf
00000090: 137d c1be bc60 543e c8b0 b63d ad87 363e
000000a0: dbc4 853e ac80 f73e 942b 413f 0be2 30be
000000b0: 0672 2ebf c5f0 15be 5ebd c1be 5baf 0d3f
000000c0: 0dca 57be ed27 6c3e 8ecf 8dbe 8c8a 353e
000000d0: 1ab7 38be abbe 4abe 044f a23e 261a fbbd
000000e0: 5be5 c83b 31d1 36be c315 debc 1a22 39be
000000f0: 0096 20bf 5f3b a6be 430d 093f
-0.31443518 0.4979095 -0.4177759 -0.59781486 -0.16418202 -0.104525305 -0.588537 -0.5248799
0.5945327 -0.0025714163 -0.1663512 -0.11953559 0.08767353 0.11279307 -0.1078371 -0.40974194
-0.3264276 0.4979958 -0.16254397 -0.049061857 -0.29722917 -0.11025101 -0.66258156 0.7179442
0.14826687 1.2572471 0.032456562 -0.031999104 -0.04685412 0.0144401435 -0.4475431 -0.27534497
0.16154963 0.39978033 0.12095309 -0.60580987 -0.37790737 0.20740026 0.08920437 0.17825194
0.2612675 0.48340356 0.7545712 -0.17273729 -0.68142736 -0.14642628 -0.37839788 0.55345696
-0.2107317 0.23062105 -0.27697414 0.17728633 -0.18038598 -0.19799297 0.3170091 -0.12260847
0.006130857 -0.17853238 -0.027109986 -0.18079415 -0.6272888 -0.32467172 0.5353586

R2.layers.0.bias f4 [7]
00000000: dc84 b63e 5e3b 653e 6b68 833e 8508 4b3f
00000010: af5f 9a3f 79d6 8e3e bb93 b53d
0.3564824 0.22385928 0.25665602 0.79309875 1.206045 0.27898005 0.08866068

R2.layers.2.weight f4 [7, 7]
00000000: 6783 5e3c c6de 563d 2d3c 85bd 0edc 2f3d
00000010: 16c5 51be 6706 4dbe 6c7a 92bd 37a7 043f
00000020: 83cb e13e 8823 aebf e67f e0bf c21c 89bf
00000030: a51a 553c e7b1 a03e a43c 33bf 1449 96bd
00000040: 3b94 85bd 424b 1b3e 8053 bd3f 2909 b63e
00000050: fefd 3abd a86b 8abe 1df4 5fbe 5852 c7be
00000060: 0d9a 37be 9771 2dbe 847a 16be 696f 5d3e
00000070: ee9c 7bbf bae3 65be 0879 63bf 93cb ca3e
00000080: f9ee de3f 1867 653f ac92 aebd 7dd0 9fbe
00000090: 9760 c33d dd04 9cbe 27d2 d5bd b4cc 6cbe
000000a0: 750b 763c 9b80 83be eff3 5d3f de87 723e
000000b0: 7da0 4bbf 132f a1be d7b2 a5bf 8158 d33e
000000c0: d5d5 1f3f
0.013581133 0.052458547 -0.06505618 0.04293447 -0.20485339 -0.20021974 -0.07152256 0.5181765
0.4410058 -1.3604593 -1.7539032 -1.0711901 0.013006841 0.3138573 -0.70014405 -0.07338157
-0.06522413 0.15165427 1.4791107 0.35553864 -0.045652382 -0.2703526 -0.21870466 -0.3893001
-0.1792986 -0.16937862 -0.14695174 0.21624531 -0.9828633 -0.22450152 -0.88856554 0.3960844
1.7416679 0.89610434 -0.08524069 -0.3121375 0.095399074 -0.3047246 -0.10440474 -0.23124963
0.01501738 -0.25684056 0.8670034 0.23684642 -0.7954176 -0.31481227 -1.2945203 0.4127846
0.62435657

R2.layers.2.bias f4 [7]
00000000: 5d50 3ebe f67d 853e 0df7 283f 1a22 79be
00000010: 1109 0a3f 51e0 5cbd af7d ae3d
-0.18585344 0.26072663 0.6600197 -0.24329415 0.53920084 -0.053924862 0.08520066

R2.layers.4.weight f4 [1, 7]
00000000: a271 9abc c513 343f 0e40 6dbf 5a3b 90bd
00000010: 04eb 81bf 3fa6 843c edef 473f
-0.018853012 0.70342666 -0.92675865 -0.070425704 -1.0149846 0.016192554 0.7810047
