models/optimization/IN_100_3_0.0006850281230727373_0.9735693529511831_4_6.pt (torch, 22298 bytes, 18 tensors)

weight f4 [3, 9]
0	0x3f08b186	0.5339588
1	0x3c5caeae	0.013469381
2	0x3e31b4ba	0.17354098
3	0xbf0fc782	-0.561638
4	0xbb0baec9	-0.0021313897
5	0xbe0561f9	-0.13025655
6	0x3f73d8ca	0.9525267
7	0xbd91529b	-0.07095834
8	0x3f355134	0.7082703
9	0xbdbfae24	-0.093593866
10	0x3e72afa4	0.23699814
11	0xbe02bdea	-0.12767759
12	0xbeec0733	-0.46099243
13	0xbe9e1d45	-0.30881706
14	0xbda11af3	-0.07866468
15	0x3dc78b88	0.0974341
16	0xbedb4427	-0.42825434
17	0x3f048d2b	0.51777905
18	0x3e854e9e	0.26036543
19	0x3df6ab4a	0.120443895
20	0x3e77ee58	0.24212015
21	0xbe1e9969	-0.15488209
22	0x3ddc8b3b	0.107687436
23	0xbe7517ac	-0.23934811
24	0x3ed98a14	0.42488158
25	0x3cae3c07	0.021268858
26	0x3f1f97f8	0.6234126

bias f4 [3]
0	0xbdb13435	-0.08652536
1	0x3e4e2e19	0.20134772
2	0x3e088a4a	0.13334003

weight f4 [3, 3]
0	0xbf6b6be1	-0.91961485
1	0x3f29e3a8	0.66363
2	0x3f05664e	0.5210923
3	0xbf10be0c	-0.5653999
4	0x3ca7bc23	0.020475453
5	0xbf126720	-0.57188606
6	0xbf52642a	-0.8218409
7	0x3ba847f3	0.00513553
8	0x3f180b01	0.5939179

bias f4 [3]
0	0x3b3812dc	0.0028087413
1	0xbe6f91bc	-0.23395437
2	0x3da3280f	0.07966625

weight f4 [3, 3]
0	0xbf34e4df	-0.7066173
1	0x3edc96e4	0.4308387
2	0xbf82d089	-1.021989
3	0x3ee65cb0	0.4499259
4	0xbd995cf0	-0.074884295
5	0x3e83f587	0.2577326
6	0xbf744c58	-0.9542899
7	0x3e26337c	0.16230577
8	0xbf65f742	-0.8983041

bias f4 [3]
0	0x3e62851f	0.22121094
1	0x3ddbd4cc	0.10733947
2	0xbe77c51e	-0.24196288

weight f4 [3, 6]
0	0x3ec4da50	0.3844781
1	0xbeb02916	-0.34406346
2	0xbea93ca1	-0.3305407
3	0xbe4a0e53	-0.19732027
4	0xbbee4e2d	-0.007272503
5	0x3e917597	0.28410026
6	0xbe8781d1	-0.2646623
7	0xbd30ab11	-0.04313189
8	0x3e16b36b	0.1471688
9	0x3cb9ff47	0.022704734
10	0x3c46ae70	0.01212655
11	0x3e1444c6	0.1447936
12	0xbdc960ee	-0.09832941
13	0x3ee4ae82	0.4466439
14	0xbd5742fd	-0.05255412
15	0xbdbed9d5	-0.09318892
16	0x3ebb518d	0.36585656
17	0xbeffcc9a	-0.49960786

bias f4 [3]
0	0xbd35e5fa	-0.044408776
1	0xbeb0559a	-0.3444031
2	0x3e8a66f5	0.27031675

weight f4 [3, 3]
0	0xbe3c86a3	-0.18410735
1	0xbdc402e1	-0.095708616
2	0x3f0d0fbd	0.5510214
3	0x3e3ddd39	0.18541421
4	0xbde22e57	-0.11043995
5	0xbe39af79	-0.18133344
6	0x3ee5dc91	0.4489484
7	0xbf1a352a	-0.6023737
8	0x3efabe7f	0.48973462

bias f4 [3]
0	0x3d8314c2	0.064004436
1	0x3f3641d3	0.7119419
2	0xbedf2334	-0.43581545

weight f4 [3, 3]
0	0xbf2d7f80	-0.67772675
1	0xbf287de3	-0.6581709
2	0x3e5cb4d8	0.21553361
3	0x3eefe052	0.4685083
4	0xbc7bbe0a	-0.015365133
5	0x3efc85e5	0.49320903
6	0xbed3a81c	-0.41339195
7	0x3e5c37c9	0.21505655
8	0x3f2e1b97	0.6801085

bias f4 [3]
0	0xbedeb50b	-0.434975
1	0x3e7e0576	0.2480677
2	0xbca3829d	-0.019959742

weight f4 [3, 9]
0	0x3de68f35	0.11257783
1	0x3d18cb3e	0.0373032
2	0xbee0a699	-0.43877104
3	0x3e090dd1	0.13384177
4	0x3e7c2321	0.24622776
5	0x3c81c18e	0.015839364
6	0xbe87d667	-0.26530764
7	0x3ee0abb3	0.43880996
8	0xbf1fecef	-0.62470907
9	0xbeab6272	-0.33473545
10	0x3cbdc90b	0.023167154
11	0xbe2faf36	-0.17156681
12	0xbe602c3f	-0.21891879
13	0x3dcec106	0.1009541
14	0xbd33025a	-0.043703414
15	0xbf2bfbe7	-0.6718125
16	0x3f240a25	0.6407798
17	0xbe17b6eb	-0.14815871
18	0xbe50201f	-0.20324753
19	0x3ef47eb0	0.47752905
20	0x3eca6fc7	0.39538404
21	0xbf085cbb	-0.53266495
22	0x3eec4ae2	0.4615088
23	0xbdd8ea78	-0.10591596
24	0x3f21e6c0	0.6324272
25	0xbc6ff6fb	-0.014646287
26	0x3ed46b72	0.41488224

bias f4 [3]
0	0x3e069fbd	0.13146873
1	0x3e82fcb2	0.25583416
2	0x3e93d9f1	0.28877214

weight f4 [3, 3]
0	0x3eedad15	0.46421114
1	0x3f681077	0.90650123
2	0xbf0738b9	-0.52820927
3	0x3f18965d	0.59604436
4	0x3f28f56b	0.6599948
5	0xbf3c99bd	-0.73672086
6	0xbed19a8e	-0.40938228
7	0x3dc7f7c5	0.09764055
8	0x3f5acb11	0.85466105

bias f4 [3]
0	0x3df441ea	0.119266346
1	0x3f2bec0f	0.6715707
2	0x3e8bf344	0.27334034

weight f4 [1, 3]
0	0x3f6d37a6	0.9266304
1	0x3f00f873	0.50379103
2	0xbf3fdc2e	-0.7494534

E f4 [900, 3]
0	0xbf5154c4	-0.8176997
1	0x3f024349	0.5088392
2	0xbfa9c0c2	-1.326195
3	0xbf4356d3	-0.7630436
4	0x3ef967c3	0.48711976
5	0xbfa25bad	-1.2684227
6	0xbf76630a	-0.9624487
7	0x3f189750	0.59605885
8	0xbfc1ffa1	-1.5156137
9	0xbf7514ec	-0.9573505
10	0x3f168848	0.588017
11	0xbfc05d53	-1.502848
12	0xbf4e0ce8	-0.80488443
13	0x3f07d2dc	0.5305612
14	0xbfac3a4c	-1.3455291
15	0x3e62851f	0.22121094
16	0x3ddbd4cc	0.10733947
17	0xbe77c51e	-0.24196288
18	0xbeab0bd8	-0.33407474
19	0x3e8ee406	0.27908343
20	0xbf44d858	-0.76892614
21	0x3e0d1d98	0.1378082
22	0x3e043c2c	0.12913579
23	0xbea1e5fc	-0.31620777
24	0xbf96ea06	-1.1790168
25	0x3f27050c	0.65242076
26	0xbfdaa373	-1.7081131
27	0x3e0d1d98	0.1378082
28	0x3e043c2c	0.12913579
29	0xbea1e5fc	-0.31620777
30	0x3e62851f	0.22121094
31	0x3ddbd4cc	0.10733947
32	0xbe77c51e	-0.24196288
33	0xbf7d9fe4	-0.990721
34	0x3f13aee2	0.57688725
35	0xbfc10d24	-1.5082135
36	0xbf836397	-1.0264767
37	0x3f1771d8	0.59158087
38	0xbfc5f711	-1.5466024
39	0x3a973c00	0.0011538267
40	0x3e3bd7b4	0.18344003
41	0xbeebdacc	-0.46065366
42	0x3ddeea47	0.108845286
43	0x3e10054a	0.14064518
44	0xbeb192a8	-0.34682202
45	0xbfb3d6d3	-1.4049934
46	0x3f42514c	0.759053
47	0xbffbdac9	-1.9676143
48	0xbf251bdc	-0.64495635
49	0x3edf122e	0.43568558
50	0xbf91ac6e	-1.1380746
51	0xbfb5549e	-1.4166448
52	0x3f42c366	0.76079404
53	0xbffcfa44	-1.9763875
54	0x3e62851f	0.22121094
55	0x3ddbd4cc	0.10733947
56	0xbe77c51e	-0.24196288
57	0xbf3d6f3b	-0.7399785
58	0x3f01c8ec	0.5069721
59	0xbfa3cabb	-1.2796243
60	0xbf443dae	-0.76656616
61	0x3f04b3a5	0.51836616
62	0xbfa784ec	-1.308744
63	0x3e62851f	0.22121094
64	0x3ddbd4cc	0.10733947
65	0xbe77c51e	-0.24196288
66	0xbf387449	-0.7205244
67	0x3f00a068	0.5024476
68	0xbfa1a9be	-1.2629926
69	0xbf3da057	-0.74072784
70	0x3f02d6cd	0.5110901
71	0xbfa47e2f	-1.2851008
72	0xbf519738	-0.81871367
73	0x3f025bc0	0.5092125
74	0xbfa9e2b1	-1.3272306
75	0x3e62851f	0.22121094
76	0x3ddbd4cc	0.10733947
77	0xbe77c51e	-0.24196288
78	0x3e0d1d98	0.1378082
79	0x3e043c2c	0.12913579
80	0xbea1e5fc	-0.31620777
81	0x3e0d1d98	0.1378082
82	0x3e043c2c	0.12913579
83	0xbea1e5fc	-0.31620777
84	0xbf3fb06d	-0.7487858
85	0x3ef68122	0.48145396
86	0xbfa06dd7	-1.253352
87	0xbfb406a6	-1.4064529
88	0x3f3dde86	0.7416767
89	0xbff93bdb	-1.9471391
90	0xbf6af8fe	-0.9178618
91	0x3f0c73ce	0.54864204
92	0xbfb74e02	-1.4320681
93	0xbfb1bb62	-1.388531
94	0x3f3c556a	0.7356783
95	0xbff6fc3f	-1.9295729
96	0xbf9322ad	-1.1494957
97	0x3f2402f2	0.64066994
98	0xbfd6a42a	-1.6768849
99	0x3e0d1d98	0.1378082
100	0x3e043c2c	0.12913579
101	0xbea1e5fc	-0.31620777
102	0xbc3089c0	-0.01077503
103	0x3e40b25a	0.18818036
104	0xbef24f7a	-0.4732626
105	0xbf87a3ea	-1.0596898
106	0x3f19bc9d	0.60053426
107	0xbfc9cae2	-1.576504
108	0x3e0d1d98	0.1378082
109	0x3e043c2c	0.12913579
110	0xbea1e5fc	-0.31620777
111	0xbf86d8de	-1.0534933
112	0x3f236e9c	0.6384065
113	0xbfcf48e8	-1.6194124
114	0xbf86fccf	-1.0545901
115	0x3f2208c8	0.6329465
116	0xbfce8200	-1.6133423
117	0x3e62851f	0.22121094
118	0x3ddbd4cc	0.10733947
119	0xbe77c51e	-0.24196288
120	0x3e62851f	0.22121094
121	0x3ddbd4cc	0.10733947
122	0xbe77c51e	-0.24196288
123	0xbf55c40c	-0.8350227
124	0x3f0a1ef2	0.5395347
125	0xbfafd584	-1.3737035
126	0x3e0d1d98	0.1378082
127	0x3e043c2c	0.12913579
128	0xbea1e5fc	-0.31620777
129	0xbf5e4e94	-0.8683865
130	0x3f076b52	0.5289813
131	0xbfb09c5d	-1.3797718
132	0x3e0388a1	0.12845089
133	0x3e080af1	0.13285424
134	0xbea6f665	-0.3260986
135	0x3e62851f	0.22121094
136	0x3ddbd4cc	0.10733947
137	0xbe77c51e	-0.24196288
138	0xbf486fc6	-0.7829555
139	0x3f07e538	0.53084135
140	0xbfaaac28	-1.3333788
141	0xbf368ef4	-0.7131188
142	0x3eff381e	0.49847502
143	0xbfa07fdd	-1.2539021
144	0xbf3ca3f4	-0.7368767
145	0x3f023444	0.50861
146	0xbfa3d2a3	-1.2798656
147	0xbf5ce264	-0.86282945
148	0x3f06d561	0.5266934
149	0xbfafd8b0	-1.3738003
150	0xbf512750	-0.8170061
151	0x3f019860	0.5062313
152	0xbfa94b07	-1.3226022
153	0x3e0d1d98	0.1378082
154	0x3e043c2c	0.12913579
155	0xbea1e5fc	-0.31620777
156	0x3e0d1d98	0.1378082
157	0x3e043c2c	0.12913579
158	0xbea1e5fc	-0.31620777
159	0x3e0d1d98	0.1378082
160	0x3e043c2c	0.12913579
161	0xbea1e5fc	-0.31620777
162	0xbfcf4c01	-1.619507
163	0x3f53d4b6	0.82746446
164	0xc00b1e33	-2.1737182
165	0xbf8887f6	-1.0666492
166	0x3f1b027c	0.60550666
167	0xbfcb149a	-1.5865662
168	0xbf8e5ba8	-1.1121721
169	0x3f2036a8	0.625834
170	0xbfd1973e	-1.637428
171	0xbf47eac8	-0.7809262
172	0x3f04d7b6	0.5189165
173	0xbfa8a721	-1.3176004
174	0xbf531534	-0.8245423
175	0x3f0a45fa	0.54013026
176	0xbfaf29c9	-1.3684627
177	0xbf325659	-0.69663006
178	0x3ef929ac	0.48664606
179	0xbf9d70be	-1.2300031
180	0xbf27047a	-0.65241206
181	0x3eee3300	0.46523285
182	0xbf96dad5	-1.1785532
183	0xbfdb04a4	-1.7110791
184	0x3f5d2586	0.8638538
185	0xc0115010	-2.2705116
186	0xbfdb08f0	-1.7112103
187	0x3f5d28f0	0.8639059
188	0xc0115255	-2.2706501
189	0xbfce545c	-1.6119494
190	0x3f530fe4	0.8244612
191	0xc00a9b52	-2.16573
192	0xbf35e2c7	-0.7104916
193	0x3efd72dc	0.49501693
194	0xbf9fc3df	-1.248165
195	0xbf3b2b48	-0.73112917
196	0x3f002e72	0.5007087
197	0xbfa229db	-1.2669023
198	0x3e62851f	0.22121094
199	0x3ddbd4cc	0.10733947
200	0xbe77c51e	-0.24196288
201	0xbf5a922e	-0.853793
202	0x3f0d4b76	0.5519327
203	0xbfb3261a	-1.3996003
204	0x3e0d1d98	0.1378082
205	0x3e043c2c	0.12913579
206	0xbea1e5fc	-0.31620777
207	0x3e62851f	0.22121094
208	0x3ddbd4cc	0.10733947
209	0xbe77c51e	-0.24196288
210	0xbc206c10	-0.009791389
211	0x3e404be3	0.18778948
212	0xbef1c734	-0.47222292
213	0xbf741032	-0.9533721
214	0x3f101099	0.56275326
215	0xbfbc1bf4	-1.4696031
216	0xbf800b45	-1.0003439
217	0x3f14d7e1	0.58141905
218	0xbfc276e1	-1.5192529
219	0xbf6e6fce	-0.9313935
220	0x3f0af302	0.5427705
221	0xbfb75eb8	-1.4325781
222	0xbf845e56	-1.0341289
223	0x3f1ced4a	0.61299574
224	0xbfc9e261	-1.577221
225	0xbf36db20	-0.7142811
226	0x3eef7bec	0.46774232
227	0xbf9bc2b9	-1.21688
228	0xbf3a83b1	-0.72857195
229	0x3ef26446	0.47342128
230	0xbf9db1b4	-1.2319856
231	0x3e0d1d98	0.1378082
232	0x3e043c2c	0.12913579
233	0xbea1e5fc	-0.31620777
234	0x3e62851f	0.22121094
235	0x3ddbd4cc	0.10733947
236	0xbe77c51e	-0.24196288
237	0xbf312f1c	-0.6921251
238	0x3efb2f42	0.49059492
239	0xbf9dbb4d	-1.2322785
240	0xbf58af62	-0.8464261
241	0x3f0e7580	0.5564804
242	0xbfb3534a	-1.4009793
243	0xbf4e3444	-0.805485
244	0x3f095458	0.53644323
245	0xbfad31da	-1.3530838
246	0x3e0af936	0.13571629
247	0x3e051617	0.12996708
248	0xbea307cf	-0.31841895
249	0x3e0d1d98	0.1378082
250	0x3e043c2c	0.12913579
251	0xbea1e5fc	-0.31620777
252	0x3e62851f	0.22121094
253	0x3ddbd4cc	0.10733947
254	0xbe77c51e	-0.24196288
255	0xbf4cc80e	-0.7999276
