models/optimization/IN_100_7_0.028402755399642984_0.5948743664962141_4_8_state_dict.pt (torch, 7633 bytes, 17 tensors)

R1.layers.0.weight f4 [7, 9]
0	0x3d2e3a20	0.0425359
1	0xbe9e8747	-0.30962583
2	0xbda1ab78	-0.07894033
3	0xbe7a3e5e	-0.24437854
4	0xbf03404c	-0.51269984
5	0x3eb972e2	0.3622046
6	0x3f1eb572	0.61995614
7	0x3f211267	0.62918705
8	0x3e15b795	0.14620812
9	0xbd18c2bf	-0.0372951
10	0x3e41584e	0.18881342
11	0xbe7af29a	-0.24506608
12	0xbc902e61	-0.01760024
13	0x3d999798	0.07499617
14	0x3eba855d	0.36429873
15	0x3e800624	0.25004685
16	0x3f7b97df	0.9827861
17	0xbf499383	-0.7874071
18	0xbdb89ae2	-0.090139166
19	0xbd84183c	-0.06449935
20	0xbea16b10	-0.31526995
21	0x3db1fdb4	0.08690968
22	0x3d2abd93	0.0416847
23	0x3ea3bf47	0.3198187
24	0xbe0f3a6a	-0.13987127
25	0xbd60c93d	-0.054879416
26	0xc03ce9b8	-2.951765
27	0xbd2bc8eb	-0.041939657
28	0xbe59e0b6	-0.21277127
29	0xbe827850	-0.25482416
30	0xbdff2c1b	-0.12459584
31	0xbe8045c6	-0.25053233
32	0x3e4184de	0.18898341
33	0xbe544a0e	-0.20731375
34	0x3dcaf526	0.099100396
35	0x3e09e0ee	0.1346471
36	0x3d0e9fa6	0.03482022
37	0xbeb6b694	-0.3568617
38	0xbd74300b	-0.05961613
39	0xbd6e82d9	-0.058230255
40	0xbe9ad991	-0.30244115
41	0x3e649279	0.223215
42	0xbc5a58ce	-0.013326837
43	0xbd3ff4cd	-0.04686432
44	0xbd85cb3f	-0.06532907
45	0x3e53e9ff	0.20694731
46	0xbe00bb5d	-0.12571473
47	0x3ee3150d	0.44351998
48	0xbe5c6c63	-0.21525721
49	0x3df60e48	0.12014443
50	0xbee56db0	-0.44810247
51	0xbe11eb2c	-0.14249867
52	0x3d18287c	0.037147984
53	0x4060ffb5	3.515607
54	0x3ef26f6a	0.47350627
55	0xbed74605	-0.42045608
56	0x3ed9495e	0.42438787
57	0xbe8cdbfc	-0.27511585
58	0x3de1f238	0.11032528
59	0xbebb3421	-0.3656321
60	0x3eab9d81	0.33518603
61	0x3ea3389b	0.31879124
62	0x3f4a55f7	0.7903742

R1.layers.0.bias f4 [7]
0	0xbf2ad57f	-0.6673202
1	0xbbb7e4e4	-0.0056120027
2	0x3da6368d	0.081158735
3	0x3b8fffab	0.0043944917
4	0xbe4253a3	-0.18977217
5	0x3c9190ff	0.017769335
6	0x3d066277	0.032808747

R1.layers.2.weight f4 [7, 7]
0	0xbe797553	-0.24361162
1	0xbe5ffb98	-0.21873319
2	0xbeab9646	-0.33513087
3	0x3e34e3aa	0.17664972
4	0x3e96745b	0.29385647
5	0xbe279de4	-0.16368824
6	0x3d8ed4e0	0.069741964
7	0x3e22f53a	0.15913859
8	0xbe2d3349	-0.16914095
9	0xbf37bfd5	-0.7177709
10	0x3e2aa2f0	0.16663718
11	0x3eb00bb4	0.3438393
12	0x3f1c6edb	0.6110665
13	0xbe98c984	-0.29841244
14	0x3f0c06a7	0.5469765
15	0x3e7692f5	0.24079497
16	0x3e45b8f2	0.19308832
17	0x3e9c3724	0.3051082
18	0xbc1d8e0f	-0.009616389
19	0x3e347f80	0.17626762
20	0xbed423ac	-0.41433465
21	0x3e913c51	0.2836633
22	0x3e0e2b23	0.13883643
23	0x3f36b658	0.71371984
24	0xbdf46ee0	-0.1193521
25	0x3c54b182	0.012981774
26	0x3ee5e2fb	0.44899735
27	0x3d454e54	0.048170403
28	0x3f409c7d	0.7523878
29	0x3dcfecc3	0.101525806
30	0x3eb16ef8	0.34654975
31	0x3eab01ef	0.33399913
32	0xbe1438f3	-0.1447485
33	0x3f17fed5	0.5937322
34	0xbecdbe35	-0.4018418
35	0xbdf0d328	-0.11759025
36	0x3e3c373d	0.18380447
37	0xbfecf2f9	-1.8511649
38	0x3e126eba	0.14300051
39	0xbe979604	-0.2960664
40	0xbffe9a9c	-1.9890933
41	0xbe86d1fe	-0.26332086
42	0x3ef8a6b1	0.48564675
43	0x3e92d748	0.28679872
44	0x3f01f8cd	0.50770265
45	0xbeb7c3ac	-0.35891473
46	0x3c7b97e2	0.015356036
47	0x3e72635b	0.23670714
48	0xbe586626	-0.21132717

R1.layers.2.bias f4 [7]
0	0xbebefda6	-0.37302893
1	0x3e36a4b2	0.17836264
2	0xbda4cfba	-0.08047433
3	0xbc3d6c01	-0.011561395
4	0x3dc8aa9a	0.09798165
5	0x3ee16f71	0.44030336
6	0xbda64c52	-0.08120026

R1.layers.4.weight f4 [3, 7]
0	0xbe0c2843	-0.13687234
1	0x3f177418	0.5916152
2	0x3ef3a324	0.47585404
3	0x3ef933d5	0.48672357
4	0x3f194a42	0.59878933
5	0xbad8e16a	-0.0016546671
6	0x3ef0e9ce	0.4705338
7	0xbe1106c4	-0.14162737
8	0xbe7b0af4	-0.24515897
9	0xbec4b277	-0.38417408
10	0x3d0d8ffa	0.034561135
11	0xbeb710e9	-0.3575509
12	0x3fde02d9	1.7344619
13	0xbe1ed49d	-0.15510793
14	0xbe83e5ba	-0.25761205
15	0x3edff0bf	0.43738362
16	0x3d287cc2	0.041134603
17	0x3f05e4cf	0.5230226
18	0x3edfc053	0.4370142
19	0xbf393d86	-0.723595
20	0x3f12de2d	0.57370263

R1.layers.4.bias f4 [3]
0	0x3e9d0b29	0.30672577
1	0x3d39a583	0.04532386
2	0xbdcd74a1	-0.10032011

O.layers.0.weight f4 [7, 6]
0	0xbdc1df23	-0.09466388
1	0x3d9bc2ae	0.076054916
2	0xbc305a48	-0.010763712
3	0xbf222a1c	-0.63345504
4	0x3f099247	0.53738827
5	0xbf854d06	-1.0414131
6	0xbf6d444f	-0.92682356
7	0xbea1a87c	-0.31573856
8	0xbf95904f	-1.1684664
9	0xbea60b09	-0.32430294
10	0xbc5cd5fd	-0.013478753
11	0x3e8dd2e2	0.27699953
12	0x3e409098	0.18805158
13	0xbf05b7e9	-0.5223375
14	0xbe428b64	-0.18998486
15	0xbf04d7dc	-0.51891875
16	0x3e38db39	0.18052377
17	0xbe5b6623	-0.21425681
18	0x3daff6a1	0.085919626
19	0x3ef7adf3	0.483749
20	0x3d193faf	0.03741425
21	0x3e30f5c0	0.17281246
22	0xbeddf6ae	-0.43352264
23	0x3ea35232	0.31898648
24	0xbe0e9592	-0.13924244
25	0xbeb89683	-0.3605233
26	0x3e311e9f	0.17296837
27	0x3e925041	0.28576854
28	0x3f4ca0f9	0.79933125
29	0x3d2140bd	0.03936838
30	0xbcc9a114	-0.02461294
31	0xbe181217	-0.1485065
32	0xbd438f07	-0.047743823
33	0x3f1af2b2	0.60526574
34	0x3f9ffb28	1.2498522
35	0xbedbcff5	-0.42932096
36	0x3d74f5d6	0.05980476
37	0xbea1d6d3	-0.3160921
38	0xbeea0782	-0.45708853
39	0x3ef2e537	0.47440502
40	0x3f2a28ab	0.66468304
41	0xbe43eb38	-0.19132698

O.layers.0.bias f4 [7]
0	0x3ebc0431	0.36721948
1	0x3d1e1ed2	0.03860361
2	0xbebdaa8a	-0.37044173
3	0xbf44ef7c	-0.76927924
4	0x3cb900e5	0.022583434
5	0xbee6be0f	-0.45066878
6	0x3f1e9d12	0.6195842

O.layers.2.weight f4 [7, 7]
0	0x3e4639c8	0.1935798
1	0xbeb633de	-0.35586447
2	0x3dc98997	0.09840696
3	0xbe3f7fc6	-0.18701085
4	0xbef1ea8c	-0.47249258
5	0xbe1c427c	-0.15259737
6	0xbeced9cc	-0.4040054
7	0x3cc980ca	0.024597544
8	0xbea94e71	-0.3306766
9	0x3e058e19	0.13042487
10	0xbe81cf9d	-0.2535371
11	0xbe394269	-0.1809174
12	0xbe96de45	-0.29466453
13	0xbe6b1626	-0.22957668
14	0xbd3f85c6	-0.046758436
15	0x3d8df6b3	0.0693182
16	0x3e220bb7	0.15824781
17	0xbee4f664	-0.4471923
18	0xbf16e5db	-0.5894448
19	0xbe11325a	-0.14179364
20	0x3c044c94	0.008074898
21	0xbd957a03	-0.072986625
22	0x3f10265b	0.56308526
23	0x3e1880d3	0.14892893
24	0x3f057c22	0.52142537
25	0xbf1b61a8	-0.60695887
26	0x3e14e395	0.1453994
27	0xbf047051	-0.5173388
28	0xbe3b9de8	-0.18321955
29	0xbebc0e0e	-0.36729473
30	0x3e4909e6	0.19632682
31	0xbeb9bd95	-0.36277452
32	0xbec94bc8	-0.3931563
33	0xbd622779	-0.055213425
34	0x3db171d0	0.08664286
35	0x3ea5e04c	0.32397687
36	0xbeceb835	-0.40374914
37	0x3e8d2ea5	0.2757465
38	0xbe9b38f5	-0.30316892
39	0x3e6be3b6	0.23036084
40	0x3e6545b2	0.22389868
41	0x3e8dc019	0.2768562
42	0x3f21ee64	0.6325438
43	0xbef018de	-0.46893972
44	0x3e252308	0.16126645
45	0x3e20d659	0.15706767
46	0x3e0b1c1b	0.1358494
47	0x3f45f3d7	0.77325195
48	0x3dc15169	0.09439356

O.layers.2.bias f4 [7]
0	0xbf0a7628	-0.5408654
1	0xbd9704c4	-0.07373956
2	0xbf29d0f5	-0.6633447
3	0xbe97dcc5	-0.2966062
4	0xbf08415e	-0.5322474
5	0x3e3e068e	0.18557188
6	0xbeb22a16	-0.34797734

O.layers.4.weight f4 [3, 7]
0	0xbdc5f946	-0.09666686
1	0x3cc1962f	0.023631183
2	0x3da2088d	0.07911787
3	0x3f12664a	0.5718733
4	0x3d823b21	0.06358934
5	0xbeb96979	-0.36213282
6	0x3e3ff943	0.1874743
7	0x3e8efc00	0.27926636
8	0x3dcef593	0.10105433
9	0x3c8e25ad	0.01735195
10	0xbe3cd643	-0.1844111
11	0xbe4aaaf2	-0.19791773
12	0x3e5065d7	0.20351349
13	0x3e904d36	0.28183907
14	0x3dc5048e	0.09620009
15	0xbe4c6c07	-0.19963084
16	0xbe3c7b32	-0.1840637
17	0x3ee2f9e6	0.44331282
18	0x3df1d510	0.118082166
19	0xbdfaee5d	-0.122524954
20	0xbed21ed6	-0.4103915

O.layers.4.bias f4 [3]
0	0xbed38d4f	-0.41318747
1	0xbe6aa2b1	-0.22913624
2	0xbe206ef0	-0.1566732

R2.layers.0.weight f4 [7, 9]
0	0xbfa1b648	-1.2633753
1	0xbd7849a4	-0.060617104
2	0xbefa5597	-0.48893425
3	0xbf8a9b5b	-1.0828661
4	0xbc3dabba	-0.011576587
5	0xbdfe7ef1	-0.12426556
6	0x3ee997ab	0.45623526
7	0xbf098766	-0.53722227
8	0x3ee8e6fe	0.45488733
9	0x3d1e9f82	0.038726337
10	0xbe53a26f	-0.20667432
11	0xbf339c8e	-0.7016076
12	0xbd23916c	-0.039933607
13	0x3e1762b9	0.14783753
14	0xbe5e7ef0	-0.2172811
15	0x3f331d77	0.69966835
16	0xbecc6b27	-0.399255
17	0x3f038fef	0.513915
18	0xbdf61f72	-0.120177165
19	0x3d7bfb2a	0.061518826
20	0xbf0bd684	-0.546242
21	0x3e140d10	0.14458108
22	0xbe47e8e8	-0.1952244
23	0x3e4c664a	0.19960895
24	0x3d09745f	0.033558246
25	0xbf29403b	-0.6611363
26	0x3f6383e4	0.88873124
27	0x3dcad9ac	0.09904799
28	0xbe37e486	-0.17958269
29	0x3cfdf0e6	0.030998658
30	0x3ed6c064	0.41943657
31	0x3da7725e	0.08176111
32	0xbed33c22	-0.41256815
33	0x3eda73dc	0.4266652
34	0xbe29164f	-0.16512416
35	0x3f833e77	1.0253438
36	0xbe364122	-0.17798284
37	0xbef3b5f8	-0.4759977
38	0x3d952be1	0.0728376
39	0x3ed853c9	0.42251423
40	0xbefcbeac	-0.4936422
41	0x3ddb3c41	0.10704852
42	0xbd7af10c	-0.061265036
43	0x3ea217ab	0.31658682
44	0xbf7497e0	-0.9554424
45	0xbec7495b	-0.38923153
46	0xbde60f5f	-0.112334006
47	0x3e03a765	0.12856825
48	0xbd29815a	-0.041383125
49	0x3e1bf2e3	0.15229373
50	0xbf280d27	-0.6564507
51	0x3e89d197	0.26917717
52	0xbf44898b	-0.76772374
53	0x3efccab1	0.4937339
54	0xbf37ddfd	-0.718231
55	0x3d7898d2	0.060692616
56	0xbe117535	-0.14204867
57	0xbe397be9	-0.18113674
58	0x3e889a66	0.26680297
59	0xbe64e6b9	-0.22353639
60	0xbe6a1051	-0.22857787
61	0x3f2cf0c2	0.6755487
62	0xbf86cfd6	-1.0532176

R2.layers.0.bias f4 [7]
0	0x3e19ea9a	0.150309
1	0x3dad6abf	0.08467626
2	0x3d100e62	0.035169967
3	0x3da24e55	0.07925097
4	0x3f109736	0.5648073
5	0x3e85c0f1	0.26123765
6	0x3e97fdcb	0.29685816

R2.layers.2.weight f4 [7, 7]
0	0xbeb1d2db	-0.34731182
1	0xbea1938a	-0.31557876
2	0xbeaf4777	-0.3423421
3	0xbf8997d0	-1.0749454
4	0x3ea8ad57	0.32944748
5	0xbe89ca98	-0.2691238
6	0x3da0455b	0.078257285
7	0x3e248f5b	0.16070311
8	0xbf25c307	-0.64750713
9	0xbf13423c	-0.5752294
10	0xbf363a3c	-0.7118261
11	0x3f224420	0.633852
12	0xbf2beb0d	-0.67155534
13	0x3e32a1fd	0.17444606
14	0xbe0b59c9	-0.13608469
15	0xbe9e7e4f	-0.3095574
16	0xbf2573cb	-0.6462981
17	0x3db8fdf1	0.090328105
18	0x3e97cb65	0.29647365
19	0xbf4340a9	-0.7627054
20	0x3e22f5c8	0.1591407
21	0x3d2b5e50	0.04183799
22	0xbe5f7a3e	-0.21823975
23	0xbec3851b	-0.3818749
24	0xbf70f38a	-0.9412161
25	0x3e9a8e43	0.30186662
26	0xbef86005	-0.48510757
27	0x3ecce8d2	0.40021378
28	0x3e57a362	0.2105842
29	0xbe5fac1d	-0.21843
30	0xbe1e6963	-0.1546989
31	0xbc8a5a05	-0.016888628
32	0x3e94de41	0.29075816
33	0xbf26c04d	-0.6513718
34	0x3e405624	0.1878286
35	0x3f6e8875	0.93176967
36	0x3e1604bb	0.14650242
37	0x3e21c3ac	0.15797299
38	0xbe806aef	-0.25081584
39	0xbddc53ad	-0.107581474
40	0x3f04ea2a	0.51919806
41	0xbf8fa843	-1.1223224
42	0x3f3d0438	0.7383456
43	0x3f203503	0.6258089
44	0x3f3318bd	0.6995962
45	0xbe87b26f	-0.26503322
46	0xbe378fa5	-0.1792589
47	0x3ed91c3f	0.42404363
48	0xbf425698	-0.7591338

R2.layers.2.bias f4 [7]
0	0x3f10f4d0	0.56623554
1	0x3f2bf560	0.6717129
2	0x3f377ec9	0.71677834
3	0x3f2be97f	0.6715316
4	0x3f33d005	0.7023929
5	0x3e395525	0.18098886
6	0x3e3f0984	0.18655974

R2.layers.4.weight f4 [1, 7]
0	0x3ee8bc1f	0.45456025
1	0x3f409012	0.75219834
2	0x3f60d75b	0.87828606
3	0x3f6def2e	0.92943084
4	0x3f03544a	0.5130049
5	0xbf43acad	-0.7643536
6	0xbf3178d3	-0.6932499
