models/optimization/IN_100_5_0.04964520627685756_0.772920919530466_4_1_state_dict.pt (torch, 7121 bytes, 17 tensors)

R1.layers.0.weight f4 [5, 9]
0.06376663 -0.30531704 0.17423199 0.19816704 -0.7580863 0.24765642 0.33048344 -0.16047715
0.16790263 0.7305208 -0.26385126 1.309719 -0.77447337 0.1906625 -1.0882326 1.9455255
0.050529227 17.493216 0.5196898 -1.3155282 -0.1789726 -0.25926206 -0.78005034 0.23630747
2.2924335 -4.2663193 -0.71829057 -0.38540056 -0.09264525 -1.4016746 0.40414724 -0.008807398
1.2876717 -0.83057487 -0.3101759 -15.703245 0.4035325 -0.9661039 0.38198003 -0.2506546
-0.5019358 -0.42090625 0.41065356 -0.47157472 0.842088
00000000: 1498 823d 8452 9cbe df69 323e 4dec 4a3e
00000010: f211 42bf a599 7d3e 2035 a93e 1f54 24be
00000020: abee 2b3e 6903 3b3f 8317 87be dfa4 a73f
00000030: e343 46bf 083d 433e 354b 8bbf fb06 f93f
00000040: bcf7 4e3d 1bf2 8b41 640a 053f 3a63 a8bf
00000050: 9844 37be ffbd 84be 61b1 47bf 96fa 713e
00000060: 3bb7 1240 b085 88c0 e4e1 37bf 3953 c5be
00000070: cbbc bdbd 136a b3bf 63ec ce3e e84c 10bc
00000080: 6dd2 a43f 8ea0 54bf 60cf 9ebe 7e40 7bc1
00000090: d09b ce3e 9652 77bf e392 c33e cd55 80be
000000a0: dd7e 00bf 0681 d7be 2f41 d23e 3e72 f1be
000000b0: 1493 573f

R1.layers.0.bias f4 [5]
-0.20661697 0.20105654 -0.9749088 0.2128515 -0.39401352
00000000: 6693 53be c4e1 4d3e a093 79bf bef5 593e
00000010: 24bc c9be

R1.layers.2.weight f4 [5, 5]
0.06508814 -2.305845 -0.13593191 -1.4363439 0.3722718 -0.04531948 -3.4551802 -0.24854988
1.381548 -0.023062304 0.018926298 -0.28166753 -0.27836588 -0.24018335 -0.55088234 0.17826764
-0.47777995 -0.04616226 -0.33972898 -0.5473285 0.06873538 1.661884 -0.9623151 -0.08486177
0.26788515
00000000: ee4c 853d f792 13c0 bc31 0bbe 1eda b7bf
00000010: 699a be3e eba0 39bd ac21 5dc0 dc83 7ebe
00000020: 91d6 b03f 28ed bcbc 530b 9b3c ba36 90be
00000030: f985 8ebe a0f2 75be a006 0dbf cb8b 363e
00000040: 939f f4be a314 3dbd f5f0 adbe b81d 0cbf
00000050: 23c5 8c3d 9db8 d43f 485a 76bf 02cc adbd
00000060: 3e28 893e

R1.layers.2.bias f4 [5]
0.69855964 -0.011408912 -0.63470536 -0.70996374 -0.37034723
00000000: ced4 323f 72ec 3abc 0d7c 22bf 2fc0 35bf
00000010: 279e bdbe

R1.layers.4.weight f4 [3, 5]
1.0416622 -0.8824074 0.26357663 -0.09113184 -0.4268475 -0.29393885 0.8601234 -0.475945
-0.44822544 0.7006443 -0.62234867 1.189866 0.004362141 -0.41396737 0.8226608
00000000: 3055 853f 74e5 61bf 84f3 863e 55a3 babd
00000010: c18b dabe 277f 96be 0c31 5c3f 10af f3be
00000020: ce7d e5be 6d5d 333f 3e52 1fbf 874d 983f
00000030: 4af0 8e3b 88f3 d3be e699 523f

R1.layers.4.bias f4 [3]
0.3836349 -0.2508081 -0.17025708
00000000: cb6b c43e eb69 80be df57 2ebe

O.layers.0.weight f4 [5, 6]
-0.5845889 -0.045920923 -0.39814118 0.49643365 -0.705303 -1.052603 1.0946103 -0.539156
1.3372629 0.10836415 -1.0331092 -1.4100648 -1.2676158 -1.1579579 -0.6001515 0.7762292
-1.2758812 -0.9074446 -2.0284796 -0.41582412 -1.948147 -1.3033912 1.1538886 1.1339043
-1.0001726 0.11659326 -1.2463166 2.2491972 -1.4510196 -0.4550576
00000000: 9ea7 15bf 9417 3cbd 29d9 cbbe 8d2c fe3e
00000010: bd8e 34bf b2bb 86bf 311c 8c3f 2106 0abf
00000020: 6e2b ab3f 06ee dd3d ec3c 84bf 017d b4bf
00000030: 3c41 a2bf f737 94bf 87a3 19bf f5b6 463f
00000040: 1350 a3bf 4a4e 68bf 9cd2 01c0 e6e6 d4be
00000050: e25c f9bf 86d5 a6bf 9fb2 933f c723 913f
00000060: a805 80bf 72c8 ee3d 4d87 9fbf d9f2 0f40
00000070: 03bb b9bf 4ffd e8be

O.layers.0.bias f4 [5]
-0.24265398 -0.14866234 -1.3405317 -0.24015819 0.06682422
00000000: 497a 78be f13a 18be 8b96 abbf 07ec 75be
00000010: 23db 883d

O.layers.2.weight f4 [5, 5]
-0.4404121 -0.17214125 -0.018346103 -0.0301577 -0.30117616 -0.56429243 -0.036710817 0.42932576
-1.9287852 -0.7145525 -0.3772421 -0.011087063 0.53386027 -1.2738913 -0.62775105 -0.3524382
-0.36246717 -0.059829887 -0.22328529 -0.26771015 -0.18065506 -0.20196158 -0.061637964 -0.26948124
-0.16579716
00000000: b27d e1be cc45 30be 914a 96bc 480d f7bc
00000010: c333 9abe 7875 10bf 155e 16bd 96d0 db3e
00000020: 6fe2 f6bf eaec 36bf e025 c1be 83a6 35bc
00000030: 11ab 083f df0e a3bf 4bb4 20bf c872 b4be
00000040: 4c95 b9be 2f10 75bd e6a4 64be 4e11 89be
00000050: a4fd 38be 04cf 4ebe 1778 7cbd 72f9 89be
00000060: bbc6 29be

O.layers.2.bias f4 [5]
-0.17629178 -0.03622839 0.35398003 -0.34850731 -0.30827752
00000000: d585 34be 3864 14bd df3c b53e 8d6f b2be
00000010: 8dd6 9dbe

O.layers.4.weight f4 [3, 5]
0.18888593 -0.29385626 0.253025 0.32196417 0.024522087 -0.050859693 -0.092637315 0.0874319
0.1426134 0.12457307 -0.12155868 -0.11235334 -0.09726855 0.2603105 0.40595165
00000000: 506b 413e 5474 96be 7e8c 813e 7dd8 a43e
00000010: 8be2 c83c 4152 50bd a2b8 bdbd 7f0f b33d
00000020: 3f09 123e 2a20 ff3d c2f3 f8bd 8219 e6bd
00000030: bc34 c7bd 6b47 853e e5d8 cf3e

O.layers.4.bias f4 [3]
-0.033231597 0.0027128635 0.018533293
00000000: db1d 08bd 4cca 313b 22d3 973c

R2.layers.0.weight f4 [5, 9]
-0.032580446 -0.23759313 0.21668392 0.087788105 -0.16057101 0.24766341 0.046969794 0.32801944
-0.23842111 -0.38801482 0.50602496 0.14901988 0.32166317 -0.2006266 -0.02443825 -0.2086137
-0.2706237 0.03645915 -0.28756452 0.41088602 -0.1753811 0.23761089 -0.43474427 -0.013292605
-0.45593452 0.39367604 0.68685734 0.1653661 -0.4240483 0.15946925 -0.11684647 -0.06306376
0.029882686 -0.34149316 0.41832682 -0.90397173 0.1246845 0.054282162 -0.071126334 0.06376451
-0.05087047 -0.26789474 0.78097165 -0.5765116 -0.67248386
00000000: 1373 05bd 9d4b 73be 64e2 5d3e 40ca b33d
00000010: ba6c 24be 7a9b 7d3e 6663 403d 2af2 a73e
00000020: aa24 74be e1a9 c6be da8a 013f ab98 183e
00000030: 09b1 a43e 0f71 4dbe ba32 c8bc d49e 55be
00000040: 318f 8abe 3156 153d a83b 93be a75f d23e
00000050: 1a97 33be 4550 733e cd96 debe 3ac9 59bc
00000060: 4070 e9be e88f c93e e2d5 2f3f bb55 293e
00000070: dc1c d9be e84b 233e 344d efbd 9327 81bd
00000080: 89cc f43c 31d8 aebe ef2e d63e b16a 67bf
00000090: 965a ff3d f956 5e3d afaa 91bd f896 823d
000000a0: 8e5d 50bd 8029 89be c2ed 473f 4496 13bf
000000b0: e727 2cbf

R2.layers.0.bias f4 [5]
-0.082104295 -0.25047252 -0.21251768 -0.18889569 0.5148722
00000000: 4c26 a8bd ef3d 80be 3c9e 59be df6d 41be
00000010: aace 033f

R2.layers.2.weight f4 [5, 5]
-0.12333658 -0.016353419 -0.4947144 -0.19907153 -0.6475135 -0.2330352 0.6662154 -0.41817516
-0.13012984 0.06944916 0.00038598664 0.019910423 0.3632277 0.18190502 -1.4577522 -0.22215241
-0.49775493 -0.29928145 0.21153633 -0.20643744 0.026187714 -0.1575975 -0.80329967 -0.41127035
0.46552092
00000000: e497 fcbd 9bf7 85bc 354b fdbe 68d9 4bbe
00000010: 72c3 25bf c8a0 6ebe 188d 2a3f 0e1b d6be
00000020: c240 05be 5c3b 8e3d 405e ca39 2f1b a33c
00000030: fbf8 b93e 4f45 3a3e a097 babf ec7b 63be
00000040: bcd9 febe 6b3b 99be fb9c 583e 5664 53be
00000050: 9e87 d63c 3d61 21be 0ca5 4dbf 0792 d2be
00000060: c258 ee3e

R2.layers.2.bias f4 [5]
-0.082327574 -0.32285112 1.9264449 -0.1388752 1.7833142
00000000: 5c9b a8bd be4c a5be bf95 f63f 4d35 0ebe
00000010: a443 e43f

R2.layers.4.weight f4 [1, 5]
0.1337254 -0.05386784 -0.58344764 -0.27013746 0.90927726
00000000: 50ef 083e 86a4 5cbd d35c 15bf 754f 8abe
00000010: 65c6 683f
