models/optimization/IN_100_7_0.013493736514852332_0.7251458711566321_3_2.pt (torch, 17306 bytes, 18 tensors)

weight f4 [7, 9]
0	0x3e005964	0.125341
1	0xbece5f11	-0.40306905
2	0x3cf80b58	0.030278847
3	0x3dc0762b	0.09397539
4	0x3c294e26	0.010333573
5	0xbe17cd8e	-0.14824507
6	0xbd96a4dc	-0.07355663
7	0xbdd03889	-0.10167033
8	0xbe849907	-0.25898
9	0xbe43a063	-0.19104151
10	0x3dd29d6f	0.10283934
11	0xbee684a4	-0.45023072
12	0xbda21bee	-0.079154834
13	0xbde45a69	-0.11150057
14	0x3ec1d594	0.3785826
15	0xbf293c1f	-0.6610736
16	0xc0235b8f	-2.5524633
17	0xc01026ff	-2.2523801
18	0xbe907823	-0.28216657
19	0x3b9db824	0.004813211
20	0xbf5617e2	-0.8363019
21	0x3ebc3c10	0.36764574
22	0xbc106b1e	-0.008814601
23	0x3f5a19f6	0.85195863
24	0xbd3fc711	-0.046820704
25	0xbecf95ba	-0.4054392
26	0xc0a192b3	-5.0491576
27	0x3ddd8d53	0.10817971
28	0x3e7cb271	0.24677445
29	0x3e7c2726	0.24624309
30	0x3e34ba16	0.17649111
31	0xbe44e5a7	-0.1922823
32	0xbe6d82dc	-0.2319445
33	0x3e3f37e0	0.18673658
34	0xc011859f	-2.2737806
35	0x4077008d	3.8594086
36	0x3d4a26a1	0.049353246
37	0xbed09fa0	-0.40746784
38	0x3db3256a	0.087473705
39	0x3e60f702	0.21969226
40	0xbdccad45	-0.09993986
41	0xbb56a5cc	-0.0032752631
42	0x3e5a7bf4	0.21336347
43	0xbd5edd6d	-0.054410387
44	0xbc0e0273	-0.008667576
45	0x3e442bc9	0.19157328
46	0x3e57e9a7	0.21085225
47	0x3f071a33	0.5277435
48	0xbe86bcef	-0.2631602
49	0xbe6eee3b	-0.23333065
50	0xbed84204	-0.42237866
51	0x3d9d1513	0.07670035
52	0xbefbfd49	-0.4921668
53	0x4090aa4e	4.520789
54	0xbe6b0e84	-0.22954756
55	0xbe0dbe99	-0.13842238
56	0xbe4b419e	-0.1984925
57	0x3e0a5734	0.13509828
58	0xbeb4c423	-0.3530589
59	0x3bccb605	0.0062472844
60	0x3e286a6d	0.16446848
61	0x3e72e0ae	0.23718521
62	0x3dcc73e5	0.09983043

bias f4 [7]
0	0xbe290daf	-0.16509126
1	0x3e05d293	0.13068609
2	0x3e991a3f	0.29902837
3	0x3e19af44	0.15008265
4	0xbe3a8e9b	-0.18218462
5	0x3d679668	0.056539923
6	0xbeca3dcc	-0.39500272

weight f4 [7, 7]
0	0xbe28853a	-0.16457072
1	0xbe56a0d2	-0.20959786
2	0xbf4d9f08	-0.8032079
3	0x3e6339f2	0.22190073
4	0x3e6b2335	0.22962649
5	0xbfe6e6ba	-1.8039162
6	0xbdcc1c74	-0.099663645
7	0xbc56e27c	-0.0131155215
8	0x3cf350b3	0.029701566
9	0x3f5f3d20	0.87202644
10	0xbee58b35	-0.4483277
11	0x3d7ea261	0.062166575
12	0x3ee14817	0.44000313
13	0x3ce85da3	0.028364962
14	0xbe757527	-0.23970471
15	0x3e7488c6	0.238803
16	0x3f6bb4c5	0.9207271
17	0xbcb16ec8	-0.02165927
18	0xbe32ae93	-0.17449407
19	0x3ef870f6	0.48523682
20	0x3e5d4dd4	0.2161172
21	0xbe77c445	-0.24195965
22	0x3ec7906e	0.3897738
23	0xbf9622c8	-1.1729364
24	0x3cb90233	0.022584056
25	0x3e5332a2	0.20624784
26	0x3f37f029	0.7185083
27	0x3e5406d4	0.2070573
28	0x3ce2b7b9	0.027675496
29	0xbec06a5a	-0.3758114
30	0xbfe40487	-1.7813882
31	0x3f003570	0.5008154
32	0xbd954ed6	-0.072904274
33	0x3f27108d	0.6525963
34	0xbe92952f	-0.28629443
35	0x3df7f54e	0.12107335
36	0xbf22582e	-0.634158
37	0x3baa5f6b	0.005199363
38	0xbdea3998	-0.114367664
39	0x3e43a9bc	0.19107717
40	0xbdea484d	-0.114395715
41	0xbdc2fec2	-0.095212474
42	0x3e82939b	0.2550324
43	0x3ec8aa70	0.39192533
44	0xbf4a3428	-0.78985834
45	0x3e6954c7	0.22786246
46	0x3cf73b82	0.030179743
47	0x3e30f3bc	0.17280477
48	0xbe47afa4	-0.19500595

bias f4 [7]
0	0x3f7d2037	0.9887728
1	0x3ce4c721	0.027926983
2	0xbeaf5b16	-0.3424918
3	0xbe88a5d2	-0.2668901
4	0x3ec5517c	0.3853873
5	0xbe2f5f6d	-0.17126246
6	0x3ef31667	0.4747803

weight f4 [3, 7]
0	0x3fd7471e	1.6818578
1	0xbf24f136	-0.6443056
2	0x3ee113f9	0.4396055
3	0x3f766123	0.9624197
4	0xbf83e072	-1.030287
5	0xbe038042	-0.12841895
6	0x3f17ba5a	0.59268725
7	0xbf272b45	-0.653004
8	0x3f75fcf9	0.9608913
9	0x3ed6f5ec	0.41984499
10	0xbed7cdaa	-0.42149097
11	0x3fa43e6b	1.2831548
12	0x3da2be01	0.079463966
13	0x3e9f8e49	0.31163242
14	0x3d9edbd0	0.0775677
15	0x3f359e48	0.70944643
16	0x3edd3047	0.43200895
17	0xbeedd0ed	-0.4644846
18	0x3f909d99	1.1298095
19	0x3a7e2026	0.00096941215
20	0xbede1b1c	-0.43380058

bias f4 [3]
0	0x3e3739b3	0.17893104
1	0x3d00fa80	0.031488895
2	0x3ea0f3cc	0.31436002

weight f4 [7, 6]
0	0x3c845cba	0.016157497
1	0x3e141642	0.14461616
2	0x3dd9ec94	0.10640827
3	0x3f753b8b	0.9579398
4	0x3d132c5f	0.035930987
5	0x3cbfb413	0.023401296
6	0x3e6c5385	0.23078735
7	0x3f1e74c1	0.618969
8	0xbeb71416	-0.35757512
9	0xbf2c46ab	-0.6729533
10	0x3eb44734	0.35210574
11	0xbec12123	-0.37720594
12	0xbd98adec	-0.07455048
13	0xbe1190ff	-0.14215468
14	0x3e0967cf	0.13418506
15	0x3ee294dc	0.44254196
16	0xbf35c976	-0.7101053
17	0x3ef5469b	0.4790543
18	0xbd383f22	-0.044982083
19	0x3dc1522b	0.094395004
20	0x3e5d3ce3	0.21605258
21	0xbf173845	-0.59070235
22	0xbdb1af0f	-0.08675968
23	0x3e1b5240	0.15168095
24	0xbf2c51f3	-0.67312545
25	0xbea765de	-0.32694906
26	0xbf983b4f	-1.18931
27	0xbe6579c5	-0.22409733
28	0x3e151755	0.14559682
29	0xbe2d89a7	-0.16947041
30	0x3f5ced53	0.8629963
31	0xbed748d5	-0.42047754
32	0x3f133bcd	0.57513124
33	0xbe92c9b4	-0.28669512
34	0xbc6eced2	-0.014575677
35	0x3d15324f	0.03642493
36	0xbd3a098b	-0.045419257
37	0xbd7964cc	-0.060887143
38	0xbd1fcf94	-0.03901632
39	0x3f04af20	0.5182972
40	0xbf82e6a4	-1.0226636
41	0xbf520976	-0.82045686

bias f4 [7]
0	0xbf695d0a	-0.9115759
1	0x3df29b5f	0.11846041
2	0xbe90c427	-0.28274652
3	0xbf1f8b51	-0.62321955
4	0xbf17ec61	-0.5934506
5	0x3db23c8d	0.087029554
6	0x3dd1f3e8	0.102515996

weight f4 [7, 7]
0	0x3f0d0c1f	0.5509662
1	0xbe329097	-0.17437969
2	0xbecc4d41	-0.3990269
3	0xbd78d149	-0.060746465
4	0xbe8c442e	-0.27395767
5	0xbd552379	-0.052035782
6	0x3dcb02c8	0.0991264
7	0xbec7bd28	-0.39011502
8	0xbeb7860c	-0.35844457
9	0x3d85b93e	0.06529473
10	0xbe4b0f00	-0.19829941
11	0x3da9fd1b	0.08300229
12	0x3b036960	0.0020051822
13	0x3e22ca96	0.15897593
14	0xbdc0f20b	-0.09421166
15	0xbf04c25b	-0.5185906
16	0x3ddc4f28	0.10757285
17	0x3c38b0ee	0.011272652
18	0xbebc7382	-0.36806875
19	0x3e2bb683	0.16768841
20	0x3d6013e5	0.054706473
21	0xbe87c24a	-0.26515418
22	0xbe0e8bf2	-0.13920572
23	0xbdb17cac	-0.086663574
24	0xbb8f11b1	-0.0043661227
25	0x3f243358	0.64140844
26	0x3f2ced4b	0.6754958
27	0x3f0c44cf	0.54792494
28	0x3f00d808	0.5032964
29	0xbf0345c1	-0.5127831
30	0x3eda6a28	0.42659116
31	0x3d3fff25	0.046874184
32	0xbf1cbec6	-0.612286
33	0xbe938fc3	-0.2882062
34	0x3f2f4ca8	0.68476343
35	0x3e2cd66f	0.16878675
36	0x3f12604e	0.571782
37	0xbf3072d3	-0.6892521
38	0x3e6a9a0f	0.22910331
39	0x3e78d550	0.24300122
40	0xbe21c0e5	-0.1579624
41	0x3ea441e7	0.3208153
42	0xbe0016fb	-0.12508766
43	0xbe89c1ee	-0.2690577
44	0xbe7ca526	-0.24672374
45	0xbe571eb4	-0.21007806
46	0x3d48b2e1	0.048998717
47	0xbe2c2215	-0.16809876
48	0x3bb158f1	0.005412214

bias f4 [7]
0	0xbfb2bd61	-1.3964044
1	0xbeb02675	-0.3440434
2	0xbdcf83f4	-0.1013259
3	0xbf0c19c8	-0.5472684
4	0xbe4768e5	-0.19473608
5	0xbf14943e	-0.580387
6	0xbf02ec35	-0.51141673

weight f4 [3, 7]
0	0x3f3cda9f	0.7377109
1	0x3d220622	0.03955663
2	0x3d941933	0.07231369
3	0xbda36df8	-0.07979959
4	0x3e8b2e68	0.27183843
5	0x3e83c6a5	0.2573749
6	0xbef1c697	-0.47221825
7	0x3e298f75	0.16558631
8	0xbf176283	-0.5913469
9	0x3c40473b	0.011735733
10	0x3e66c0d3	0.22534494
11	0xbdf90501	-0.121591575
12	0x3eec7a8c	0.46187246
13	0xbcf3db23	-0.029767578
14	0xbe924dcb	-0.28574976
15	0x3d1e944b	0.038715642
16	0xbd249e1f	-0.04018986
17	0x3f31707b	0.69312257
18	0xbf0005a3	-0.500086
19	0x3e963f55	0.29345194
20	0x3df524b2	0.1196989

bias f4 [3]
0	0xbed6b567	-0.41935274
1	0xbf3d198e	-0.7386712
2	0x3d5b4cdd	0.0535401

weight f4 [7, 9]
0	0x3ccda2c3	0.025102025
1	0xbe19c850	-0.1501782
2	0x3d621531	0.05519599
3	0xbcee7fb8	-0.029113635
4	0xbebc557f	-0.36783978
5	0xbe29d8a6	-0.16586551
6	0xbf241061	-0.6408749
7	0x3f415d24	0.75532746
8	0x3f7b4d8f	0.9816522
9	0xbf0888f9	-0.53334004
10	0xbe9a7845	-0.30169883
11	0x3e6d0a33	0.23148422
12	0xbea5864f	-0.32329032
13	0x3dc7b9a4	0.09752205
14	0x3f030221	0.51175123
15	0x3db86175	0.090029635
16	0xbf73c528	-0.9522271
17	0xbf15a395	-0.5845273
18	0x3e953543	0.29142198
19	0x3f67c659	0.9053703
20	0x3f13ef74	0.5778725
21	0x3e5591a8	0.20856345
22	0x3ef34907	0.47516653
23	0x3e940cfb	0.28916153
24	0x3f6c48a3	0.92298335
25	0x3f033f39	0.51268345
26	0x3f4c54b3	0.7981674
27	0x3dda003c	0.10644576
28	0xbe764273	-0.24048786
29	0xbf14600f	-0.57959074
30	0xbe45ce5f	-0.19317006
31	0x3d3f8e19	0.046766374
32	0x3eb12a0b	0.3460239
33	0xbf0336c4	-0.5125544
34	0x3ea28695	0.31743303
35	0x3f3d0d2c	0.73848224
36	0x3e969b66	0.29415435
37	0x3ed335a3	0.4125186
38	0x3ee63e6a	0.44969493
39	0xbc661d6f	-0.014045103
40	0x3e64dd55	0.22350056
41	0x3f4c5c6e	0.79828537
42	0xbd3fe673	-0.046850633
43	0xbf8b6d07	-1.0892648
44	0xbf0f953f	-0.56087106
45	0xbd54faa9	-0.05199686
46	0x3e197749	0.1498691
47	0xbe312251	-0.17298247
48	0xbf09762c	-0.5369594
49	0xbe8e4707	-0.27788565
50	0x3de47ebf	0.111569874
51	0x3e5791e3	0.21051745
52	0xbfaf7c83	-1.3709873
53	0xbf504de7	-0.8136887
54	0xbf7c73ee	-0.98614395
55	0xbf052e4c	-0.5202377
56	0x3ca86e10	0.020560294
57	0xbe9fa829	-0.31182984
58	0x3cd9f9d2	0.026608381
59	0x3efc858d	0.4932064
60	0x3eb6c921	0.35700324
61	0x3dbfb23e	0.09360169
62	0xbf26ca8e	-0.65152824

bias f4 [7]
0	0x3de962d9	0.11395807
1	0x3ef8171b	0.48455128
2	0xbf43fb96	-0.76555765
3	0xbde40824	-0.11134365
4	0x3ea01858	0.31268573
5	0x3e8dfb37	0.27730724
6	0xbd8021b6	-0.0625643

weight f4 [7, 7]
0	0xbf328c80	-0.69745636
1	0x3f764464	0.96198106
2	0xbea896c5	-0.32927528
3	0xbe482c51	-0.19548155
4	0x3f5428c5	0.8287471
5	0x3f399ce5	0.7250503
6	0x3eee36ea	0.4652627
7	0xbe48ac92	-0.1959708
8	0x3e9917e8	0.29901052
9	0x3eb35d03	0.350319
10	0xbf2f4800	-0.6846924
11	0x3edd01c5	0.43165413
12	0xbe2cf18b	-0.16889016
13	0x3ef33566	0.47501677
14	0x3f1dd864	0.6165831
15	0xbe562ab1	-0.20914723
16	0xbf1d4b63	-0.61443156
17	0x3e83596f	0.2565417
18	0x3e3e2dbe	0.18572137
19	0xbf7f3262	-0.99686253
20	0xbea62eff	-0.3245773
21	0xbf2d549f	-0.67707247
22	0x3e3e4d36	0.18584141
23	0x3e8afae3	0.27144536
24	0xbf62c33e	-0.88579166
25	0x3d07d454	0.033161476
26	0xbf9e6984	-1.2375951
27	0x3e8f06b4	0.27934802
28	0x3da1067b	0.07862564
29	0x3e8135b4	0.25236285
30	0xbe3efc84	-0.18651015
31	0xbe7bf627	-0.24605618
32	0x3e836b8f	0.25667998
33	0xbe6b8c12	-0.23002651
34	0xbed9fde4	-0.42576516
35	0xbf2c3c33	-0.67279357
36	0x3f1eec35	0.62079173
37	0xbf017691	-0.5057154
38	0xbe53f16b	-0.20697562
39	0x3f4da089	0.8032308
40	0x3f2aeed0	0.6677065
41	0x3f188306	0.59574926
42	0x3f39a151	0.72511774
43	0xbd49ad5d	-0.049237598
44	0xbfd4c6f1	-1.6623212
45	0x3f51baf9	0.8192592
46	0xbd711872	-0.058861203
47	0xbf1b47ef	-0.60656637
48	0xbe49832d	-0.19678946

bias f4 [7]
0	0x3e91ed14	0.2850119
1	0x3ecfb50c	0.40567815
2	0x3f1e9248	0.6194196
3	0x3d6a5739	0.05721209
4	0xbf1aaa56	-0.6041616
5	0x3e9eb99c	0.31000984
6	0x3ea3d8ba	0.32001287

weight f4 [1, 7]
0	0x3f4ed912	0.80799973
1	0x3f3b6758	0.73204565
2	0xbf5c4de0	-0.8605633
3	0xbea29ccf	-0.3176026
4	0x3dfdeb8b	0.12398442
5	0x3f480d5e	0.78145397
6	0xbf839fb8	-1.0283117

E f4 [390, 3]
0	0x3fc0aaf4	1.5052171
1	0xbd23cd50	-0.039990723
2	0x3ef60a10	0.48054552
3	0x3fbc9c33	1.4735168
4	0xbc40918c	-0.011753451
5	0x3edfe4f2	0.4372936
6	0x3fdbeafc	1.7181087
7	0xbc99a570	-0.018755645
8	0x3e1f63a1	0.15565349
9	0x3fbb9d4b	1.4657377
10	0xbdc87360	-0.09787631
11	0x3ebea8f4	0.37238276
12	0x3f0ccfc8	0.5500455
13	0x3f7a22f2	0.9770957
14	0x3f6b721e	0.91971004
15	0xbf0130b0	-0.50464916
16	0x4104cfa6	8.300695
17	0x40b30f6e	5.5956335
18	0x3f676a6b	0.90396756
19	0x3f1219a1	0.57070357
20	0x3f502074	0.8129952
21	0xbf64fcc7	-0.8944821
22	0x40f11bd0	7.534645
23	0x40d0c31a	6.523816
24	0x3fd2251c	1.6417575
25	0xbe8b5290	-0.27211428
26	0x3eb5a1b6	0.35474938
27	0xbf4b285b	-0.7935845
28	0x40c5cb31	6.1810536
29	0x40ac69d1	5.387917
30	0xbf122375	-0.57085353
31	0x409fca54	4.9934483
32	0x40597584	3.3977976
33	0x3fbd74d4	1.4801278
34	0x3dfc37cf	0.12315332
35	0x3efc834d	0.49318925
36	0x3fd8c9c1	1.693657
37	0xbe058679	-0.13039578
38	0x3eeff3b2	0.46865612
39	0xbe9b76ae	-0.30363983
40	0x408597a7	4.1747622
41	0x4070c2d0	3.7618904
42	0xbeab3dce	-0.3344559
43	0x4092c339	4.586331
44	0x40836e8d	4.107245
45	0x3fd57c34	1.6678529
46	0xbdac09e9	-0.08400328
47	0x3e7e499e	0.2483277
48	0xbf0e63ff	-0.5562133
49	0x400f0664	2.234765
50	0x3fc8b6c6	1.5680778
51	0x3fd32254	1.6494851
52	0xbe4a47f2	-0.19754007
53	0x3e942eb7	0.2894189
54	0xbecb2d98	-0.39683223
55	0x4095e11b	4.6837287
56	0x404e5564	3.2239618
57	0x3f2e2220	0.6802082
58	0x3f409a4d	0.75235444
59	0x3f636355	0.88823444
60	0x3fcdc754	1.6076455
61	0xbe24693c	-0.16055769
62	0x3edeb224	0.43495286
63	0xbedf2d98	-0.43589473
64	0x41053d4e	8.327467
65	0x40b4fcff	5.6558833
66	0x3f5416da	0.8284737
67	0x3f465ed4	0.77488446
68	0x3f688573	0.9082863
69	0x3fab3e53	1.3378395
70	0x3ca0d78c	0.01963403
71	0x3ee460ce	0.44605106
72	0x3fc2af96	1.5209835
73	0xbc1fffa4	-0.009765539
74	0x3f03edf8	0.51534986
75	0xbf09bbf0	-0.53802395
76	0x40926f72	4.576104
77	0x4047d156	3.1221519
78	0xbea84d2e	-0.32871383
79	0x408b64a6	4.356036
80	0x407a5f18	3.912054
81	0xbebd06f2	-0.3691936
82	0x409befc3	4.873018
83	0x408b0eda	4.345563
84	0x3fd3351a	1.650058
85	0xbe26f7df	-0.16305493
86	0x3e99c6ad	0.3003439
87	0x3fdea209	1.7393199
88	0xbde6e510	-0.11274159
89	0x3ef2e432	0.47439724
90	0xbdd64352	-0.10462059
91	0x3ff1b694	1.8883843
92	0x3fec8d31	1.8480588
93	0x3fdf9bb4	1.7469392
94	0xbe3f9e79	-0.18712796
95	0x3e684a93	0.22684698
96	0x3fdcc67b	1.7248071
97	0xbe0fa2d2	-0.14026955
98	0x3ef02e69	0.46910408
99	0xbf42fd63	-0.7616789
100	0x410b1dfa	8.6948185
101	0x40f11ab9	7.534512
102	0xbee97ed2	-0.4560457
103	0x40910053	4.5312896
104	0x408145ed	4.039786
105	0x3fd92048	1.6962976
106	0xbe006f0b	-0.1254236
107	0x3ef5c2ce	0.48000187
108	0xbf34c53b	-0.7061345
109	0x40fe04dd	7.9380937
110	0x40dcc767	6.899341
111	0x3fcf1ded	1.6181008
112	0xbd285850	-0.041099846
113	0x3ec8941c	0.39175498
114	0x3fd5fc45	1.6717612
115	0xbcbd4642	-0.02310479
116	0x3f10dab8	0.5658374
117	0xbec2d82e	-0.38055557
118	0x408bc0c5	4.3672814
119	0x40415298	3.0206661
120	0xbedb10ce	-0.42786258
121	0x41098834	8.595753
122	0x40baeeb7	5.84164
123	0x3e0a5eb8	0.13512695
124	0x3f8b2d53	1.0873207
125	0x3f7b43a0	0.9815006
126	0xbeed9ab2	-0.46407086
127	0x408cb17e	4.3966665
128	0x407b1ed8	3.9237576
129	0x3fcc20c2	1.5947497
130	0xbe40b88e	-0.18820402
131	0x3ed137a3	0.4086276
132	0xbedc8c46	-0.4307577
133	0x407d4d90	3.957859
134	0x40638f58	3.555624
135	0xbeb9ad56	-0.36265057
136	0x4078745a	3.8821015
137	0x402d18e0	2.7046432
138	0x3fb892ab	1.441976
139	0x3db116ee	0.086469516
140	0x3ef07773	0.46966133
141	0x3f2220b7	0.6333117
142	0x3f4d0294	0.8008206
143	0x3f6951b8	0.9114032
144	0x3fcbf923	1.5935405
145	0xbe43600d	-0.19079609
146	0x3ecff420	0.4061594
147	0x3fbc3c66	1.4705932
148	0x3ce52633	0.027972316
149	0x3f06af6a	0.5261141
150	0x3fc678c9	1.5505611
151	0xbc1e72f0	-0.009670958
152	0x3f066edc	0.5251291
153	0xbf0c47fb	-0.54797333
154	0x4129c316	10.610128
155	0x41133bda	9.202112
156	0xbf1a7903	-0.603409
157	0x4135d9ca	11.365671
158	0x411d6175	9.836293
159	0xbd3b20f4	-0.045685723
160	0x40d9f2ad	6.8108735
161	0x40c1a161	6.0509496
162	0x3fded8a6	1.7409866
163	0xbe215636	-0.15755543
164	0x3ee8e5ef	0.45487925
165	0x3fdce77a	1.7258141
166	0xbe190e5d	-0.14946885
167	0x3eed213e	0.46314424
168	0x3fda2164	1.704144
169	0xbe025d6d	-0.12730952
170	0x3ef24228	0.47316098
171	0x3fc82d04	1.5638738
172	0xbe3dfe04	-0.1855393
173	0x3ed1965d	0.4093503
174	0x3fbdd6e6	1.4831207
175	0x3d4f06a8	0.050543457
176	0x3eebf916	0.46088475
177	0x3f5b6536	0.8570131
178	0x3ed3d2f7	0.4137189
179	0x3f3d931c	0.74052596
180	0x3f3ef5cb	0.745938
181	0x3ecd4d13	0.40097865
182	0x3f55c39b	0.83501595
183	0x3fe5b5f6	1.7946155
184	0xbea50fc4	-0.3223859
185	0x3ea40593	0.32035503
186	0x3fdfb022	1.7475626
187	0xbe160c4d	-0.1465313
188	0x3eee1371	0.46499208
189	0x3fe7784a	1.8083584
190	0xbe7421f4	-0.23841077
191	0x3ec96b73	0.3933979
192	0x3f4e38fd	0.8055571
193	0x3f18a011	0.5961924
194	0x3f44c080	0.7685623
195	0x3f692314	0.9106915
196	0x3eb5fe44	0.35545552
197	0x3f354f50	0.70824146
198	0xbee4ccee	-0.446876
199	0x4090aec4	4.5213337
200	0x4045b69c	3.0892706
201	0x3fbe1451	1.484995
202	0x3d79d574	0.06099458
203	0x3efb2933	0.4905487
204	0xbec7165a	-0.3888424
205	0x40919651	4.549599
206	0x408222d9	4.066754
207	0xbedbccb4	-0.42929614
208	0x4092f212	4.5920496
209	0x40491a7c	3.1422415
210	0xbeb035be	-0.34416002
211	0x407cbd75	3.9490635
212	0x406404b0	3.562786
213	0x3fc3e3fa	1.5303948
214	0xbe54feaa	-0.20800272
215	0x3ec45e2e	0.38353103
216	0x3fdaa7eb	1.7082494
217	0x3d61c515	0.055119593
218	0x3f23ec43	0.6403238
219	0x3f442f46	0.76634634
220	0x3f28af58	0.65892553
221	0x3f57b0c5	0.84254104
222	0x3fc0c46f	1.5059947
223	0xbde59fdc	-0.112121314
224	0x3eb3a84e	0.35089344
225	0x3fd94554	1.6974282
226	0xbe2d1f8c	-0.16906565
227	0x3e8a581f	0.27020356
228	0x3fb2ab66	1.3958557
229	0xbdf0fa16	-0.1176645
230	0x3eeaa186	0.45826358
231	0xbea38966	-0.31940764
232	0x40894549	4.2897077
233	0x4076db3c	3.857131
234	0xbf0d9e41	-0.553196
235	0x409254d2	4.572854
236	0x4047a492	3.1194196
237	0x3f406066	0.7514709
238	0x3f4fd326	0.8118156
239	0x3f718d23	0.9435598
240	0x3fbe6d0c	1.4877028
241	0x3d4c41b9	0.049867366
242	0x3ee488e0	0.44635677
243	0x3fcc74e4	1.5973172
244	0xbe3b158a	-0.18269935
245	0x3ed3e6aa	0.4138692
246	0xbebbd54a	-0.36686164
247	0x40807721	4.014542
248	0x4067578c	3.6147184
249	0xbed09e76	-0.40745896
250	0x40910cc1	4.532807
251	0x408193de	4.0493
252	0xbed2ab38	-0.41146255
253	0x4089a660	4.3015594
254	0x403d45fc	2.9573965
255	0x3fd2dd91	1.6473867
