models/optimization/IN_1000_4_0.07558815638912764_0.5024482933520933_5_6.pt (torch, 22874 bytes, 18 tensors)

weight f4 [4, 9]
0	0xbeda57e5	-0.42645183
1	0xbede1f6f	-0.43383357
2	0xbeb8d921	-0.36103156
3	0x3ed6cf50	0.41955042
4	0xbf3247ce	-0.69640815
5	0x3f209352	0.6272479
6	0xbe1e2ab2	-0.15445974
7	0xbe8d7012	-0.27624565
8	0xbed526ee	-0.41631263
9	0x3eebd1d9	0.4605854
10	0x3f41cc5e	0.75702465
11	0x3ebd55fc	0.36979663
12	0x3f4259bd	0.7591818
13	0x3e8a4ab0	0.27010107
14	0x3f0eba69	0.5575319
15	0xbe66d5e0	-0.22542524
16	0x3e0ea075	0.13928397
17	0xbe1f8f12	-0.1558192
18	0x3ead4151	0.33838895
19	0x3f418247	0.7558941
20	0x3e8764e5	0.26444164
21	0x3eeaf7c4	0.45892155
22	0x3f048f01	0.51780707
23	0x3f178c76	0.591987
24	0x3f107579	0.5642925
25	0x3ee207e7	0.44146654
26	0x3f03dd75	0.5150979
27	0x3ee83443	0.45352373
28	0x3e05d8d7	0.13070999
29	0x3f3e96fa	0.7444912
30	0x3f422111	0.75831705
31	0x3ebcc70e	0.36870617
32	0x3f2d71ac	0.67751575
33	0x3f04c273	0.51859206
34	0x3f40bec4	0.75291085
35	0x3f30d02c	0.69067645

bias f4 [4]
0	0xbed55a2c	-0.41670358
1	0x3ec4f3ad	0.3846716
2	0x3f3d63b1	0.7398024
3	0x3f043508	0.5164342

weight f4 [4, 4]
0	0xbec7167a	-0.38884336
1	0x3e9581fc	0.29200733
2	0xbee91a9a	-0.45528108
3	0xbee3af32	-0.444696
4	0xbe4e7081	-0.20160104
5	0x3f28f44f	0.65997785
6	0x3f594a1e	0.8487872
7	0x3f67cf13	0.90550345
8	0xbee18f06	-0.4405443
9	0x3e02118e	0.12702009
10	0x3f0378f9	0.51356465
11	0xbee14810	-0.44000292
12	0x3ecdcb6e	0.40194267
13	0xbe698db0	-0.22807956
14	0xbe8ef116	-0.2791831
15	0x3efaa232	0.4895187

bias f4 [4]
0	0xbed3ff50	-0.41405725
1	0x3f176973	0.5914528
2	0x3efab33e	0.48964876
3	0xbe579b54	-0.21055347

weight f4 [3, 4]
0	0x3ec63216	0.38710088
1	0x3f3eb9a8	0.7450204
2	0x3f102cec	0.56318545
3	0xbcdfcb60	-0.027318656
4	0xbde73550	-0.112894654
5	0x3f447b2e	0.7675046
6	0xbf4ed61d	-0.8079546
7	0x3db3d188	0.08780199
8	0x3e616278	0.22010219
9	0x3f1e6260	0.6186886
10	0x3c973d4a	0.018461842
11	0x3ede4210	0.43409777

bias f4 [3]
0	0x3f4a9fbb	0.7914998
1	0xbf655b9e	-0.8959292
2	0x3ec3a058	0.3820827

weight f4 [4, 6]
0	0x3f471655	0.7776845
1	0x3f23ae81	0.63938147
2	0x3de0d3d4	0.10977903
3	0x3d5daac5	0.054117937
4	0xbf5626de	-0.83653057
5	0x3f2bec13	0.67157096
6	0x3ef9b93f	0.48774144
7	0x3e98a0f0	0.29810286
8	0x3f443f49	0.76659065
9	0xbe890915	-0.26764742
10	0x3c049d1d	0.008094099
11	0x3eb94877	0.361881
12	0x3df9de25	0.12200574
13	0xbe806c91	-0.2508283
14	0x3dddbfee	0.10827623
15	0xbf52cc26	-0.82342756
16	0x3ee5a867	0.44855043
17	0xbf23e6a2	-0.6402379
18	0x3d8983fe	0.06714629
19	0xbe4af3bc	-0.1981954
20	0xbe397bbe	-0.1811361
21	0xbe1ba8af	-0.15201066
22	0xbe65557d	-0.22395892
23	0xbea606cf	-0.3242707

bias f4 [4]
0	0x3eb108b3	0.3457695
1	0x3f0f09fc	0.5587461
2	0xbd9be217	-0.076114826
3	0xbdcd4cb0	-0.100243926

weight f4 [4, 4]
0	0x3f2f642c	0.68512225
1	0xbf28c8b8	-0.6593127
2	0x3f5cbfbb	0.8623006
3	0x3dbd7a08	0.09251791
4	0x3e85d722	0.26140696
5	0xbe647ddc	-0.22313637
6	0x3f7164b6	0.942943
7	0x3e2d3e88	0.16918385
8	0xbf12e81a	-0.5738541
9	0xbecd5c90	-0.40109682
10	0xbe180d65	-0.1484886
11	0xbc0b3f80	-0.008499026
12	0xbe993c68	-0.299289
13	0x3db9c20f	0.09070217
14	0xbef0d202	-0.47035223
15	0xbe450e4c	-0.19243735

bias f4 [4]
0	0x3f2c234b	0.6724135
1	0xbf66ed09	-0.90205437
2	0x3e8092c9	0.25111988
3	0xbf48103b	-0.78149766

weight f4 [3, 4]
0	0xbf6573c9	-0.896298
1	0xbed76d5d	-0.42075625
2	0xbedfc435	-0.43704382
3	0x3eafcc39	0.34335497
4	0x3f1b4de0	0.606657
5	0x3f328f90	0.6975031
6	0x3eb03e55	0.34422556
7	0x3f0da050	0.5532274
8	0x3f00525f	0.5012569
9	0x3f3f894a	0.7481886
10	0x3e69ae35	0.22820361
11	0x3ecd08da	0.40045816

bias f4 [3]
0	0x3e0949aa	0.13407007
1	0x3d9414f3	0.07230558
2	0x3f0c0110	0.5468912

weight f4 [4, 9]
0	0x3f42d34d	0.7610367
1	0xbea53972	-0.3227039
2	0xbf020bc3	-0.50799197
3	0x3e268b6f	0.16264127
4	0xbf405472	-0.75128853
5	0xbf34c646	-0.7061504
6	0xbf0168d4	-0.5055058
7	0xbf11795f	-0.5682582
8	0xbf026aa1	-0.5094395
9	0x3ed30a89	0.41218975
10	0xbf01bbde	-0.5067729
11	0xbf32f35b	-0.6990258
12	0x3ed8371a	0.4222954
13	0xbf0a1587	-0.539391
14	0xbe2e021d	-0.16992994
15	0xbf3bea4a	-0.7340437
16	0xbf42807e	-0.75977314
17	0xbf41c4db	-0.75691
18	0xbe7c826b	-0.24659126
19	0xbdf963bb	-0.12177225
20	0xbe6b81e0	-0.22998762
21	0x3e813bde	0.25240988
22	0x38b5eaab	8.674463e-05
23	0x3e840fe7	0.25793383
24	0xbe998f04	-0.29991925
25	0xbe089c98	-0.13340986
26	0x3e9eda62	0.31025988
27	0x3ea409d3	0.32038745
28	0xbf3a72bd	-0.72831327
29	0xbe646cd4	-0.2230714
30	0x3e95d4f0	0.2926402
31	0xbf3ffcb4	-0.7499497
32	0xbe734222	-0.23755696
33	0xbee61363	-0.44936666
34	0xbed00bd4	-0.40634024
35	0xbf26db71	-0.6517859

bias f4 [4]
0	0xbe37e245	-0.17957409
1	0xbe08f28a	-0.13373771
2	0x3c0c5a80	0.008566499
3	0xbf4427ad	-0.7662304

weight f4 [4, 4]
0	0xbf3bb46b	-0.7332217
1	0xbea55378	-0.32290244
2	0xbebc8f48	-0.36828065
3	0x3e038c0b	0.12846391
4	0xbf654cee	-0.8957051
5	0xbf16f6e6	-0.5897049
6	0xbe9cc2b0	-0.30617285
7	0x3ef3fe8d	0.47655144
8	0xbe8b7744	-0.2723943
9	0x3ef3a4b0	0.47586584
10	0xbe8487b2	-0.25884777
11	0xbe566df4	-0.20940381
12	0xbed0cb50	-0.40780115
13	0x3e9b2f6a	0.30309612
14	0xbea6d80a	-0.325867
15	0xbecc8b34	-0.39949954

bias f4 [4]
0	0xbe3d620f	-0.18494438
1	0xbb73c066	-0.0037193536
2	0xbeae9faa	-0.3410619
3	0xbdb32af8	-0.0874843

weight f4 [1, 4]
0	0xbe1830e4	-0.148624
1	0xbb878cc9	-0.004136656
2	0x3ee0f644	0.43937886
3	0xbeb0c35e	-0.34524053

E f4 [920, 3]
0	0x416a3b80	14.639526
1	0x4120e365	10.055516
2	0x412cf2dd	10.809293
3	0x414c6216	12.773947
4	0x4100f933	8.06084
5	0x4113c8b2	9.236498
6	0x416332f8	14.199944
7	0x411ad87b	9.677852
8	0x41277f4e	10.46858
9	0x4160eaee	14.057356
10	0x4116ee56	9.4331875
11	0x412518b2	10.318529
12	0x4137ceba	11.48797
13	0x40d5ee5a	6.6853456
14	0x41026f4c	8.152172
15	0x4132916f	11.160506
16	0x40c7d4f6	6.244746
17	0x40fb1928	7.846821
18	0x406a8237	3.6641977
19	0xbe918634	-0.284227
20	0x40008191	2.007908
21	0x413d5046	11.832098
22	0x40deab90	6.9584427
23	0x410695ea	8.4116
24	0x410775ed	8.46629
25	0x4058578c	3.3803434
26	0x40b29510	5.580696
27	0x4057b2f9	3.3702986
28	0xbeb8242c	-0.35965097
29	0x3feb3081	1.8374177
30	0x409a2fab	4.818319
31	0x3c43eb00	0.011957884
32	0x402b5ab9	2.6774123
33	0x411d08da	9.814661
34	0x409a0d09	4.814091
35	0x40d6e05a	6.7148867
36	0x4077ea35	3.8736699
37	0xbe6c0038	-0.23046958
38	0x40084876	2.1294227
39	0x40804597	4.008495
40	0xbe4891f0	-0.1958692
41	0x400d49e3	2.2076347
42	0x41b9cf30	23.226166
43	0x41825586	16.29176
44	0x4188c36b	17.095419
45	0x41b2a2c0	22.329468
46	0x417477a4	15.279209
47	0x41829389	16.322039
48	0x41b1a0ee	22.203579
49	0x4173d2dc	15.238979
50	0x4181f8b8	16.246445
51	0x41ade866	21.738476
52	0x416c294e	14.760084
53	0x417dc3bf	15.86029
54	0x41500a98	13.002586
55	0x40bef950	5.9679337
56	0x410ac3f6	8.672842
57	0x4104993e	8.287413
58	0x3ffc2717	1.9699429
59	0x40a121a2	5.0353556
60	0x416c70ab	14.777507
61	0x4108245b	8.508876
62	0x412609a6	10.377356
63	0x4187f12f	16.992765
64	0x412d2a50	10.82283
65	0x4143a2f1	12.227281
66	0x40c71d84	6.222353
67	0x3fa764ad	1.3077599
68	0x4072db31	3.7946284
69	0x4145b084	12.355595
70	0x40bf4ca9	5.978108
71	0x4105ac3b	8.354548
72	0x418180ec	16.18795
73	0x411fb776	9.98229
74	0x4138e23e	11.555235
75	0x414c30ed	12.761945
76	0x40e3a598	7.113964
77	0x410ec924	8.924107
78	0x41688505	14.532475
79	0x410f9575	8.973989
80	0x41267f4f	10.406081
81	0x414eec30	12.932663
82	0x40e6edcc	7.216528
83	0x4110aca9	9.042153
84	0x41b70225	22.876047
85	0x418071f6	16.055645
86	0x4186c286	16.844982
87	0x41ab08fb	21.379385
88	0x41683527	14.512977
89	0x4179a11e	15.601835
90	0x41b2520b	22.29006
91	0x417607a8	15.376869
92	0x4182ac24	16.334053
93	0x41af86e2	21.94086
94	0x417177d4	15.091755
95	0x41808bb6	16.068218
96	0x40cadd9e	6.339553
97	0x3eedfb54	0.4648081
98	0x4065202c	3.5800886
99	0x414828db	12.5099745
100	0x40c6f156	6.21696
101	0x41082323	8.508578
102	0x416b9a8e	14.725233
103	0x41087ea0	8.530914
104	0x4125bc6f	10.358504
105	0x40c33039	6.0996366
106	0x3f11e226	0.569857
107	0x405fab5d	3.4948342
108	0x408da1d3	4.426004
109	0xbdb5b450	-0.088722825
110	0x401cca07	2.4498308
111	0x412168b5	10.088063
112	0x406bea98	3.6861935
113	0x40cf8b74	6.485773
114	0x415eba08	13.920418
115	0x40f6178e	7.6903753
116	0x411afbbd	9.68646
117	0x417120fd	15.070554
118	0x4119fd87	9.624396
119	0x412e24ed	10.884015
120	0x418a0933	17.254492
121	0x413eb0d2	11.918169
122	0x414b63b5	12.711843
123	0x4154c7ad	13.298749
124	0x40f868ea	7.762807
125	0x41166a17	9.400901
126	0x4165b2f2	14.356188
127	0x41108d04	9.034428
128	0x41256885	10.338017
129	0x418437e4	16.52729
130	0x413278f6	11.1545315
131	0x4141a6f6	12.103262
132	0x416820c5	14.508
133	0x411140e6	9.078344
134	0x4126d7cf	10.427688
135	0x41858917	16.691938
136	0x4135f433	11.372119
137	0x41441697	12.255515
138	0x414bc774	12.736195
139	0x40e6efac	7.216757
140	0x410f1cf9	8.944573
141	0x4144c8ca	12.299021
142	0x40dd2dc0	6.9118347
143	0x410a0ebd	8.628598
144	0x4105b5c9	8.356881
145	0x40275f60	2.6151962
146	0x40a8eb1c	5.2787
147	0x417f6f90	15.964737
148	0x4129bc56	10.60848
149	0x413a59d8	11.6469345
150	0x415650cc	13.394726
151	0x4109e354	8.618
152	0x411b9b14	9.725361
153	0x413262c0	11.149109
154	0x40c48dc6	6.1423063
155	0x40f9db2c	7.8080044
156	0x41423ea3	12.140292
157	0x40e8ff34	7.2811527
158	0x410ab521	8.669221
159	0x412c4eb9	10.769219
160	0x40ba3a12	5.8195887
161	0x40f078ca	7.5147448
162	0x415e638c	13.899303
163	0x411199dd	9.100064
164	0x41221d58	10.132164
165	0x414a5162	12.644869
166	0x40f86c46	7.763217
167	0x41113765	9.076024
168	0x41346178	11.273796
169	0x40c9a724	6.301653
170	0x40fd7d50	7.921547
171	0x4169509b	14.582179
172	0x411d3dcb	9.827586
173	0x412b4ffa	10.707026
174	0x4150086a	13.002054
175	0x4100ee0e	8.058119
176	0x4115957f	9.348998
177	0x41b855f8	23.041977
178	0x417e5888	15.896614
179	0x41870208	16.875992
180	0x41b90217	23.12602
181	0x418067b5	16.050638
182	0x4187bdab	16.967611
183	0x41c3e3da	24.486256
184	0x418afec0	17.37439
185	0x419093aa	18.072102
186	0x41b6ca83	22.848883
187	0x417c4028	15.765663
188	0x4185e6ae	16.737637
189	0x41c1221c	24.141655
190	0x4188c25d	17.094904
191	0x418e7ba4	17.810371
192	0x40d1ca89	6.5559735
193	0x3f3f5c46	0.74750173
194	0x4071dd81	3.7791445
195	0x40c9dfc9	6.3085675
196	0x3f253afa	0.64543116
197	0x4067e186	3.6231399
198	0x40d79310	6.736702
199	0x3f89d72f	1.0768794
200	0x407e6fb2	3.9755673
201	0x40dd813e	6.9220266
202	0x3f93dc0f	1.1551532
203	0x4082f9f7	4.0930133
204	0x4189cc51	17.224764
205	0x4137385b	11.451259
206	0x4148bc46	12.545965
207	0x419b8806	19.441418
208	0x415c4553	13.766925
209	0x41665aad	14.397138
210	0x41954e87	18.663343
211	0x4151f165	13.121434
212	0x415cd2f9	13.801507
213	0x419516b6	18.63609
214	0x414ecfe5	12.9257555
215	0x415b981a	13.724634
216	0x416e7047	14.902411
217	0x41106376	9.024282
218	0x4129b321	10.606233
219	0x416b2671	14.696885
220	0x412129c8	10.0727005
221	0x412d7e6b	10.843364
222	0x4169bfe9	14.609353
223	0x411dea00	9.869629
224	0x412bbf07	10.734138
225	0x4172dd27	15.178992
226	0x4127a02c	10.476604
227	0x41336b55	11.213704
228	0x413fb3a0	11.981354
229	0x40e22e67	7.0681643
230	0x41085738	8.521294
231	0x4153d4ef	13.239486
232	0x41068d7c	8.409542
233	0x41194ab5	9.580739
234	0x4184086c	16.504112
235	0x412a94cb	10.661326
236	0x413eea03	11.932132
237	0x415b9427	13.72367
238	0x40fd0f78	7.9081383
239	0x411a8bd5	9.659139
240	0x417ae4db	15.680873
241	0x411f5e30	9.960495
242	0x4134bcfd	11.29614
243	0x4188f71d	17.12066
244	0x41378490	11.469864
245	0x414800fe	12.500242
246	0x413238cc	11.138866
247	0x406cddb4	3.7010317
248	0x40e06978	7.0128746
249	0x412d5701	10.833741
250	0x405ce90c	3.451724
251	0x40d8fa20	6.780533
252	0x414506a4	12.314121
253	0x409f2ea0	4.9744415
254	0x41002565	8.00913
255	0x41507422	13.028353
