models/optimization/IN_1000_8_4.714136657698542e-05_0.777686086086705_8_10.pt (torch, 32474 bytes, 18 tensors)

weight f4 [8, 9]
-0.19837625 0.2891116 0.1691893 0.2034138 0.0030851325 -0.19093528 0.24131265 0.27469766
-0.21133366 -0.3149285 0.101907685 -0.24328561 0.11299011 0.31870818 -0.1757517 0.16836958
-0.04792822 0.19485623 -0.013652824 0.19424906 0.11743996 0.035737526 0.08792244 -0.085017726
0.42593652 -0.1951586 0.09450098 0.21223229 -0.0022990098 0.09128805 -0.3099805 -0.12791447
-0.33875245 0.096117854 -0.3614935 0.31612626 0.13872316 0.10013273 0.36271548 -0.18380901
-0.13033113 -0.2455539 0.3950009 -0.3236849 0.23444605 0.12371799 0.12453749 -0.03902246
0.17454556 0.22343636 -0.13721721 -0.56293994 -0.07372671 -0.16429532 0.32612517 -0.006167816
0.23029165 -0.29837942 -0.02719984 -0.2839221 0.2388747 0.061577037 0.5349089 0.15660173
0.019347116 -0.13221051 -0.00316265 -0.020255668 -0.17011182 0.46078557 -0.25192165 0.23665734
00000000: 2523 4bbe 7006 943e f63f 2d3e b54b 503e
00000010: ef2f 4a3b 8a84 43be aa1a 773e 2ca5 8c3e
00000020: da67 58be 4f3e a1be fab4 d03d dd1f 79be
00000030: 5c67 e73d b82d a33e 41f8 33be 1369 2c3e
00000040: 6250 44bd 6488 473e 18b0 5fbc 3ae9 463e
00000050: 5d84 f03d 8361 123d ae10 b43d c61d aebd
00000060: 5a14 da3e a8d7 47be bb89 c13d 6c53 593e
00000070: fcaa 16bb 3bf5 ba3d c4b5 9ebe 03fc 02be
00000080: f670 adbe 70d9 c43d ad15 b9be 4ddb a13e
00000090: 720d 0e3e 6412 cd3d d8b5 b93e 6e38 3cbe
000000a0: 8675 05be 7b72 7bbe 8f3d ca3e 07ba a5be
000000b0: a012 703e dc5f fd3d 830d ff3d 04d6 1fbd
000000c0: 12bc 323e 80cc 643e ab82 0cbe d51c 10bf
000000d0: 08fe 96bd 083d 28be e1f9 a63e 641b cabb
000000e0: 93d1 6b3e 30c5 98be 33d2 debc 3d5e 91be
000000f0: 929b 743e 3438 7c3d caef 083f 345c 203e
00000100: d87d 9e3c 3162 07be 7644 4fbb 37ef a5bc
00000110: cb31 2ebe 16ec eb3e e0fb 80be 4d56 723e

bias f4 [8]
-0.036881316 -0.12834992 -0.2762313 0.4132095 0.13782309 -0.13176957 0.13686058 -0.005118449
00000000: dd10 17bd 296e 03be 306e 8dbe 3290 d33e
00000010: 7f21 0d3e 9aee 06be 2e25 0c3e aab8 a7bb

weight f4 [8, 8]
0.114962995 -0.07371571 0.057456426 -0.20806463 -0.13181284 0.41227686 0.21669227 0.054861106
0.33674735 -0.0023636178 -0.058801197 -0.07171961 0.46982586 0.43313864 0.45128644 0.17715411
-0.050425164 0.30481845 -0.05772607 0.26176652 -0.16410577 -0.13230157 -0.07775664 -0.16814327
-0.08005241 0.11223651 0.2925855 0.048808873 0.47269672 -0.10770492 0.18012623 0.041587874
-0.06597402 -0.1411807 -0.20018184 0.3271927 -0.2771964 -0.34734705 -0.17055653 0.34808594
0.3743542 -0.19642001 0.37527782 0.2532342 0.45535207 -0.33386725 0.55902153 0.21302477
0.24090181 -0.335874 -0.32252988 0.26693833 -0.21782713 -0.26263076 0.18170087 0.12586738
0.11194091 0.16218896 0.23982175 0.088731125 0.12754413 -0.018734843 0.070847526 -0.05722843
00000000: b871 eb3d 43f8 96bd 6e57 6b3d e50e 55be
00000010: f2f9 06be f415 d33e 94e4 5d3e 0ab6 603d
00000020: 266a ac3e ede6 1abb 86d9 70bd bbe1 92bd
00000030: 048d f03e 59c4 dd3e 040f e73e e367 353e
00000040: 9e8a 4ebd 2a11 9c3e 2c72 6cbd 4306 863e
00000050: 580b 28be 107a 07be e03e 9fbd c02d 2cbe
00000060: 85f2 a3bd 41dc e53d c4cd 953e d0eb 473d
00000070: 4e05 f23e 6694 dcbd 0373 383e 0c58 2a3d
00000080: 631d 87bd ac91 10be 78fc 4cbe cd85 a73e
00000090: b0ec 8dbe 79d7 b1be 5fa6 2ebe 5238 b23e
000000a0: 5bab bf3e 5422 49be 6a24 c03e eaa7 813e
000000b0: e823 e93e a6f0 aabe 091c 0f3f 2a23 5a3e
000000c0: f7ae 763e adf7 abbe a322 a5be 24ac 883e
000000d0: 130e 5fbe 8a77 86be cb0f 3a3e 61e3 003e
000000e0: 4741 e53d dd14 263e d593 753e aab8 b53d
000000f0: ee9a 023e d079 99bc 8218 913d 5c68 6abd

bias f4 [8]
0.32588455 0.30746377 -0.04211338 -0.29961455 0.040719334 -0.08750803 -0.33327118 -0.17132232
00000000: 57da a63e e46b 9d3e 147f 2cbd 1467 99be
00000010: 51c9 263d 6937 b3bd 85a2 aabe 1e6f 2fbe

weight f4 [3, 8]
0.22076671 -0.0032132997 0.101031795 -0.065106 -0.26400313 -0.22828962 0.33670652 -0.05303918
-0.3588105 -0.31362373 0.26911217 0.027273512 0.2272344 -0.55085886 0.25123432 -0.11999837
-0.04427719 0.34312385 -0.24776016 0.19978228 0.3084153 0.5681709 -0.18226615 -0.076118916
00000000: ab10 623e 3996 52bb c2e9 ce3d 4b56 85bd
00000010: 6b2b 87be c1c4 69be cc64 ac3e 9c3f 59bd
00000020: 03b6 b7be 4a93 a0be 12c9 893e b36c df3c
00000030: 22b0 683e 1605 0dbf c9a1 803e b5c1 f5bd
00000040: 005c 35bd eead af3e d7b4 7dbe ba93 4c3e
00000050: 9ce8 9d3e a673 113f faa3 3abe 3ce4 9bbd

bias f4 [3]
0.17121649 0.16870017 0.08010675
00000000: 6053 2f3e bdbf 2c3e 020f a43d

weight f4 [8, 6]
0.2493966 -0.44173583 0.3048129 0.07162155 0.137098 -0.39209214 0.08457496 0.15459052
0.08144973 -0.45444676 -0.32272437 -0.37866727 0.24817388 0.1693904 -0.39230955 0.27470648
-0.3932195 0.3817772 0.094187915 0.20161967 0.25977522 -0.30864012 -0.042207778 0.1508442
0.3528759 -0.10786159 0.4288636 -0.31619957 0.18299468 0.33639276 -0.3150696 0.08063883
0.077949524 0.2818759 -0.32311684 -0.10825702 -0.30463874 -0.18808198 0.3111614 -0.05267878
-0.2510199 -0.09397462 -0.102076314 0.2705089 -0.38603276 -0.17589483 -0.28834742 -0.09424457
00000000: d361 7f3e 332b e2be 7010 9c3e 52ae 923d
00000010: 6b63 0c3e 4dc0 c8be a335 ad3d fa4c 1e3e
00000020: 1ecf a63d 3fad e8be 213c a5be ade0 c1be
00000030: 4b21 7e3e ad74 2d3e ccdc c8be 54a6 8c3e
00000040: 1154 c9be 4d78 c33e 98e5 c03d 6375 4e3e
00000050: 4201 853e 1406 9ebe 10e2 2cbd e776 1a3e
00000060: 26ac b43e 8ae6 dcbd 0394 db3e e9e4 a1be
00000070: f562 3b3e ac3b ac3e cd50 a1be f925 a53d
00000080: 00a4 9f3d 0a52 903e 926f a5be dbb5 ddbd
00000090: 9cf9 9bbe 9098 40be 8c50 9f3e b4c5 57bd
000000a0: ae85 80be c475 c0bd 630d d1bd 2480 8a3e
000000b0: 16a6 c5be c61d 34be 46a2 93be 4c03 c1bd

bias f4 [8]
0.22862218 0.48204023 -0.014177411 -0.25887755 0.17494982 0.4272428 -0.40452623 -0.33143997
00000000: ef1b 6a3e facd f63e 5f48 68bc 998b 84be
00000010: 0c26 333e 91bf da3e 101e cfbe 80b2 a9be

weight f4 [8, 8]
-0.20816171 0.40222257 0.06123601 0.07720349 0.3152368 0.009259148 0.031254128 0.39245966
-0.2650782 -0.051344387 -0.2599934 -0.12803218 -0.31364918 -0.075304955 -0.1832086 -0.117293626
-0.068082586 0.38949713 -0.121299915 0.45826837 0.026173025 0.046318892 -0.2598331 0.15594275
0.2090339 -0.31745028 0.18496811 -0.032152925 -0.19692972 -0.19859447 -0.23807417 0.27568159
-0.030273322 -0.097132176 -0.35218227 0.2513433 -0.26992467 -0.27760258 -0.30070826 -0.07949806
-0.06814459 -0.14157021 0.31206006 -0.005527241 -0.47091374 0.26730388 -0.30131653 -0.05327775
0.17596823 -0.368021 0.12493437 0.114938445 0.1820558 0.22449252 0.23463003 -0.1479975
-0.24734862 -0.16240104 0.10930442 0.29193166 0.07022263 0.32224715 0.052277654 0.25175107
00000000: 5828 55be 1ef0 cd3e 9cd2 7a3d dd1c 9e3d
00000010: b866 a13e aeb3 173c 5404 003d 79f0 c83e
00000020: 54b8 87be 7e4e 52bd db1d 85be de1a 03be
00000030: a096 a0be 7c39 9abd 099b 3bbe a437 f0bd
00000040: e26e 8bbd 2b6c c73e 176c f8bd 27a2 ea3e
00000050: d068 d63c e1b8 3d3d d808 85be 75af 1f3e
00000060: fc0c 563e d888 a2be 4868 3d3e c9b2 03bd
00000070: f2a7 49be 595c 4bbe b7c9 73be 2326 8d3e
00000080: c2ff f7bc 3ced c6bd 3c51 b4be 12b0 803e
00000090: 9133 8abe ed21 8ebe 6ff6 99be e1cf a2bd
000000a0: 648f 8bbd c8f7 10be 56c6 9f3e dc1d b5bb
000000b0: 9b1b f1be 0edc 883e 2946 9abe c539 5abd
000000c0: 0431 343e 406d bcbe 97dd ff3d d964 eb3d
000000d0: d66c 3a3e 5ee1 653e db42 703e a88c 17be
000000e0: f548 7dbe 754c 26be ffda df3d 1178 953e
000000f0: e2d0 8f3d 94fd a43e 1821 563d 84e5 803e

bias f4 [8]
-0.0780868 -0.058486465 0.10711803 0.023085538 -0.06295449 0.2007128 -0.0028465374 0.302486
00000000: f9eb 9fbd 818f 6fbd b360 db3d e21d bd3c
00000010: 49ee 80bd a887 4d3e f98c 3abb 72df 9a3e

weight f4 [3, 8]
0.26871583 -0.012801262 0.27386814 0.113186285 -0.33539012 0.12291624 -0.29762834 0.027883422
-0.052095324 -0.10569051 0.32004362 -0.078490354 -0.15992549 -0.14776275 -0.19421683 -0.1970729
-0.2729798 0.16085699 -0.495454 0.29627267 0.0019314215 0.36240828 0.14974858 -0.049723625
00000000: 1f95 893e 62bc 51bc 7238 8c3e 36ce e73d
00000010: 41b8 abbe 82bb fb3d be62 98be c66b e43c
00000020: e861 55bd 4474 d8bd c2dc a33e 8dbf a0bd
00000030: 82c3 23be 1e4f 17be c7e0 46be 7acd 49be
00000040: 02c4 8bbe b2b7 243e 26ac fdbe 0db1 973e
00000050: c027 fd3a 948d b93e b157 193e 00ab 4bbd

bias f4 [3]
0.24495369 -0.32325047 -0.1785881
00000000: 24d5 7a3e 1681 a5be cddf 36be

weight f4 [8, 9]
0.36108497 -0.18552001 -0.283858 -0.22383809 -0.17904226 -0.25654903 -0.053827073 0.12654175
-0.26293173 -0.23509285 -0.35174844 0.039972976 -0.18865336 -0.09191209 0.32242632 -0.26389787
-0.45059088 0.4706811 -0.36881545 -0.16208814 0.4336747 0.10127495 -0.2791965 -0.10246844
0.14430791 -0.27774563 0.22554812 -0.23071136 -0.17719485 0.222886 -0.19559948 0.0643524
-0.14628479 0.25889856 -0.41986725 0.21407007 0.03439443 -0.026530484 -0.52002156 0.34986418
-0.07105199 -0.2510754 0.023966728 0.085417576 -0.29716426 0.10025672 0.0034403272 -0.28759986
0.32952982 -0.14894791 -0.3946167 0.2785797 0.114189625 -0.26295766 0.48631883 -0.4780159
0.3142481 -0.12034239 -0.19453771 -0.25660303 -0.11976901 0.05885423 0.36673132 -0.050152346
-0.135676 0.22563481 -0.01570339 0.1510625 -0.0602996 -0.1941365 -0.045000054 0.22342373
00000000: 21e0 b83e f5f8 3dbe d655 91be d035 65be
00000010: db56 37be 655a 83be c779 5cbd 2994 013e
00000020: fd9e 86be 2ebc 70be 5f18 b4be b4ba 233d
00000030: 592e 41be 683c bcbd 1015 a53e 9f1d 87be
00000040: d9b3 e6be 1dfd f03e 61d5 bcbe 6ffa 25be
00000050: 9c0a de3e 3e69 cf3d d8f2 8ebe f9da d1bd
00000060: 74c5 133e ad34 8ebe 16f6 663e 993f 6cbe
00000070: 9172 35be 3a3c 643e 3b4b 48be 31cb 833d
00000080: aecb 15be 5a8e 843e d7f8 d6be 2f35 5b3e
00000090: 2de1 0c3d 7556 d9bc 2220 05bf 6621 b33e
000000a0: b583 91bd f48c 80be df55 c43c 69ef ae3d
000000b0: ea25 98be 6553 cd3d 1d77 613b 4a40 93be
000000c0: 22b8 a83e cd85 18be 330b cabe 00a2 8e3e
000000d0: 40dc e93d 63a2 86be c8fe f83e 80be f4be
000000e0: 21e5 a03e 1276 f6bd e534 47be 7961 83be
000000f0: 7449 f5bd 2211 713d 35c4 bb3e 8c6c 4dbd
00000100: a6ee 0abe d00c 673e 65a4 80bc 21b0 1a3e
00000110: b7fc 76bd b8cb 46be fa51 38bd 31c9 643e

bias f4 [8]
-0.0781787 0.18740447 0.009148158 -0.08695487 0.37930375 0.13690627 0.16744617 0.12914047
00000000: 271c a0bd f5e6 3f3e 28e2 153c 6515 b2bd
00000010: 1a34 c23e 2831 0c3e 0277 2b3e 663d 043e

weight f4 [8, 8]
0.14695683 -0.19074386 -0.08497182 0.17518784 0.2841109 0.43296343 -0.10914571 -0.15238161
0.2773146 -0.37870216 -0.15907067 -0.5574607 0.27071282 0.011100964 0.14181475 -0.20171666
-0.070031494 -0.18234447 -0.33274806 -0.3812153 -0.035215497 0.43693158 0.20342956 -0.3485852
-0.20619321 -0.048502214 0.009246469 -0.34056908 0.1642382 -0.08171483 -0.078889236 -0.011008816
0.45189357 -0.342917 -0.3440346 -0.09182922 0.41382068 -0.006386208 0.3987319 -0.33680385
0.1720886 0.20372598 0.38237393 -0.111287564 -0.38120285 -0.05955339 0.3729414 0.12680154
-0.37410483 0.2121426 0.10764156 -0.08425129 0.070097625 -0.09689316 0.44500574 0.43789044
-0.22478339 0.55473155 0.31058246 0.45294675 -0.062441956 -0.36789644 0.2479865 0.068366505
00000000: da7b 163e 5c52 43be b505 aebd 7164 333e
00000010: fc76 913e 62ad dd3e c987 dfbd ed09 1cbe
00000020: 2efc 8d3e 40e5 c1be 6ce3 22be bfb5 0ebf
00000030: df9a 8a3e d1e0 353c e337 113e d08e 4ebe
00000040: ac6c 8fbd 82b8 3abe f45d aabe a72e c3be
00000050: 203e 10bd 7fb5 df3e d74f 503e c279 b2be
00000060: 5024 53be 42aa 46bd 807e 173c 125f aebe
00000070: 0f2e 283e 1b5a a7bd ae90 a1bd 525e 34bc
00000080: 985e e73e d192 afbe 4e25 b0be f510 bcbd
00000090: 4ee0 d33e 6543 d1bb 9626 cc3e 8e71 acbe
000000a0: fe37 303e 8b9d 503e 84c6 c33e bcea e3bd
000000b0: 052d c3be 41ee 73bd 2df2 be3e 43d8 013e
000000c0: ab8a bfbe e93b 593e 2e73 dc3d f18b acbd
000000d0: 588f 8f3d ec6f c6bd cbd7 e33e 2d33 e03e
000000e0: 9e2d 66be e302 0e3f aa04 9f3e a3e8 e73e
000000f0: 23c3 7fbd ec5c bcbe 2cf0 7d3e bd03 8c3d

bias f4 [8]
0.027386004 0.40885183 0.21863349 0.23707125 0.11554408 0.15633745 -0.21326792 0.23528165
00000000: 9d58 e03c 0755 d13e 75e1 5f3e cec2 723e
00000010: 60a2 ec3d ed16 203e e862 5abe aced 703e

weight f4 [1, 8]
0.19086774 0.12512916 0.3549049 0.24681278 0.36702454 -0.36094722 -0.34158963 -0.34634387
00000000: d572 433e dc21 003e 18b6 b53e 7dbc 7c3e
00000010: a4ea bb3e 13ce b8be d6e4 aebe fc53 b1be

E f4 [1628, 3]
0.4325385 -0.85399896 0.5047522 0.40915948 -0.7664129 0.49465257 0.42829674 -0.75716484
0.45540905 0.49296933 -0.90991837 0.5422696 0.56514764 -1.1271068 0.6739755 0.3096956
-0.16954301 0.1725262 -0.2973671 -1.5671195 1.8443955 0.29475302 -0.16952027 0.18822257
0.32850695 -0.4100955 0.32401985 -0.31523228 -1.8521461 2.069089 0.41781974 -0.5991481
0.414725 -0.16664284 -1.5192828 1.6662822 0.353944 -0.4321925 0.30339852 0.3453727
-0.45504487 0.3701592 0.32979244 -0.45227373 0.3747934 0.3282121 -0.43581152 0.3658517
0.3841691 -0.5656481 0.44404632 0.3311082 -0.33288985 0.27190208 -0.08323997 -1.393705
1.4698051 0.41490537 -0.638266 0.4579785 0.3471731 -0.4337861 0.33354092 -0.23192698
-1.7268031 1.8728927 0.29871708 -0.7954574 0.6330217 0.5067723 -0.97094756 0.61753094
0.38343573 -0.626589 0.4112501 0.3805939 -0.607761 0.40344226 0.43701863 -0.7490677
0.49293572 0.28774709 -0.16743053 0.19818488 0.29710087 -0.17344172 0.18694378 -0.69595283
-2.8102026 3.181074 0.3339354 -0.28866696 0.24033406 -0.26800483 -1.5664346 1.7975463
-0.81705916 -3.1624691 3.5735419 0.36742622 -0.5711141 0.4251424 0.48022586 -0.9388235
0.6254785 0.3483721 -0.48334664 0.37076843 0.41575536 -0.7076418 0.51636153 0.34075147
-0.5832492 0.4459328 -0.1259456 -1.5242943 1.5878423 0.3516763 -0.51138896 0.34098852
0.35318536 -0.4795267 0.3189031 0.37214154 -0.5654512 0.38801843 0.42573094 -0.7274149
0.49550796 0.3738348 -0.5812859 0.3979141 0.2951362 -0.78602237 0.6201894 0.31868422
-0.28423214 0.25985575 0.38971448 -0.6056323 0.37376422 0.39419916 -0.62694687 0.38422543
0.38388348 -0.6443723 0.43237424 0.4508003 -0.83246475 0.5579362 0.38031614 -0.6118133
0.4119988 -0.33450413 -1.6139491 1.9254242 -0.13290375 -1.528183 1.6224228 0.42599285
-0.6586397 0.45968455 0.34573713 -0.3954159 0.29109567 -0.27855474 -1.8539729 2.0167701
0.30315834 -0.8257722 0.6711631 0.36580247 -0.7109157 0.5199023 0.46923527 -0.81848186
0.48311806 0.42734814 -0.813402 0.4814527 0.54244447 -1.0272312 0.6196661 0.35884446
-0.45339 0.29786706 -0.1335212 -1.5229417 1.5961342 0.3568958 -0.4918831 0.3246566
0.4312906 -0.8391978 0.49304706 0.42230743 -0.8274494 0.49969405 0.22322807 -1.3068658
1.0650617 0.3314674 -0.4277925 0.350653 0.37823302 -0.52403945 0.40385264 0.337579
-0.44853204 0.35777044 0.20383291 -0.728709 0.6967806 -0.1439861 -1.3767323 1.5432324
0.32331067 -0.32016963 0.27196443 -0.27535513 -1.6722796 1.9006246 0.39383236 -0.6334108
0.38563532 0.25069767 -0.8009344 0.6928929 0.48096073 -0.87543756 0.5733782 0.36553133
-0.5444918 0.3814729 0.38930684 -0.6502145 0.42495787 0.39477658 -0.64310724 0.42158157
0.4489093 -0.79552555 0.5233744 0.33099553 -0.2776822 0.21555924 -0.39475435 -1.8788259
2.15648 0.31957996 -0.21758385 0.18584667 0.32459092 -0.4069628 0.34717548 0.45163524
00000000: b075 dd3e ad9f 5abf 7137 013f 5a7d d13e
00000010: a333 44bf 1a43 fd3e b649 db3e 8ed5 41bf
00000020: 602b e93e 7a66 fc3e 69f0 68bf 2ed2 0a3f
00000030: 84ad 103f 0945 90bf a989 2c3f 6c90 9e3e
00000040: af9c 2dbe b5aa 303e 8040 98be 5f97 c8bf
00000050: 2715 ec3f dee9 963e b996 2dbe 6bbd 403e
00000060: 1032 a83e 0af8 d1be eee5 a53e 2066 a1be
00000070: 2013 edbf f46b 0440 78ec d53e c561 19bf
00000080: d656 d43e 6ca4 2abe dc77 c2bf bc48 d53f
00000090: 2638 b53e 5648 ddbe 0d57 9b3e b1d4 b03e
000000a0: a4fb e8be 8285 bd3e 8eda a83e 6c90 e7be
000000b0: ece4 bf3e 6b0b a83e b022 dfbe ea50 bb3e
000000c0: d0b1 c43e 50ce 10bf 0a5a e33e 0487 a93e
000000d0: 8a70 aabe c036 8b3e b879 aabd ed64 b2bf
000000e0: 9322 bc3f 7a6e d43e 6765 23bf 287c ea3e
000000f0: acc0 b13e 3619 debe e0c5 aa3e 447e 6dbe
00000100: e207 ddbf f3ba ef3f 72f1 983e 19a3 4bbf
00000110: b60d 223f d4bb 013f 0590 78bf 8216 1e3f
00000120: b051 c43e 2368 20bf 608f d23e 34dd c23e
00000130: 3a96 1bbf fc8f ce3e e8c0 df3e e7c2 3fbf
00000140: 1262 fc3e 9653 933e e972 2bbe faf0 4a3e
00000150: 9b1d 983e b59a 31be 316e 3f3e f729 32bf
00000160: 5cda 33c0 b796 4b40 95f9 aa3e 28cc 93be
00000170: 221a 763e ee37 89be ee80 c8bf ff15 e63f
00000180: ca2a 51bf e565 4ac0 e9b4 6440 4a1f bc3e
00000190: 8934 12bf 44ac d93e 2ae0 f53e bd56 70bf
000001a0: 5c1f 203f d45d b23e 3679 f7be 5cd5 bd3e
000001b0: e3dd d43e 0328 35bf 4530 043f fa76 ae3e
000001c0: d24f 15bf 4e51 e43e e2f7 00be 131c c3bf
000001d0: 6b3e cb3f ea0e b43e 63ea 02bf 0c96 ae3e
000001e0: b6d4 b43e 8684 f5be 4447 a33e 5689 be3e
000001f0: 69c1 10bf 5aaa c63e 68f9 d93e dd37 3abf
00000200: 38b3 fd3e 4667 bf3e 27cf 14bf 66bb cb3e
00000210: 181c 973e c338 49bf bcc4 1e3f 942a a33e
00000220: e086 91be d00b 853e a888 c73e b80a 1bbf
00000230: 065e bf3e 79d4 c93e 977f 20bf 32b9 c43e
00000240: 608c c43e 95f5 24bf 2860 dd3e 4ccf e63e
00000250: 691c 55bf e8d4 0e3f ccb8 c23e cc9f 1cbf
00000260: 82f1 d23e 2044 abbe e295 cebf 4d74 f63f
00000270: ec17 08be 809b c3bf 8dab cf3f bc1b da3e
00000280: 9d9c 28bf c65b eb3e 7504 b13e f473 cabe
00000290: 7e0a 953e ba9e 8ebe fc4e edbf c312 0140
000002a0: 9237 9b3e cf65 53bf 58d1 2b3f 764a bb3e
000002b0: 92fe 35bf 5118 053f 9b3f f03e 0788 51bf
000002c0: 405b f73e 60cd da3e 1d3b 50bf f880 f63e
000002d0: a4dd 0a3f 507c 83bf 70a2 1e3f 76ba b73e
000002e0: bc22 e8be 0882 983e c8b9 08be c1ef c2bf
000002f0: 204e cc3f 0cbb b63e 1ad8 fbbe 6439 a63e
00000300: 1fd2 dc3e abd5 56bf aa70 fc3e ae38 d83e
00000310: b9d3 53bf e6d7 ff3e e695 643e 6147 a7bf
00000320: f153 883f 18b6 a93e 9e07 dbbe ca88 b33e
00000330: c2a7 c13e 7327 06bf c6c5 ce3e 28d7 ac3e
00000340: fea5 e5be b02d b73e 93b9 503e ac8c 3abf
00000350: 3760 323f 1871 13be c438 b0bf a488 c53f
00000360: fa88 a53e 46ed a3be ec3e 8b3e 59fb 8cbe
00000370: 420d d6bf ab47 f33f 65a4 c93e 3627 22bf
00000380: fe71 c53e 725b 803e 090a 4dbf 6e61 313f
00000390: 7c40 f63e ad1c 60bf eac8 123f ec26 bb3e
000003a0: d163 0bbf 6a50 c33e 3a53 c73e 7574 26bf
000003b0: 1494 d93e 2820 ca3e ada2 24bf 8ad9 d73e
000003c0: 71d7 e53e 90a7 4bbf ddfb 053f 3f78 a93e
000003d0: 5c2c 8ebe 90bb 5c3e 3e1d cabe 5e7d f0bf
000003e0: c503 0a40 fc9f a33e 4dce 5ebe 974e 3e3e
000003f0: c830 a63e 6e5d d0be fcc0 b13e bc3c e73e
