models/optimization/IN_1000_8_0.032565953103489684_0.8164939702069712_9_20_state_dict.pt (torch, 7889 bytes, 17 tensors)

R1.layers.0.weight f4 [8, 9]
0	0xbe5bf6f5	-0.21480925
1	0xbebc73c1	-0.36807063
2	0xbe8ec64f	-0.27885672
3	0x3e13decf	0.14440463
4	0xbdfaf4a1	-0.122536905
5	0x3e9a5027	0.30139276
6	0x3e560692	0.20900944
7	0xbd92d6e1	-0.07169891
8	0xbe0e6299	-0.139048
9	0xbe19d601	-0.15023042
10	0xbea31703	-0.31853494
11	0xbd59f73f	-0.053214308
12	0xbdafc227	-0.085819535
13	0xbe9e5807	-0.30926535
14	0xbdbfef51	-0.09371818
15	0xbdf90567	-0.121592335
16	0x3da44a95	0.08022038
17	0xbe0b0505	-0.13576134
18	0xbece55a2	-0.40299708
19	0x3eba7a5d	0.3642148
20	0xbf5a7682	-0.8533708
21	0x3f0c4847	0.54797786
22	0xbe907f9d	-0.2822236
23	0x3f0c39fd	0.54775983
24	0x3e85ec53	0.26156864
25	0x3ebdbacb	0.37056574
26	0xc1073759	-8.451013
27	0x3ed74ddd	0.42051592
28	0x3e74814f	0.23877452
29	0x3f42df89	0.7612234
30	0xbef71b68	-0.48263097
31	0xbe914ff5	-0.28381315
32	0xbf21dbdd	-0.6322611
33	0xbf4a0b97	-0.78923935
34	0x3ffd06cf	1.9767703
35	0x40c4026a	6.1252947
36	0xbce93e35	-0.028472045
37	0xbe7f876c	-0.24954003
38	0x3e9ade29	0.3024762
39	0x3dd4760a	0.10374077
40	0xbde3bb7f	-0.111197464
41	0xbda8bc31	-0.0823902
42	0x3ff7ac5f	1.9349478
43	0xbe5bb9b0	-0.21457553
44	0x4016b23f	2.3546293
45	0x3e01c30b	0.12672059
46	0x3d0154e1	0.031575087
47	0x3f5159c8	0.8177762
48	0xbe0fae2e	-0.14031288
49	0x3db9737c	0.0905523
50	0xbf3de458	-0.7417655
51	0x3eb8cd66	0.36094207
52	0x3ee36659	0.44414023
53	0x4111bf21	9.109162
54	0xbec1cefc	-0.3785323
55	0x3e186c37	0.1488503
56	0xbeeb40ca	-0.45947868
57	0x3e333056	0.17498907
58	0xbe2e0250	-0.1699307
59	0x3f538160	0.82619286
60	0x3ea3d778	0.32000327
61	0xc01c3f25	-2.441354
62	0xc0a70937	-5.219875
63	0x3f26bc85	0.6513141
64	0xbe9334f6	-0.28751343
65	0x3f17ffb7	0.59374565
66	0xbee218fe	-0.44159693
67	0x3e7f2ff5	0.24920638
68	0xbf8077a8	-1.0036516
69	0xbf8a87a1	-1.0822641
70	0xbf9d825e	-1.230541
71	0x40c62e22	6.1931314

R1.layers.0.bias f4 [8]
0	0xbe71caa8	-0.23612463
1	0xbec2e5d5	-0.38065973
2	0x3eef8ae9	0.46785668
3	0x3f0c98d1	0.5492068
4	0x3d808e36	0.062771246
5	0x3eeed560	0.46647167
6	0x3ec61a56	0.38691968
7	0x3ef0aeba	0.47008306

R1.layers.2.weight f4 [8, 8]
0	0x3e01e331	0.12684323
1	0xbeab63c2	-0.33474547
2	0x3ef357ae	0.47527832
3	0x3f7e2db5	0.99288493
4	0x3ea78af4	0.327232
5	0xbe1e1eae	-0.15441391
6	0xbf6f9627	-0.9358849
7	0xbf8454b4	-1.0338349
8	0x3ceac8e2	0.028660242
9	0xbd434338	-0.047671527
10	0x3f771b0d	0.9652565
11	0xbf62dac5	-0.88615066
12	0x3c9115f4	0.017710663
13	0xbfce2b4d	-1.6106964
14	0x3ec9653a	0.39335042
15	0xbfc73e38	-1.5565863
16	0xbde3fcbb	-0.11132189
17	0x3e5789c0	0.21048641
18	0x3f747f63	0.95506877
19	0xbe4df4fc	-0.20112985
20	0xbe98c90c	-0.29840887
21	0x3f361300	0.7112274
22	0x3f1456b5	0.57944804
23	0x3ec07723	0.37590894
24	0x3dc4ec36	0.09615366
25	0xbd83b248	-0.06430489
26	0x3f682d7e	0.90694416
27	0x3eade621	0.33964637
28	0xbf2079a5	-0.62685615
29	0x3f0bbbe9	0.54583603
30	0x3e2b4861	0.16726829
31	0x3f20d483	0.6282427
32	0xbe044ea8	-0.1292063
33	0xbe0c307f	-0.13690375
34	0xbfbf0da5	-1.4926039
35	0xbe9d878f	-0.30767485
36	0xbf02fd26	-0.51167524
37	0x3f321e78	0.6957774
38	0xbf8b7aed	-1.0896889
39	0x3f16e196	0.58937967
40	0xbec5e425	-0.38650623
41	0x3ee38272	0.4443546
42	0xbf3e131f	-0.74247926
43	0xbf74d21e	-0.95633113
44	0x3f457089	0.7712484
45	0xbeb44a05	-0.35212722
46	0x3f6aba4f	0.91690534
47	0x3f17bd19	0.59272915
48	0x3e0dbfcc	0.13842696
49	0xbc08c2b9	-0.008347207
50	0xbfdbf2a7	-1.7183427
51	0x3df43fba	0.119262174
52	0xbf6fcf2b	-0.9367549
53	0x3f71490a	0.94252074
54	0xbf9c8285	-1.2227331
55	0x3f243fda	0.6415993
56	0xbebaa4a3	-0.36453733
57	0xbe7d4e60	-0.24736929
58	0xbeef4496	-0.46732014
59	0xbe3ab9a2	-0.18234876
60	0xbd19fe18	-0.03759584
61	0xbdb48f08	-0.088163435
62	0xbeb37c7d	-0.35055915
63	0xbe4ff0e1	-0.20306732

R1.layers.2.bias f4 [8]
0	0xbf60192f	-0.8753843
1	0x3f9206f0	1.1408367
2	0x3d5adef2	0.053435273
3	0xbe8b9066	-0.27258605
4	0x3ef7da43	0.48408708
5	0x3ccc9438	0.02497302
6	0x3ec8f004	0.39245617
7	0xbf1b5776	-0.6068033

R1.layers.4.weight f4 [3, 8]
0	0xbf9e83f9	-1.2384025
1	0x3da37e01	0.07983018
2	0xbeec69b3	-0.46174392
3	0xbe9f87de	-0.31158346
4	0xbe9f2d4a	-0.3108924
5	0xbf64e577	-0.89412636
6	0x3e1a14da	0.15047017
7	0xb9d0b80d	-0.0003980998
8	0x3f2354b7	0.6380114
9	0xbf526511	-0.82185465
10	0x3d9846bb	0.07435366
11	0xbf033ea6	-0.5126747
12	0xbe45cb53	-0.19315843
13	0x3f0a1480	0.5393753
14	0xbf527385	-0.8220752
15	0xbe0d10ff	-0.13776015
16	0xbee058bd	-0.43817702
17	0xbfe0d81e	-1.7565954
18	0x3f53c5c8	0.82723665
19	0x3f18523c	0.5950048
20	0xbf4fe60e	-0.8121041
21	0xbf2d2274	-0.67630696
22	0xbf83c062	-1.0293086
23	0x3b90457e	0.0044028154

R1.layers.4.bias f4 [3]
0	0x3d2530a4	0.04032959
1	0xbe19c4bf	-0.15016459
2	0x3fcfeb5a	1.6243699

O.layers.0.weight f4 [8, 6]
0	0xbece730f	-0.40322158
1	0xbd9ddbca	-0.07707937
2	0x3e83e6ae	0.25761932
3	0xbe7b59dd	-0.24545999
4	0xbe699a8a	-0.22812858
5	0x3f994a83	1.1975864
6	0x3e645ec9	0.22301783
7	0x3f8f1d10	1.1180744
8	0xbe55d695	-0.20882638
9	0x3de0004c	0.109375566
10	0x3da2b729	0.07945091
11	0xbee5fbfb	-0.44918808
12	0xbe5c9048	-0.21539414
13	0xbedced2d	-0.431497
14	0x3db92e78	0.09042066
15	0x3df53b46	0.11974196
16	0x3f0b8ea2	0.54514515
17	0xbef6406c	-0.48096025
18	0xbe39bd63	-0.18138652
19	0x3ea50e63	0.3223754
20	0xbeab17a9	-0.3341649
21	0x3f738d07	0.95137066
22	0x3f3307ce	0.69933784
23	0xbf2bd9b7	-0.6712908
24	0x3ea8d823	0.329774
25	0xbf2f91fc	-0.6858213
26	0x3f250b1b	0.6447007
27	0x3e6a52e7	0.22883187
28	0xbe57f1ee	-0.21088383
29	0x3dc9d2df	0.098546736
30	0xbe676d21	-0.22600223
31	0xbe3aa610	-0.1822741
32	0x3e15d5ca	0.14632335
33	0x3f578017	0.84179825
34	0x3f30b7d8	0.69030523
35	0x3f79acb1	0.9752913
36	0x3f8a3d84	1.0800023
37	0x3d20cc2e	0.03925722
38	0x3fe0bd38	1.7557745
39	0x3e8d6051	0.27612546
40	0xbe3f5409	-0.186844
41	0xbed5f633	-0.41789398
42	0xbf8ccc90	-1.0999928
43	0xbd6443a0	-0.055728555
44	0xbfc81e86	-1.5634315
45	0x3eaa620c	0.3327793
46	0xbdca265f	-0.098706
47	0xbec13a79	-0.37739924

O.layers.0.bias f4 [8]
0	0xbfce2d65	-1.6107603
1	0x3f3512bc	0.7073171
2	0xbdb73fab	-0.089476906
3	0x3e9ea9f5	0.30989042
4	0xbde1ba4f	-0.11021864
5	0xbf2b5269	-0.6692262
6	0xbd308d84	-0.04310371
7	0x3f2262bf	0.63431925

O.layers.2.weight f4 [8, 8]
0	0x3f2d99f0	0.67813015
1	0xbf0dc02e	-0.5537137
2	0xbe7b3296	-0.24531016
3	0xbe974e6e	-0.29552025
4	0xbda3e2f8	-0.08002275
5	0xbcb249f3	-0.021763777
6	0xbd1e9938	-0.03872034
7	0xbe327cc6	-0.1743041
8	0xbe4be97d	-0.19913287
9	0xbeba9492	-0.36441475
10	0x3e91d9aa	0.28486377
11	0xbece4151	-0.40284207
12	0xbc86e80a	-0.016468067
13	0xbdab98ab	-0.083787285
14	0xbe9726f0	-0.29521894
15	0xbe65fc0b	-0.22459428
16	0xbe97e277	-0.29664966
17	0xbba02ab3	-0.0048879026
18	0xbd99183f	-0.07475328
19	0xbf0b6a3f	-0.54458994
20	0xbe619c43	-0.22032265
21	0x3d3bb1c7	0.04582384
22	0xbd1c61f7	-0.038179364
23	0xbdf9b579	-0.12192816
24	0xbeba5b4d	-0.36397782
25	0xbed8e501	-0.42362216
26	0xbead4528	-0.33841825
27	0x3edb7b15	0.42867342
28	0xbef1b52a	-0.4720853
29	0x3f3c9aa1	0.73673445
30	0xbd9ffb57	-0.07811611
31	0x3e351a86	0.17685899
32	0x3e8d582a	0.27606326
33	0x3ebf2f57	0.37340805
34	0x3e71361f	0.23555802
35	0xbfd204a4	-1.6407666
36	0x3be0d7fd	0.0068616853
37	0x3f57ec28	0.8434472
38	0xbe0268ca	-0.12735286
39	0xbe4d60c7	-0.20056449
40	0xbe2924c3	-0.1651793
41	0xbeb49f13	-0.35277614
42	0x3e29d854	0.16586429
43	0x3e20f833	0.1571968
44	0xbe1d92a3	-0.15387969
45	0xbd908e7e	-0.07058428
46	0xbeb6f3b1	-0.35732797
47	0x3ed4be85	0.41551605
48	0xbe5e5cba	-0.2171506
49	0xbc3a9972	-0.011389123
50	0xbe8218fd	-0.2540969
51	0xbf5082f6	-0.8144983
52	0xbdb70753	-0.08936944
53	0x3f2cc67a	0.6749035
54	0x3edaf59a	0.42765504
55	0x3f19aee2	0.60032475
56	0xbd258b85	-0.04041626
57	0x3f0e399a	0.55556643
58	0x3e044aba	0.12919131
59	0x3e10eabf	0.14152049
60	0xbe286d04	-0.16447836
61	0xbeb1d32f	-0.34731433
62	0x3e43bf08	0.19115841
63	0x3e6da9c1	0.23209287

O.layers.2.bias f4 [8]
0	0xbe7801d8	-0.24219453
1	0xbe87ab4e	-0.26497883
2	0xbcc428d1	-0.023945244
3	0xbe9bb2b4	-0.30409777
4	0xbf3afdbb	-0.7304341
5	0xbe71e968	-0.23624194
6	0x3f5b33a9	0.856257
7	0xbf4f4e61	-0.8097897

O.layers.4.weight f4 [3, 8]
0	0x3f185ef4	0.59519887
1	0x3a9ad10a	0.0011811566
2	0x3e0c5859	0.13705577
3	0xbe57e2ee	-0.2108266
4	0x3e376010	0.17907739
5	0xbd46156a	-0.048360266
6	0xbecddef9	-0.40209177
7	0xbd0053c5	-0.03132989
8	0x3e8a22f5	0.26979795
9	0xbda9e3a5	-0.08295373
10	0xbd5822e2	-0.05276764
11	0xbd31728e	-0.04332214
12	0xbedf3916	-0.4359824
13	0xbec3dfea	-0.3825677
14	0x3cf2364a	0.029566903
15	0xbf1644dd	-0.5869883
16	0x3e7272f6	0.23676667
17	0xbe36fda1	-0.17870189
18	0x3da5ca18	0.08095187
19	0xbe9eaf58	-0.30993152
20	0xbe6bbd62	-0.23021463
21	0xbd1cbfce	-0.038268857
22	0x3d1a4e3c	0.037672266
23	0x3d8f4125	0.06994847

O.layers.4.bias f4 [3]
0	0xbee5baa1	-0.4486895
1	0x3fc793d8	1.5591993
2	0xbf18b71e	-0.59654415

R2.layers.0.weight f4 [8, 9]
0	0x3e064f35	0.13116153
1	0x3e1b4687	0.15163623
2	0x3e9ad8b8	0.30243468
3	0x3eeb548b	0.4596294
4	0xbe91e182	-0.2849236
5	0x3ec402a6	0.3828327
6	0xbf56cc15	-0.83905154
7	0x3e02faae	0.12790939
8	0xbed7bc81	-0.42136005
9	0x3e263d61	0.16234352
10	0xbe4246cb	-0.18972318
11	0x3e89659a	0.26835328
12	0xbbd269e1	-0.006421313
13	0xbed8d1d6	-0.42347592
14	0x3e887452	0.26651245
15	0x3f87c89e	1.0608099
16	0x3f959b2e	1.1687982
17	0x3f071779	0.5277019
18	0xbea1a90f	-0.31574294
19	0xbfc938eb	-1.5720495
20	0x3eaa9c05	0.33322158
21	0x3e300fc9	0.17193522
22	0xbe98a339	-0.2981203
23	0x3f2ccb9b	0.6749818
24	0x3fba32ed	1.4546791
25	0x400b4c06	2.176515
26	0x3eecf6b7	0.46281978
27	0xbe54d073	-0.20782642
28	0x3f1e0022	0.6171895
29	0xbe1371a2	-0.14398816
30	0xbdbe72c9	-0.09299237
31	0x3edd5e58	0.4323604
32	0x3e22e282	0.15906718
33	0x3f8f9265	1.1216551
34	0x3f9e2878	1.23561
35	0x3f5522d4	0.8325627
36	0x3f777051	0.96655756
37	0x3cda635f	0.026658712
38	0x3ed4a44e	0.41531605
39	0x3d1f46a8	0.038885742
40	0xbe60a573	-0.21938114
41	0xbd80fcc2	-0.0629821
42	0x3e698b78	0.2280711
43	0x400797b3	2.118634
44	0xbd51de87	-0.05123761
45	0x3f5bf70d	0.85923845
46	0x3f1294b9	0.5725818
47	0x3e9d6983	0.30744562
48	0xbe968796	-0.2940032
49	0xbec247e2	-0.37945467
50	0xbe08285f	-0.1329665
51	0x3ea80610	0.32817125
52	0xbeb01188	-0.34388375
53	0xbf7fcab6	-0.9991869
54	0xbe089999	-0.13339843
55	0x3ec5849c	0.38577735
56	0xbe95721b	-0.29188618
57	0x3f1d50ca	0.614514
58	0x3f578947	0.84193844
59	0x3db7bc8b	0.089715086
60	0x3b9b2c26	0.0047354875
61	0xbf3fb611	-0.74887186
62	0xbf05b234	-0.5222504
63	0xbe888cb0	-0.26669836
64	0x3e97108a	0.29504806
65	0x3ed390df	0.41321465
66	0xbf4e0911	-0.80482584
67	0xbe5834fc	-0.21113962
68	0xbf044c8d	-0.5167931
69	0x3f70e7cf	0.9410371
70	0x3f67754f	0.90413374
71	0x3f829c19	1.0203887

R2.layers.0.bias f4 [8]
0	0xc01058a1	-2.2554095
1	0xbf1958f7	-0.59901375
2	0xbfd2c7a4	-1.6467175
3	0x3f3a78d3	0.72840613
4	0xbe94fe60	-0.29100323
5	0x3eb7fc42	0.35934645
6	0x3f4715b7	0.7776751
7	0x3ead2d7c	0.33823764

R2.layers.2.weight f4 [8, 8]
0	0xbea0815c	-0.31348693
1	0xbde189da	-0.11012621
2	0xbdb97824	-0.09056118
3	0xbe4bf7c9	-0.19918741
4	0xbe32e165	-0.17468794
5	0xbe0cdb93	-0.13755636
6	0xbe09b200	-0.13446808
7	0xbe1cdbed	-0.1531827
8	0xbd822daa	-0.06356366
9	0xbc1c2e25	-0.009532486
10	0xbf1b84a1	-0.6074925
11	0xbcb8693b	-0.022511115
12	0xbd297228	-0.041368634
13	0x3cc189df	0.023625312
14	0xbe378f5e	-0.17925784
15	0xbe8fcd52	-0.28086334
16	0x3df675ac	0.12034163
17	0xbf0f0887	-0.55872387
18	0xbe0d8228	-0.13819182
19	0xbf2edaae	-0.6830243
20	0xbe0f62d4	-0.14002544
21	0x3e890f5a	0.26769525
22	0x3ee61654	0.4493891
23	0xbdafe0f3	-0.085878275
24	0x3f04c1d2	0.51858246
25	0xbf08c3a5	-0.5342353
26	0xbeb7c94c	-0.35895765
27	0xbf0ec8ab	-0.55774945
28	0x3de1a275	0.11017314
29	0x3ec5c3e6	0.3862602
30	0x3e853c4d	0.26022568
31	0xbe53ae84	-0.20672041
32	0xbea4edf2	-0.32212788
33	0xbec3dc5b	-0.38254055
34	0xbe594527	-0.21217786
35	0xbd834d2e	-0.06411205
36	0xbefb51ba	-0.4908579
37	0xbd3993b5	-0.04530688
38	0xbf26a0d7	-0.6508917
39	0xbec45625	-0.38346973
40	0x3ed881b9	0.4228647
41	0xbcf53399	-0.02993183
42	0xbd329f30	-0.043608844
43	0x3f3791c6	0.7170681
44	0xbfaf4a97	-1.3694638
45	0xbe047bff	-0.12937926
46	0xbd84c02a	-0.06481965
47	0x3f427c8b	0.7597129
48	0xbe79b431	-0.24385144
49	0x3e27dfe8	0.16394007
50	0x3f39ddaa	0.7260386
51	0x3e06fbd0	0.13181996
52	0xbe69ee6c	-0.22844857
53	0xbf864d20	-1.0492287
54	0xbeb8c376	-0.36086625
55	0x3f6ea60c	0.9322212
56	0xc0026a8a	-2.0377526
57	0xbea156f7	-0.3151166
58	0xc0386857	-2.8813684
59	0xc00f9b86	-2.2438674
60	0xbf181c7a	-0.5941845
61	0x3ef5c0f7	0.47998783
62	0x3f391e8b	0.7231223
63	0x3ebedb64	0.37276757

R2.layers.2.bias f4 [8]
0	0xbf090ce1	-0.53535277
1	0xbedb4617	-0.42826912
2	0x3f2eda3c	0.6830175
3	0x3f130f42	0.57445157
4	0xbd2a4f62	-0.04157961
5	0x3e5548e9	0.20828594
6	0x3f8a1666	1.0788085
7	0x3e7e611b	0.2484173

R2.layers.4.weight f4 [1, 8]
0	0x3dd7ce48	0.10537392
1	0xbde827a8	-0.11335689
2	0xbec3b30f	-0.38222548
3	0xbe6b59b7	-0.22983442
4	0xbd82dc6b	-0.06389698
5	0x3dd37996	0.10325925
6	0x3f41c840	0.7569618
7	0xbf455421	-0.77081496
