models/optimization/IN_1000_7_0.0002782838002625622_0.9726527769396346_3_1.pt (torch, 15578 bytes, 18 tensors)

weight f4 [7, 9]
000000 aa 6a 67 be 0c be bf 3d ca 24 75 be b1 13 6e bd
       -0.22599283 0.093624204 -0.23939815 -0.058124248
000010 a9 ee 49 3e aa 57 27 3e 31 34 56 3e c3 96 8e be
       0.19719948 0.16342035 0.20918347 -0.27849397
000020 e4 80 e5 bf 4b ce 3c bd 55 63 86 3e 06 ad 1a be
       -1.7929959 -0.046095174 0.2624766 -0.15105066
000030 1a 16 eb 3e 13 19 bc bd 6c 10 e2 3e 72 af 5e 3f
       0.459153 -0.0918447 0.44153154 0.8698646
000040 89 06 74 3e 60 45 0b c0 c9 23 bc 3e 6b 96 1a 3e
       0.23830618 -2.1761093 0.36746052 0.15096442
000050 63 2f b5 3e 30 42 de be 55 e7 1c be 16 0c 2e be
       0.35387716 -0.43409872 -0.15322621 -0.16996798
000060 4f c7 02 bf 79 86 d2 3c 4f e8 46 40 99 55 d5 bd
       -0.5108537 0.025698887 3.107929 -0.10416717
000070 07 d6 a2 3e 88 ca 05 3e c2 e8 3e 3d da 1d f6 bd
       0.31803915 0.13065541 0.046608694 -0.120174125
000080 eb f6 e6 be 99 e8 d8 3d 45 9d c6 bd 7c b2 28 40
       -0.45110258 0.105912395 -0.096979655 2.6358938
000090 be b6 c5 3e c4 0d 90 3b 37 6b 8d 3e 4b 5c 19 3e
       0.38615984 0.0043961722 0.2762086 0.14976613
0000a0 5f 2d 3f 3e c6 d8 a8 3c 08 59 18 be f9 c0 7c bf
       0.18669651 0.020611178 -0.14877713 -0.9873195
0000b0 eb 26 da 3f 7a 73 ce be c3 9a c3 bd 69 5d 37 be
       1.7043127 -0.40322477 -0.09551003 -0.17906727
0000c0 9b fa e5 3e 89 bb ef 3d 73 65 0f 3e 3d a7 8e 3d
       0.4491776 0.11705691 0.14003544 0.06965492
0000d0 59 3e fd bd df f6 29 c0 b0 41 00 3f 4f 8f 3d be
       -0.123654075 -2.6556928 0.5010023 -0.18511699
0000e0 77 3f b2 3e 2c b9 d7 be 01 af 64 3e 8d b5 ec be
       0.34814045 -0.42133462 0.22332384 -0.46232262
0000f0 71 15 5e be 66 a2 b1 3d ea ab 30 40
       -0.21687867 0.08673553 2.7604928

bias f4 [7]
000000 67 e9 9b 3d 75 b1 63 bd 90 c5 d6 3c 0c e8 92 3e
       0.07612877 -0.055589158 0.026217252 0.28692663
000010 15 ca fe 3d 53 ed 5b bd 1c 89 2d be
       0.12440888 -0.053693127 -0.16946834

weight f4 [7, 7]
000000 10 0c d3 bd ac da 88 3e 99 30 2f bd 0c 48 76 3c
       -0.10305035 0.26729333 -0.042770956 0.015031826
000010 0c dd 77 be c3 e4 8c be 7c b9 c4 3d 55 c0 9d 3c
       -0.24205416 -0.2751828 0.09605691 0.01925675
000020 38 67 b7 be b6 02 f7 3d 51 08 ea bd de b0 9b 3e
       -0.35820937 0.12061064 -0.114273675 0.30408376
000030 20 91 31 3e cd 8f 66 be d5 de 50 3d 44 f2 62 bd
       0.17340517 -0.22515793 0.05099376 -0.055406824
000040 ee 2e 37 3f 3e aa 55 3e 9b 46 49 3c 86 0f b3 3e
       0.71555984 0.20865723 0.0122849 0.3497278
000050 50 4e 14 3f b4 a3 64 3d 62 d1 a8 3c 46 c5 65 3f
       0.57931995 0.055820182 0.020607654 0.8975414
000060 63 48 ed 3d d4 8d fc 3c 67 0a f8 3e d5 41 50 3f
       0.11586072 0.030829348 0.48445436 0.8135045
000070 b2 fc 89 3e 46 fe 0d 3f af 03 a5 bf ae 83 c2 be
       0.26950604 0.55466115 -1.2891749 -0.3799109
000080 33 1e ce be 3b 19 2e 3f 05 a8 4a bf e6 d5 5c 3e
       -0.40257415 0.6800725 -0.7916263 0.21565971
000090 68 74 1e be 81 07 17 bf 3e c5 35 3e 0e ea 0a be
       -0.15474093 -0.58995825 0.17751023 -0.13565847
0000a0 5c a6 25 bf 85 2c 5b bf ee 16 98 3d 26 75 b8 3d
       -0.6470697 -0.85614806 0.074262485 0.09006719
0000b0 f4 b5 9a bf 49 2a b0 3e f8 51 59 3e 5a 84 b0 bf
       -1.2086778 0.3440726 0.21222675 -1.379039
0000c0 08 07 b6 bf
       -1.4220896

bias f4 [7]
000000 df fb 41 3e 12 c1 c1 bc a2 79 0d be f4 4e 06 3e
       0.18943737 -0.023651633 -0.1381593 0.13116056
000010 75 4f 50 3d 31 c0 88 bd 71 47 7c 3d
       0.050857026 -0.066772826 0.06159157

weight f4 [3, 7]
000000 0e 7e c1 3e 89 34 94 3d ca 60 94 be d3 45 51 bf
       0.37791485 0.07236583 -0.28980094 -0.8174717
000010 04 00 73 bf 64 63 a7 3d 99 c8 4e 3e 30 4d ce 3e
       -0.949219 0.08173254 0.2019371 0.40293264
000020 ef 0a e0 3e b1 44 07 bf a6 dc 73 be 12 ef 49 bf
       0.43758342 -0.5283919 -0.2381464 -0.7888042
000030 dc f8 67 be b5 ec ca 3e 54 ac aa bd 19 98 94 be
       -0.22653526 0.39633718 -0.0833365 -0.2902229
000040 dc 4c 16 bf d3 83 2f be d7 4b 2c bf f5 09 da 3e
       -0.5871103 -0.1714013 -0.6730322 0.42585722
000050 d1 cb a4 3f
       1.28747

bias f4 [3]
000000 bf 2f f3 3c 76 f4 8c 3e 54 bf e6 3d
       0.029685853 0.2753026 0.11266962

weight f4 [7, 6]
000000 80 9f 0d bd 67 7d 9a 3e 80 0c 6b 3e ed 25 bc be
       -0.03457594 0.301738 0.22953987 -0.36747685
000010 41 b7 10 bd ba 9d de 3e 09 a7 00 3f ae da 90 3d
       -0.035331015 0.4347971 0.50254875 0.0707296
000020 f2 aa ae 3e 48 24 a2 3e 99 24 6c be 0f 5d 89 be
       0.34114796 0.31668305 -0.23060836 -0.2682881
000030 fd 0d 3b be f5 e1 d4 3d 40 bb 06 3e ec ec 30 be
       -0.18267055 0.103946604 0.13157368 -0.17277879
000040 ff de 13 3e 38 84 83 be b3 ae 9d be 34 86 dc 3e
       0.14440535 -0.25686812 -0.30797347 0.4307114
000050 81 38 52 bd bd 82 ad 3d b4 e8 24 3e 1a 97 ba be
       -0.051323418 0.08472202 0.16104394 -0.36443406
000060 15 56 85 be 5d a2 1f be 25 c8 1d 3e c1 5a 73 be
       -0.26042238 -0.1558928 0.1540838 -0.23765089
000070 e2 91 df bd b5 06 b7 3d a6 96 37 be 92 99 e9 bd
       -0.10916497 0.08936826 -0.17928562 -0.11406244
000080 71 7d 90 3e 2a f1 97 be ac 33 97 bd 78 ae 10 3f
       0.28220704 -0.2967618 -0.073829025 0.5651622
000090 9c 51 dd 3e 84 21 23 3e 0d 77 09 3f ef 81 6a 3e
       0.43226326 0.15930754 0.5369728 0.22901128
0000a0 ce 9a 1f be 1c 64 62 be
       -0.15586397 -0.22108501

bias f4 [7]
000000 59 7b 37 be 0c de b0 be 25 78 c5 3e 74 49 c7 bd
       -0.17918147 -0.34544408 0.38568226 -0.09730807
000010 e9 1d 13 be 90 56 99 3e f1 b9 b1 bd
       -0.14366879 0.29948854 -0.08678044

weight f4 [7, 7]
000000 6f 46 ec bc f2 3c de 3e 1e ac e1 3e 74 16 18 3e
       -0.02884218 0.43405873 0.44076627 0.14852315
000010 05 64 68 3e 01 9d 21 be 0c 8b 5b 3e e5 8b f6 bd
       0.22694404 -0.15782548 0.21439761 -0.120384015
000020 34 1f e1 3e 69 0a c5 3e 03 a0 c0 3e 06 b6 6e be
       0.4396912 0.38484505 0.3762208 -0.23311624
000030 c5 65 0a bb 4f 3e e3 bd 2e fe 48 3e 68 95 35 3e
       -0.0021117788 -0.11095869 0.19628212 0.17732775
000040 ff c8 d8 bc b2 50 bc be 59 55 00 3e 43 e8 2d 3f
       -0.02646303 -0.36780316 0.12532558 0.6793253
000050 3d 78 83 be 04 e7 af be e0 71 4f 3e 7a d3 23 3e
       -0.25677672 -0.34355938 0.20258284 0.1599864
000060 1e 46 0a 3e 65 dc 9f bd 9c 6b 9e be 98 48 8a 3b
       0.1350331 -0.07805709 -0.30941474 0.0042200796
000070 1c ae 24 3e eb c5 17 bd f8 6f 99 3e 40 dc 0b bf
       0.16082042 -0.037053984 0.29968238 -0.5463295
000080 63 60 01 3f 1d cd 07 3e d8 bc ad bd 30 64 61 be
       0.505377 0.13261838 -0.08483285 -0.22010875
000090 10 29 e4 bd 90 1c 9a 3e 94 d5 ea 3e 27 29 2e be
       -0.111406446 0.30099916 0.45866072 -0.17007886
0000a0 6e 12 9f bd 74 e0 bc 3e 5c eb f7 bd 8a 0d cc 3c
       -0.07767187 0.36889994 -0.12105438 0.0249088
0000b0 8d 75 d1 3c dc 1f 8b be 4d 84 b1 3d d6 a3 f6 3d
       0.025568748 -0.27172744 0.086678125 0.12042968
0000c0 76 04 c2 be
       -0.37894028

bias f4 [7]
000000 f2 15 47 3e b7 dc 6e 3e 8b 3b 4e bd 96 03 36 3f
       0.19441965 0.23326384 -0.050349753 0.7109922
000010 25 f0 a3 bd 64 73 d1 3e a7 7b 7c be
       -0.08004788 0.4090835 -0.24656545

weight f4 [3, 7]
000000 48 62 38 3e 40 15 c7 3e 0c b7 a2 be 8a 40 3a bf
       0.18006241 0.388834 -0.3178028 -0.7275473
000010 fe 13 61 be dd 03 81 3e 91 8a c5 3d 68 5f d6 3e
       -0.21980283 0.2519826 0.0964557 0.41869664
000020 3c 21 18 3d 7f 73 de be e6 27 41 3c 98 d9 96 be
       0.03714107 -0.43447492 0.011789298 -0.29462886
000030 15 0e 65 3e 0e 92 8f 3e ec d1 d3 3e a6 7e 2a 3e
       0.22368653 0.28041118 0.41371095 0.16649875
000040 eb ff 6c bf 38 f7 01 3f 1a 2d 2a bd c7 e0 a2 3e
       -0.92578 0.5076785 -0.04154692 0.31812117
000050 9d 4c 0d 3e
       0.13798757

bias f4 [3]
000000 be ba 9f be 51 e4 bd 3c ba 8c a1 be
       -0.3119716 0.023180159 -0.31552678

weight f4 [7, 9]
000000 11 a0 91 be c6 dd 91 3e 37 c9 c3 bc da 9d 84 be
       -0.28442433 0.28489512 -0.023899658 -0.2590168
000010 d1 19 6f 3e 6d d2 89 bc e5 f7 a5 3f 0d 1b 77 3f
       0.23349692 -0.016823972 1.2966276 0.9652565
000020 6a cc ab 3e 6a bc 3e bf d4 08 41 bf 96 48 9f be
       0.33554393 -0.7450625 -0.75404096 -0.31110066
000030 9e d0 80 3e e7 ab ad bd 81 e6 50 be 02 b8 b8 be
       0.25159162 -0.084800534 -0.2040043 -0.36077887
000040 93 e1 9f 3e d5 71 7e bd fe d8 3f be 15 4c 8a 3c
       0.31226787 -0.062120277 -0.1873512 0.016881982
000050 e5 b5 8f be ef 69 f5 bd 10 31 13 3e 42 e9 4f 3d
       -0.28068462 -0.11983096 0.14374185 0.05075956
000060 5a a6 82 3f 35 33 fb 3e 01 c8 18 3f 7b a1 1a 3f
       1.0207016 0.49062505 0.5968018 0.6040265
000070 9e 73 07 3f 92 3f 9e 3e 9c eb ee 3e 9c cd b7 3e
       0.5291079 0.30907875 0.4666413 0.35899055
000080 77 c5 b0 3e c9 4b 12 3f 2a 69 4f 3f 6d 1a 9d 3e
       0.34525654 0.5714689 0.8101984 0.30684224
000090 96 81 7e bf a9 e1 28 bf b8 67 40 bf 23 f1 5f be
       -0.9941648 -0.6596933 -0.7515826 -0.2186933
0000a0 5f 47 57 bc 8a 92 5c 3e 0f b1 2b bf 66 42 b9 be
       -0.013139575 0.21540275 -0.67067045 -0.3618347
0000b0 ec 34 80 be 63 a4 90 3e a9 93 5c 3e 44 ab a8 be
       -0.25040376 0.28250417 0.21540703 -0.32943165
0000c0 44 e7 71 bd 5a 5d 9c 3e 33 1d 2b 3d 1e fa 5b 3f
       -0.059058443 0.30539972 0.041775893 0.85928524
0000d0 a8 86 18 3f d2 4b 29 3f 0a b3 0b 3d 84 fd c0 bd
       0.5958047 0.6613132 0.03410629 -0.09423354
0000e0 b3 c4 70 be 5a c8 79 3d bf 1e 9d 3e 71 5d 57 bd
       -0.23512535 0.060982086 0.3068752 -0.052579347
0000f0 e6 8e 11 3f 29 ef 8d 3f 01 2c 25 3f
       0.5685867 1.1088611 0.6452027

bias f4 [7]
000000 81 1e bc 3d ec 2a 40 be a5 7a 93 3e 01 01 d0 3d
       0.09185506 -0.18766373 0.28804508 0.101564415
000010 f0 18 70 3e e7 f1 1d 3e 72 99 af 3c
       0.23447013 0.1542431 0.021435473

weight f4 [7, 7]
000000 ca cc c9 3e a2 36 36 3f 2d 38 2d 3f ac 0f b4 3e
       0.39414054 0.71177113 0.6766384 0.35168207
000010 0c 4e 48 bf 4b 4f 2b 3f 60 23 fd 3e e5 99 f0 bd
       -0.7824409 0.66917866 0.4944105 -0.11748103
000020 0a cc 3a 3e be f8 8a be d8 4b 83 3e f1 8a bf be
       0.18241897 -0.271429 0.25643802 -0.3741069
000030 c7 a9 10 3e 71 4c 2e 3e d9 85 86 be 35 bb 1f 3f
       0.14127265 0.17021348 -0.26273993 0.6239503
000040 2e 0f 7c 3d c0 39 e0 be a8 27 23 3e 34 22 83 be
       0.061537914 -0.4379406 0.15933096 -0.25612032
000050 6c ba 54 3e c5 3e 70 3f f7 1b ec 3e a4 d3 cd 3e
       0.2077424 0.9384578 0.46115085 0.4020053
000060 d7 a4 39 3f 07 4b c5 be 6a ff 05 3f 24 54 9c 3e
       0.7251715 -0.38533804 0.52342856 0.30532944
000070 71 88 ba be 78 ed e5 be f2 a5 1e 3c 3f e3 81 3e
       -0.36432222 -0.44907737 0.009683119 0.25368688
000080 8a 9e 9a 3f 84 35 b7 be 5d c0 84 bc 6a e4 3f 3f
       1.2079632 -0.35783017 -0.016205007 0.7495791
000090 89 1e 98 3e 59 f6 40 3e 34 02 70 3f c7 72 c5 be
       0.29710796 0.18843974 0.9375336 -0.3856413
0000a0 94 28 47 3f d5 b7 15 3f 80 1c e1 3e d1 a5 04 3e
       0.7779629 0.5848363 0.43967056 0.12953879
0000b0 23 ad 0e 3f 20 5b 42 3f 82 5a 5d bd 99 cb 1c 3f
       0.55732936 0.75920296 -0.054041393 0.61248165
0000c0 28 02 39 3f
       0.72268915

bias f4 [7]
000000 41 31 0c be 23 83 f9 be 8f 69 23 be ce 4e ce 3c
       -0.13690664 -0.48732862 -0.15958236 0.025184061
000010 5e 2b 05 3e 33 a2 e2 3c 02 9a 06 3d
       0.13004825 0.027665233 0.032861717

weight f4 [1, 7]
000000 29 2a 0e 3f 8b b7 25 bf 75 63 35 3f e2 34 2e 3f
       0.5553308 -0.6473319 0.70854884 0.6804944
000010 73 41 80 bf 47 0e eb 3e f7 ef 27 3f
       -1.0019974 0.4590933 0.6560053

E f4 [243, 3]
000000 a5 2e 43 bf 66 12 1b be 82 33 7a be 35 73 8b c0
       -0.7624305 -0.15143737 -0.24433711 -4.3578134
000010 54 f0 12 c0 6b 4f 29 c0 59 44 9f c0 54 19 2b c0
       -2.2959185 -2.6454723 -4.977093 -2.673421
000020 69 cf 42 c0 f2 cd 4b be 0b 9c ba 3e 55 6b 3b 3f
       -3.0439093 -0.1990278 0.36447176 0.7321065
000030 ee f0 2d be 14 fa de 3e 26 ea 42 3f 78 94 ac c0
       -0.16986439 0.4355017 0.7613853 -5.3931236
000040 1a ed 6b c0 31 00 56 c0 9d df 2e be 42 b1 d8 3e
       -3.6863465 -3.3437617 -0.17077489 0.42322737
000050 1a c3 34 3f 43 8c 9c c0 99 fe 53 c0 27 a8 41 c0
       0.706102 -4.892122 -3.3124144 -3.0258882
000060 e6 be 00 be 88 2f f1 3e 54 b8 46 3f 18 f1 51 bf
       -0.12572822 0.47106576 0.7762501 -0.82008505
000070 80 69 3f be e6 c1 1d be e7 22 06 bf 73 e2 97 3e
       -0.18692589 -0.15405998 -0.52397007 0.29664955
000080 73 a7 55 3f ba 92 b8 bf 3e 9a 04 bf 4e 57 29 bf
       0.8345863 -1.4419777 -0.51797855 -0.6614884
000090 2d a6 34 c0 9f 93 cd bf 38 b4 d6 bf 80 30 e6 be
       -2.8226426 -1.6060675 -1.6773748 -0.44958878
0000a0 5e a2 aa 3e 7e 4f 81 3f 3b 7e e3 be 25 f3 ae 3e
       0.33327 1.0102384 -0.44432244 0.3416988
0000b0 52 f1 80 3f 40 4d 93 bf e3 34 95 be 4e 3a 33 be
       1.0073645 -1.150795 -0.29141912 -0.1750271
0000c0 d1 4b e5 be b8 8b b8 3e a1 68 68 3f 15 fb 38 c0
       -0.44784406 0.36044097 0.9078465 -2.8903248
0000d0 77 2a e2 bf 7c 05 d4 bf 38 cd ce be ef a3 b7 3e
       -1.7669209 -1.6564174 -0.40390944 0.3586726
0000e0 f7 8d 82 3f 1c 65 b0 bf 95 d9 f2 be 3f ab 25 bf
       1.0199574 -1.3780856 -0.47431627 -0.64714426
0000f0 77 da b7 c0 5a 99 4e c0 82 48 5e c0 aa 9f 34 be
       -5.745418 -3.2281098 -3.4731755 -0.17639032
000100 15 27 be 3e 60 05 36 3f 76 65 b5 c0 9a 54 78 c0
       0.37139192 0.7110195 -5.6686354 -3.8801637
000110 b3 de 61 c0 5a 5b 0d be 50 13 d6 3e d9 72 36 3f
       -3.5292175 -0.13804379 0.4181161 0.71268994
000120 cc bd 9e c0 9c e9 2f c0 c9 0f 3e c0 25 4d 48 c0
       -4.9606686 -2.7486334 -2.9697134 -3.1297085
000130 2b 83 d4 bf 96 55 e0 bf 15 1f bd be d2 e4 aa 3e
       -1.6602529 -1.7526119 -0.36937776 0.333777
000140 fe 1d 6d 3f de 1d bc be c2 14 a5 3e 0a 19 7f 3f
       0.9262389 -0.36741537 0.322424 0.9964758
000150 1d 98 ff be 3e 09 8f 3e f3 99 54 3f db 99 2b c0
       -0.4992074 0.2793674 0.8304741 -2.6812656
000160 3a e5 ab bf 6e 1c b8 bf 57 79 d9 be 27 3f a6 3e
       -1.3429329 -1.4383676 -0.42475387 0.32470056
000170 ec 18 81 3f a7 e0 2d c0 05 2b c4 bf 67 2e cd bf
       1.008573 -2.7168367 -1.5325629 -1.6029786
000180 28 e1 01 bf 53 f3 9d 3e a2 a1 64 3f d7 f2 eb be
       -0.50734186 0.30849704 0.8930913 -0.4608371
000190 25 c6 a8 3e aa 33 82 3f ff de cd bf 96 0e 23 bf
       0.32963672 1.0172017 -1.6083678 -0.6369413
0001a0 12 cf 42 bf 44 82 78 be ad 54 dd 3e cc 1f 77 3f
       -0.76097214 -0.24268442 0.43228665 0.96532893
0001b0 bd 24 30 be 08 59 ff 3e ba ca 82 3f df b0 5f bf
       -0.17201515 0.49872613 1.0218117 -0.8737926
0001c0 6c b5 25 be a8 15 a0 3d 54 5f a0 be 9c e7 52 3d
       -0.16182488 0.078166306 -0.3132273 0.05149041
0001d0 d1 5e a7 3f d4 b3 0e be 20 91 f1 3e a5 17 57 3f
       1.3075811 -0.13935786 0.47181034 0.84020454
0001e0 7f ff 9a c0 7d c8 51 c0 53 05 3f c0 46 b0 50 bf
       -4.8436885 -3.2778618 -2.9847 -0.8151897
0001f0 72 63 0b be a1 03 a7 be 62 ee 3c be e2 01 d9 3e
       -0.13612154 -0.32619956 -0.18450311 0.4238425
000200 47 94 46 3f c2 7e 8a c0 00 e0 38 c0 09 1a 29 c0
       0.77570003 -4.3279734 -2.8886719 -2.642214
000210 62 7a 59 c0 b9 53 ea bf a6 75 f5 bf 02 40 cb be
       -3.3980947 -1.83068 -1.9176528 -0.39697272
000220 f4 96 9d 3e 58 8c 79 3f 92 de dc be 00 7e 95 3e
       0.3077923 0.9747977 -0.43138558 0.29197693
000230 8a 1f 64 3f c4 a2 64 be d8 7a 2e 3e 1c 33 7d 3f
       0.89110625 -0.22327715 0.17039049 0.9890611
000240 aa a6 57 be 4a 92 2b 3e f3 c5 7b 3f 0d 27 9a c0
       -0.21059671 0.16755024 0.9834892 -4.817267
000250 8c 2e 27 c0 a3 5c 38 c0 06 f6 b0 be 57 d7 ae 3e
       -2.612216 -2.880654 -0.345627 0.34148666
000260 e1 af 18 3f d5 f7 8b c0 94 95 15 c0 38 81 26 c0
       0.5964337 -4.374003 -2.3372545 -2.601637
000270 3b 9c d8 c0 59 a7 93 c0 b4 e4 89 c0 e5 51 99 bf
       -6.769071 -4.614178 -4.309168 -1.1978117
000280 ff 3f e4 be 55 2b 23 bf 32 64 8d be e6 a3 b8 3e
       -0.44580075 -0.63737994 -0.27615505 0.36062545
000290 5e c2 71 3f c3 c4 73 bf 25 80 8a be 09 3f dd be
       0.94437206 -0.9522211 -0.27050892 -0.43212155
0002a0 82 90 62 be 5b df d8 3e 24 4f 24 3f 32 1d 6f be
       -0.22125438 0.42357907 0.6418326 -0.23350981
0002b0 30 2f c2 3e be bf 3b 3f 31 0d 98 c0 cb 17 4c c0
       0.37926626 0.7333945 -4.7516103 -3.1889522
0002c0 0e 60 3a c0 dd 58 a2 be 36 7c cc 3e 73 14 0c 3f
       -2.9121127 -0.31708422 0.39938515 0.54718703
0002d0 d8 79 b5 c0 92 6f 75 c0 23 63 64 c0 26 c1 72 bf
       -5.6711235 -3.8349347 -3.5685508 -0.9482597
0002e0 20 40 19 be 21 5e 04 bf ea b8 a7 c0 10 12 33 c0
       -0.14965868 -0.5170613 -5.2413225 -2.7979774
0002f0 14 78 4f c0 55 d3 b9 c0 22 dc 49 c0 a6 eb 65 c0
       -3.241704 -5.8070474 -3.1540608 -3.5925078
000300 e0 6f 71 be dd 6b ba 3e 7f b0 51 3f d0 f0 63 be
       -0.23577833 0.36410418 0.81909937 -0.22259831
000310 1f bd da 3e 26 f1 68 3f 76 da 4d bf 60 a9 ac bd
       0.42722413 0.90992963 -0.8041147 -0.08430743
000320 2e d4 6f be 7b 24 8a c0 1a 23 38 c0 48 5d 28 c0
       -0.23420784 -4.316953 -2.8771424 -2.6306934
000330 5e 4d 72 be 2c ed da 3e 51 66 44 3f dd 4e a0 c0
       -0.23662326 0.42759073 0.7671862 -5.009627
000340 2f 8c 59 c0 47 d0 45 c0 5f 1a d3 be ed 0f a8 3e
       -3.3991811 -3.0908372 -0.41231057 0.3282465
000350 4f d6 80 3f 91 44 6b c0 2b ad fc bf 4c 29 03 c0
       1.0065402 -3.67606 -1.9740347 -2.0493956
000360 90 86 ee be 7c 2e 9d 3e 35 a2 53 3f bf 11 58 c0
       -0.46587038 0.30699527 0.82669383 -3.3760831
000370 bd 45 03 c0 9f 01 04 c0 ff b4 96 c0 0c 62 4b c0
       -2.0511315 -2.062599 -4.7095942 -3.1778593
000380 50 f1 39 c0 dc 5a 01 be cc 02 f3 3e 18 62 4f 3f
       -2.9053535 -0.12632316 0.4746307 0.81009054
000390 2a 4a 73 be 88 4b c7 3e 45 e8 2f 3f 56 c4 1d be
       -0.2375876 0.38924813 0.6871379 -0.15406927
0003a0 ce d6 71 3e 86 82 4e 3f 4c 15 3e be b0 b0 63 3e
       0.23617098 0.8066791 -0.18562812 0.2223537
0003b0 8f 1b 4b 3f ba 23 a1 be a4 b4 c1 3e d2 f6 5b 3f
       0.79338926 -0.3147257 0.3783313 0.8592349
0003c0 55 85 87 be 78 15 e3 3e 11 bb 84 3f 31 6f b1 c0
       -0.26468912 0.44352317 1.0369588 -5.544823
0003d0 0c ac 72 c0 be 04 5c c0 fb f5 19 bf 20 e1 fb 3d
       -3.791751 -3.4377894 -0.6014096 0.122987986
0003e0 25 3f 13 3f 00 81 a7 c0 c9 71 64 c0 63 62 4f c0
       0.57518226 -5.234497 -3.569445 -3.24038
0003f0 1f 0e 5c bf c6 5d 59 be a4 64 34 be 5e 4a 76 be
       -0.8595905 -0.21227178 -0.17616516 -0.24051806
