models/optimization/IN_100_5_0.02547906588723995_0.6467466969482143_8_3.pt (torch, 15322 bytes, 18 tensors)

weight f4 [5, 9]
0.7012969 -0.046953574 0.8609184 -0.74443233 0.03622309 -0.8368575 -0.5470225 0.2757229
7.5658946 0.00839132 -0.21611236 -0.17772761 0.15021746 -0.5938645 -0.29353392 0.19310437
-0.28686512 -0.023126494 0.14477165 0.3453264 0.024205633 -0.5389269 -0.09591559 -0.7051323
2.2320662 1.5382415 1.269246 -0.128264 -0.046402737 -0.36468947 0.114325784 0.029332355
0.25983545 -1.1274871 -1.1261864 -5.9179196 -0.37091246 0.005420129 -0.8323042 0.3669469
-0.044118278 0.90370905 0.17617068 0.5166501 -7.421169
00000000: 3288 333f 6452 40bd 2665 5c3f 1e93 3ebf
00000010: aa5e 143d 4b3c 56bf ab09 0cbf 8d2b 8d3e
00000020: cf1b f240 bf7b 093c 8f4c 5dbe 3afe 35be
00000030: 9bd2 193e 8107 18bf 144a 96be 27bd 453e
00000040: fcdf 92be c673 bdbc 053f 143e 9fce b03e
00000050: e44a c63c 1df7 09bf 656f c4bd 8d83 34bf
00000060: 2cda 0e40 19e5 c43f a776 a23f a357 03be
00000070: cc10 3ebd 94b8 babe a323 ea3d 684a f03c
00000080: 2709 853e 7f51 90bf e026 90bf 995f bdc0
00000090: 3de8 bdbe 569b b13b e311 55bf 77e0 bb3e
000000a0: 5eb5 34bd 7a59 673f 1666 343e 2e43 043f
000000b0: 377a edc0

bias f4 [5]
-0.024297545 -0.61020523 0.11574819 0.112769604 0.08328819
00000000: a50b c7bc 6936 1cbf 630d ed3d c0f3 e63d
00000010: 0093 aa3d

weight f4 [5, 5]
-1.9973879 0.07793678 -0.11832444 -0.22745506 -1.9721872 -0.6508136 -0.10274277 -0.38484064
-0.29811546 -0.10844089 -0.15190731 -0.20477699 -0.31672204 0.010063154 -0.56271046 -0.9109213
-0.14679317 -0.33857635 -0.2539705 0.54886615 -1.1015979 -0.08525512 0.56955427 -0.85116136
0.078032464
00000000: 68aa ffbf 529d 9f3d 1654 f2bd fbe9 68be
00000010: a170 fcbf b89b 26bf cd6a d2bd d509 c5be
00000020: 97a2 98be 4216 debd 978d 1bbe 0fb1 51be
00000030: 6429 a2be eddf 243c cb0d 10bf 2332 69bf
00000040: f350 16be e159 adbe 6c08 82be 7e82 0c3f
00000050: 2901 8dbf 3d9a aebd 4fce 113f b6e5 59bf
00000060: 7ccf 9f3d

bias f4 [5]
1.4403559 -0.23024826 -0.50835496 -0.15973534 0.19345768
00000000: 955d b83f 33c6 6bbe 8d23 02bf a991 23be
00000010: c519 463e

weight f4 [3, 5]
1.5909089 -0.20056072 0.100755304 -0.8780096 0.6376643 -2.0249872 0.20033099 0.06116492
-0.10395594 -0.7419313 2.0102537 0.4520588 0.23619679 0.4482136 0.8976552
00000000: e7a2 cb3f ca5f 4dbe cc58 ce3d 3dc5 60bf
00000010: f83d 233f 6499 01c0 9123 4d3e 1188 7a3d
00000020: dae6 d4bd 36ef 3dbf ffa7 0040 4074 e73e
00000030: 92dd 713e 417c e53e bbcc 653f

bias f4 [3]
-0.48165154 1.0801202 -0.25453866
00000000: 089b f6be 6141 8a3f e452 82be

weight f4 [5, 6]
0.7711259 0.3369293 0.63328874 -0.31017232 0.7901526 0.10603051 -0.27499053 0.3910491
0.48430234 -0.48395827 -0.48233926 0.10100431 0.16661984 -0.30512905 0.053322162 0.36872035
-0.64162076 0.8637913 -0.061044816 -0.21859783 0.32282373 0.17866908 0.20881246 -0.0466675
0.09353953 -0.70655304 0.035032112 0.2788071 -0.01713032 -0.3637417
00000000: 8268 453f ff81 ac3e 361f 223f e8ce 9ebe
00000010: 7147 4a3f 8626 d93d 8fcb 8cbe 9637 c83e
00000020: 7af6 f73e 61c9 f7be 2cf5 f6be 59db ce3d
00000030: 649e 2a3e e039 9cbe 5768 5a3d eac8 bc3e
00000040: 4241 24bf 6d21 5d3f 210a 7abd 1cd8 5fbe
00000050: 2749 a53e 07f5 363e efd2 553e 6c26 3fbd
00000060: a791 bf3d a9e0 34bf d57d 0f3d cebf 8e3e
00000070: e354 8cbc 5a3c babe

bias f4 [5]
-0.35081625 -1.0226489 -1.2080653 -0.3505025 -0.33149427
00000000: 309e b3be 29e6 82bf e2a1 9abf 1075 b3be
00000010: 9eb9 a9be

weight f4 [5, 5]
-0.14508492 -0.2460157 -0.030203389 -0.29272032 -0.31388956 -0.045533862 0.60829353 -0.63318604
-0.41988763 0.036470108 0.3628872 -0.8541826 -0.37982902 -0.09711508 0.09698849 -0.5279838
0.046759274 1.0343727 0.1184313 -0.018086502 0.43878683 0.25401846 -0.40356687 -0.35946992
-0.14958438
00000000: 2491 14be 8aeb 7bbe 196d f7bc 70df 95be
00000010: 22b6 a0be b781 3abd 20b9 1b3f 7b18 22bf
00000020: 83fb d6be ae61 153d 5acc b93e b6ab 5abf
00000030: f378 c2be 45e4 c6bd e7a1 c63d f229 07bf
00000040: a786 3f3d 5366 843f 1c8c f23d 252a 94bc
00000050: aba8 e03e b50e 823e 51a0 cebe 710c b8be
00000060: a62c 19be

bias f4 [5]
-0.21753888 -0.21531175 -0.43497816 -0.25360662 -0.39859638
00000000: 83c2 5ebe af7a 5cbe 75b5 debe bad8 81be
00000010: d314 ccbe

weight f4 [3, 5]
-0.1417912 0.36122757 -0.21838383 -0.0021201172 0.1691756 -0.1172843 -0.5374587 0.007108101
-0.2068988 -0.45917407 0.23099457 0.2814647 0.5031486 -0.6852683 0.54916257
00000000: b631 11be d2f2 b83e 03a0 5fbe aaf1 0abb
00000010: 5e3c 2d3e c032 f0bd e596 09bf 13eb e83b
00000020: 47dd 53be dd18 ebbe d789 6c3e 241c 903e
00000030: 59ce 003f be6d 2fbf eb95 0c3f

bias f4 [3]
-0.07481683 0.42581642 0.0022762406
00000000: 9139 99bd 9c04 da3e fb2c 153b

weight f4 [5, 9]
-0.06590951 0.5024107 0.3523646 -0.021051446 0.77686816 0.7081676 0.96008235 -0.55661047
0.5666302 -0.2266318 -0.18082464 -0.5669052 -0.109528415 0.88353133 -0.2894985 -1.2826298
1.1260644 -0.7438527 0.028930375 -0.11671362 -0.76323867 0.15129443 1.3658628 1.1125381
-0.17220113 0.81945574 -0.5483074 0.11104212 0.15782242 -0.1482299 -0.33974025 0.10677418
-0.5801426 -1.4495326 1.1884193 -1.1963023 0.08245145 -0.28139877 0.14585726 -0.22452794
0.0643684 0.48523098 1.2791712 -0.7554573 0.4996062
00000000: 91fb 86bd fd9d 003f 2269 b43e 1574 acbc
00000010: d5e0 463f 794a 353f f5c7 753f 067e 0ebf
00000020: ad0e 113f 2b12 68be 182a 39be b320 11bf
00000030: 6f50 e0bd 1c2f 623f 2639 94be 372d a4bf
00000040: e122 903f 216d 3ebf 65ff ec3c 8d07 efbd
00000050: 9c63 43bf edec 1a3e 98d4 ae3f a667 8e3f
00000060: 7e55 30be dac7 513f e05d 0cbf 0d6a e33d
00000070: 339c 213e 94c9 17be 6ff2 adbe 6cac da3d
00000080: 3a84 14bf 498a b9bf 201e 983f 6f20 99bf
00000090: 4edc a83d 8013 90be 9b5b 153e a7ea 65be
000000a0: 94d3 833d 3270 f83e e2bb a33f a665 41bf
000000b0: 62cc ff3e

bias f4 [5]
-0.09293927 0.26980814 -0.1458942 0.29073027 0.084603764
00000000: f256 bebd 4b24 8a3e 4a65 15be 99da 943e
00000010: bd44 ad3d

weight f4 [5, 5]
0.20335028 -0.9736864 0.3208602 -0.23132148 0.1474888 0.5828634 0.04873872 -1.3126456
-0.23238643 0.53512007 -0.6430431 0.08866826 -0.13167363 -0.7509202 -0.2928408 0.5853895
-0.034164537 -0.18923204 -0.23368354 0.7261036 0.080343954 1.0514394 0.2748488 1.14737
-0.24465206
00000000: 0e3b 503e 8343 79bf ca47 a43e 8adf 6cbe
00000010: 4e07 173e 8936 153f 41a2 473d c504 a8bf
00000020: b5f6 6dbe a1fd 083f 799e 24bf b497 b53d
00000030: 74d5 06be 4e3c 40bf 3bef 95be 16dc 153f
00000040: 1df0 0bbd 0bc6 41be bd4a 6fbe ede1 393f
00000050: 5f8b a43d 9195 863f fbb8 8c3e 05dd 923f
00000060: 1286 7abe

bias f4 [5]
-0.20030305 -0.18953654 -0.94492835 -0.08645829 0.6229331
00000000: 3e1c 4dbe de15 42be d3e6 71bf 0b11 b1bd
00000010: 8b78 1f3f

weight f4 [1, 5]
0.098605245 0.47923246 0.30657473 0.40485686 -0.5811768
00000000: 8cf1 c93d f55d f53e 5df7 9c3e 6649 cf3e
00000010: 01c8 14bf

E f4 [268, 3]
-1.3180377 1.1529664 0.49303997 1.6856883 -1.5741658 3.0237305 -2.199801 1.0877784
1.0689238 1.8179395 -1.7346721 3.2023323 -0.5490058 1.2098203 -0.0092184525 1.6243749
-1.4884098 2.9385521 -1.6922071 1.1253045 0.73741186 1.1869826 -0.95446897 2.3472161
-0.5490058 1.2098203 -0.0092184525 -1.4639797 1.1421771 0.5883554 1.7662599 -1.6760297
3.1333947 1.6489859 -1.508332 2.9697046 1.6952028 -1.5952172 3.038571 -0.5490058
1.2098203 -0.0092184525 1.6134315 -1.4779246 2.924359 -2.0595047 1.0981505 0.97729564
-0.5490058 1.2098203 -0.0092184525 1.4505296 -1.280432 2.7044091 -0.5490058 1.2098203
-0.0092184525 -1.475848 1.1412996 0.59610665 1.4889758 -1.4122841 2.774177 1.6884573
-1.6823134 3.0494225 -0.5490058 1.2098203 -0.0092184525 1.9916527 -2.1146235 3.4723587
1.3117707 -1.2856576 2.5533938 -0.5490058 1.2098203 -0.0092184525 1.5568204 -1.5200825
2.871133 1.7034574 -1.7326055 3.076402 -1.1902142 1.1624163 0.4095578 1.45351
-1.4744167 2.7483153 0.7838059 -0.63869774 1.839093 0.25998968 0.075995564 1.11515
-0.5490058 1.2098203 -0.0092184525 -0.5490058 1.2098203 -0.0092184525 -1.9366977 1.1072295
0.8970898 1.5460327 -1.3976045 2.8336482 -0.5490058 1.2098203 -0.0092184525 0.9794789
-0.77714825 2.0825982 -6.3011436 0.78456986 3.7475305 -3.7185383 0.9754996 2.0608187
1.9067261 -1.8536162 3.3245807 -5.978446 0.8084266 3.536775 0.49997717 -0.26035213
1.4486926 -2.59687 1.0584235 1.3282515 1.6734307 -1.5586693 3.007047 1.9067261
-1.8536162 3.3245807 -0.5490058 1.2098203 -0.0092184525 1.2354128 -1.1753635 2.4465828
1.9151175 -2.0149813 3.3675847 -0.9435042 1.1806554 0.24843037 -0.5490058 1.2098203
-0.0092184525 -0.5490058 1.2098203 -0.0092184525 -0.5490058 1.2098203 -0.0092184525 2.3062015
-2.4645298 3.8904772 -0.5490058 1.2098203 -0.0092184525 -0.5490058 1.2098203 -0.0092184525
1.7152846 -1.6892745 3.0802896 -1.5806167 1.1335542 0.6645315 -0.5490058 1.2098203
-0.0092184525 1.2919722 -1.1935539 2.512395 -0.5490058 1.2098203 -0.0092184525 -2.1065173
1.0946748 1.0079998 1.6741395 -1.5420299 3.0043383 -0.5490058 1.2098203 -0.0092184525
1.9067261 -1.8536162 3.3245807 -2.7595813 1.0463943 1.4345192 -0.5490058 1.2098203
-0.0092184525 -0.5490058 1.2098203 -0.0092184525 -0.4539255 1.0765631 0.12292731 1.4546833
-1.4691224 2.7484925 1.6113241 -1.6178286 2.9513586 -0.5490058 1.2098203 -0.0092184525
1.8124585 -1.7273297 3.1947858 1.9067261 -1.8536162 3.3245807 -1.1015173 1.1689736
0.3516295 1.2896771 -1.0735037 2.484729 1.7174914 -1.6117043 3.066458 1.9067261
-1.8536162 3.3245807 0.46597403 -0.034754634 1.3641557 -2.5769022 1.0598997 1.3152105
-1.1057838 1.1686581 0.35441595 1.8393085 -1.8434088 3.2485373 -3.377781 1.0006914
1.8382683 -4.8616204 0.8909925 2.807371 -1.8258078 1.1154275 0.8246671 -5.8396907
00000000: 76b5 a8bf 6794 933f bc6f fc3e a2c4 d73f
00000010: 447e c9bf cd84 4140 8ac9 0cc0 533c 8b3f
00000020: 7fd2 883f 3eb2 e83f bc09 debf 03f3 4c40
00000030: a58b 0cbf 64db 9a3f fe08 17bc 84eb cf3f
00000040: 3684 bebf 3d11 3c40 3e9a d8bf fa09 903f
00000050: 06c7 3c3f 0cef 973f 1458 74bf ca38 1640
00000060: a58b 0cbf 64db 9a3f fe08 17bc b063 bbbf
00000070: dc32 923f 769e 163f ce14 e23f 2488 d6bf
00000080: 8a89 4840 f811 d33f 0611 c1bf a40f 3e40
00000090: 68fc d83f 1430 ccbf f277 4240 a58b 0cbf
000000a0: 64db 9a3f fe08 17bc ec84 ce3f a22c bdbf
000000b0: b328 3b40 edce 03c0 3290 8c3f 0c30 7a3f
000000c0: a58b 0cbf 64db 9a3f fe08 17bc f4aa b93f
000000d0: 32e5 a3bf 0a15 2d40 a58b 0cbf 64db 9a3f
000000e0: fe08 17bc 96e8 bcbf 1b16 923f 729a 183f
000000f0: c296 be3f bac5 b4bf 1e8c 3140 5e1f d83f
00000100: 0c56 d7bf bd29 4340 a58b 0cbf 64db 9a3f
00000110: fe08 17bc 7aee fe3f fe55 07c0 203b 5e40
00000120: 1ae8 a73f 6e90 a4bf ce6a 2340 a58b 0cbf
00000130: 64db 9a3f fe08 17bc e445 c73f 1092 c2bf
00000140: a5c0 3740 e40a da3f 04c6 ddbf c5e3 4440
00000150: f058 98bf 0fca 943f 8fb1 d13e 9e0c ba3f
00000160: b0b9 bcbf 66e4 2f40 81a7 483f b281 23bf
00000170: 6667 eb3f 5e1d 853e 90a3 9b3d 3cbd 8e3f
00000180: a58b 0cbf 64db 9a3f fe08 17bc a58b 0cbf
00000190: 64db 9a3f fe08 17bc b6e5 f7bf b2b9 8d3f
000001a0: ada7 653f 66e4 c53f b4e4 b2bf 7e5a 3540
000001b0: a58b 0cbf 64db 9a3f fe08 17bc 21bf 7a3f
000001c0: 30f3 46bf 4a49 0540 f8a2 c9c0 92d9 483f
000001d0: 8ad7 6f40 88fc 6dc0 57ba 793f 74e4 0340
000001e0: 9a0f f43f 4c43 edbf eec5 5440 6e4f bfc0
000001f0: 0cf5 4e3f 865a 6240 02fd ff3e e04c 85be
00000200: c26e b93f 1e33 26c0 6c7a 873f 2504 aa3f
00000210: fa32 d63f 7a82 c7bf 7573 4040 9a0f f43f
00000220: 4c43 edbf eec5 5440 a58b 0cbf 64db 9a3f
00000230: fe08 17bc 0222 9e3f 5072 96bf d094 1c40
00000240: 9222 f53f 74f5 00c0 8286 5740 7e89 71bf
00000250: b71f 973f 8864 7e3e a58b 0cbf 64db 9a3f
00000260: fe08 17bc a58b 0cbf 64db 9a3f fe08 17bc
00000270: a58b 0cbf 64db 9a3f fe08 17bc ce98 1340
00000280: dbba 1dc0 94fd 7840 a58b 0cbf 64db 9a3f
00000290: fe08 17bc a58b 0cbf 64db 9a3f fe08 17bc
000002a0: 728e db3f 263a d8bf 7723 4540 a651 cabf
000002b0: 4e18 913f bd1e 2a3f a58b 0cbf 64db 9a3f
000002c0: fe08 17bc 585f a53f 60c6 98bf 14cb 2040
000002d0: a58b 0cbf 64db 9a3f fe08 17bc 2ed1 06c0
000002e0: 4e1e 8c3f 2306 813f 344a d63f 3c61 c5bf
000002f0: 1447 4040 a58b 0cbf 64db 9a3f fe08 17bc
00000300: 9a0f f43f 4c43 edbf eec5 5440 fb9c 30c0
00000310: 40f0 853f 539e b73f a58b 0cbf 64db 9a3f
00000320: fe08 17bc a58b 0cbf 64db 9a3f fe08 17bc
00000330: ec68 e8be d2cc 893f 50c1 fb3d 1033 ba3f
00000340: 340c bcbf 4de7 2f40 de3f ce3f 0215 cfbf
00000350: 0fe3 3c40 a58b 0cbf 64db 9a3f fe08 17bc
00000360: a4fe e73f 2419 ddbf 5f77 4c40 9a0f f43f
00000370: 4c43 edbf eec5 5440 85fe 8cbf eda0 953f
00000380: c808 b43e 2414 a53f 9268 89bf cd05 1f40
00000390: c2d6 db3f 544c cebf d940 4440 9a0f f43f
000003a0: 4c43 edbf eec5 5440 2694 ee3e e05a 0ebd
000003b0: a79c ae3f f7eb 24c0 cbaa 873f d158 a83f
000003c0: 538a 8dbf 9796 953f 0276 b53e 766e eb3f
000003d0: d2f4 ebbf 09e8 4f40 902d 58c0 a816 803f
000003e0: 604c eb3f 6592 9bc0 1618 643f f7ab 3340
000003f0: 12b4 e9bf 54c6 8e3f 621d 533f bfde bac0
