models/optimization/IN_100_6_0.023881345776401035_0.7022301252855967_3_3_state_dict.pt (torch, 7313 bytes, 17 tensors)

R1.layers.0.weight f4 [6, 9]
-0.2664062 -0.22659029 -0.15381004 -0.026420377 0.2451507 0.2433242 -0.5372986 0.3142877
-0.28379926 -0.34837556 -0.2609781 -0.3264869 -0.25440747 0.0015095724 -0.42003927 -0.17688511
0.09237503 0.2379349 0.10930197 -0.056756597 0.2134101 0.17423384 -0.4095443 -0.38199165
-0.083468504 -0.23799121 0.31261864 -0.5120894 0.124566995 -0.41031852 0.48972243 0.27125114
0.45571136 -0.61769265 0.12189606 -0.59455514 -0.19480829 -0.17952272 -0.30543172 0.1728658
0.17375809 0.29961294 -0.81010115 -0.012703752 -0.82213277 0.38072875 0.38367048 0.55225223
-0.57985073 0.12059954 -0.14137198 0.5494491 -0.25018266 0.6429541
00000000: 6566 88be 4907 68be 6180 1dbe 8c6f d8bc
00000010: c908 7b3e fb29 793e 678c 09bf 51ea a03e
00000020: 234e 91be 485e b2be ec9e 85be 4a29 a7be
00000030: b241 82be d8dc c53a 630f d7be 5f21 35be
00000040: 1f2f bd3d 35a5 733e b6d9 df3d 9b79 68bd
00000050: 2d88 5a3e 5b6a 323e caaf d1be 6994 c3be
00000060: 89f1 aabd f8b3 73be 8d0f a03e 4a18 03bf
00000070: fb1c ff3d 4515 d2be e6bc fa3e 6ee1 8a3e
00000080: 0053 e93e 1b21 1ebf a4a4 f93d c434 18bf
00000090: d37b 47be ced4 37be 8c61 9cbe bb03 313e
000000a0: a4ed 313e de66 993e ca62 4fbf 6623 50bc
000000b0: 4b77 52bf e1ee c23e 7570 c43e 6760 0d3f
000000c0: 1971 14bf e4fc f63d d1c3 10be b2a8 0c3f
000000d0: f117 80be a498 243f

R1.layers.0.bias f4 [6]
0.08567053 0.21368174 -0.3567124 0.22729963 0.14140116 -0.024552295
00000000: 0874 af3d 63cf 5a3e 02a3 b6be 3cc1 683e
00000010: 77cb 103e e521 c9bc

R1.layers.2.weight f4 [6, 6]
-0.16227034 -0.15473655 0.09591144 -0.32893902 0.52267826 0.3592304 0.31166705 -0.21633445
0.24199632 0.4714361 0.71597785 -0.42904845 0.036139105 -0.17902054 0.18943992 0.20858707
-0.7337672 -0.04624804 0.049022187 -0.106273785 -0.09940822 0.29508835 0.6396428 -0.23976211
-0.2785641 -0.038829632 0.25494286 -0.410445 -0.02655552 0.45183247 -0.07055864 0.652933
-0.1370414 0.283147 -0.6341582 0.4195143
00000000: 322a 26be 4273 1ebe 386d c43d b26a a8be
00000010: 3ece 053f 0ced b73e d392 9f3e c786 5dbe
00000020: e2cd 773e 1360 f13e 534a 373f 3dac dbbe
00000030: 9906 143d 2951 37be 8afc 413e d997 553e
00000040: 2bd8 3bbf 966e 3dbd 7dcb 483d 12a6 d9bd
00000050: 8996 cbbd d215 973e a1bf 233f 3384 75be
00000060: f49f 8ebe d20b 1fbd df87 823e d925 d2be
00000070: f68a d9bc 9656 e73e 0c81 90bd 9e26 273f
00000080: 9554 0cbe a5f8 903e 3158 22bf 94ca d63e

R1.layers.2.bias f4 [6]
0.120377064 -0.21872889 0.3286964 -0.08741767 0.05780847 -0.12088984
00000000: 4088 f63d 77fa 5fbe e54a a83e 0908 b3bd
00000010: 93c8 6c3d 1895 f7bd

R1.layers.4.weight f4 [3, 6]
-1.0078746 -0.41257706 0.2615792 -0.22378573 -0.7460349 0.41907313 0.030638976 -0.29896918
0.56950206 -0.5324494 -0.38826823 0.18179086 0.6869325 0.6914346 -0.48324388 0.7454638
0.91409355 -0.2782246
00000000: 0902 81bf 4d3d d3be b5ed 853e 1628 65be
00000010: 25fc 3ebf c190 d63e 97fe fa3c 7d12 99be
00000020: e3ca 113f 9b4e 08bf 18cb c6be 6227 3a3e
00000030: cfda 2f3f dc01 313f be6b f7be b7d6 3e3f
00000040: 0902 6a3f 7473 8ebe

R1.layers.4.bias f4 [3]
-0.014927022 -0.08280961 -0.21731633
00000000: 7890 74bc 1698 a9bd 2c88 5ebe

O.layers.0.weight f4 [6, 6]
0.3860911 0.067883015 0.40719473 -0.2574466 -0.18427934 0.014464242 0.1267119 -0.0021776203
0.4541649 -0.204855 -0.017274149 0.25893575 0.3685903 -0.16823383 0.29904604 0.21514125
-0.0047761197 -0.25378156 0.047139052 0.07615152 -0.47467208 -0.21072884 -0.07320552 -0.23382068
-0.09900852 0.34523386 0.34124067 -0.4327312 -0.2822623 0.30867004 -0.08030025 -0.014576921
-0.04296839 0.050435983 -0.45718262 0.34010142
00000000: bcad c53e 4006 8b3d d47b d03e 0ad0 83be
00000010: b9b3 3cbe 6efb 6c3c c4c0 013e 68b6 0ebb
00000020: 4d88 e83e 82c5 51be 8482 8dbc 3a93 843e
00000030: deb7 bc3e 7d45 2cbe 901c 993e fd4d 5c3e
00000040: ff80 9cbb a8ef 81be e114 413d 54f5 9b3d
00000050: 3808 f3be 4dc9 57be c7ec 95bd b06e 6fbe
00000060: fbc4 cabd 7ec2 b03e 19b7 ae3e f28e ddbe
00000070: af84 90be 000a 9e3e 7574 a4bd 0ad4 6ebc
00000080: 9fff 2fbd f695 4e3d d713 eabe c621 ae3e

O.layers.0.bias f4 [6]
-0.45847946 -0.33010775 0.12219058 0.24743482 0.44690728 0.18983002
00000000: d2bd eabe e203 a9be 0e3f fa3d 8e5f 7d3e
00000010: 08d1 e43e cd62 423e

O.layers.2.weight f4 [6, 6]
0.36656803 0.33013898 0.1165484 -0.28864118 0.23507035 -0.11251032 0.017858531 0.4126342
0.41652918 0.14560755 -0.4896864 -0.372957 -0.010157538 -0.113738604 0.09045487 0.05390261
0.28134415 -0.27664152 0.3017909 -0.09288239 -0.5481695 0.17577079 0.31541872 0.20151064
-0.3584959 0.109823346 -0.22521229 -0.2594187 0.07957342 0.3244931 0.09858959 -0.15500003
0.045770057 0.44817486 -0.25882843 -0.35370907
00000000: ceae bb3e fa07 a93e edb0 ee3d c7c8 93be
00000010: 48b6 703e d06b e6bd 0e4c 923c ca44 d33e
00000020: 5043 d53e 251a 153e 2db8 fabe 38f4 bebe
00000030: cd6b 26bc c9ef e8bd 6740 b93d fcc8 5c3d
00000040: 570c 903e f5a3 8dbe 5684 9a3e 1f39 bebd
00000050: d654 0cbf 42fd 333e 907e a13e ce58 4e3e
00000060: c68c b7be 10eb e03d 0d9e 66be 87d2 84be
00000070: 64f7 a23d f623 a63e 57e9 c93d 54b8 1ebe
00000080: 6279 3b3d 2d77 e53e 2985 84be 5b19 b5be

O.layers.2.bias f4 [6]
0.17156082 0.20236278 0.45296013 0.011860437 -0.51775354 -0.18908143
00000000: a4ad 2f3e 3038 4f3e 64ea e73e 4752 423c
00000010: 7f8b 04bf 909e 41be

O.layers.4.weight f4 [3, 6]
0.15080377 -0.10851076 0.12955174 0.074333824 0.34964505 -0.4309599 0.36657727 0.06832897
-0.25613907 -0.24354567 0.029196326 -0.00213469 -0.13575405 -0.056429595 -0.19567585 -0.18855265
-0.09570677 -0.040895697
00000000: 4e6c 1a3e e43a debd 36a9 043e 553c 983d
00000010: ad04 b33e c7a6 dcbe 04b0 bb3e 0ff0 8b3d
00000020: a924 83be 0964 79be 222d ef3c 28e6 0bbb
00000030: 1c03 0bbe b822 67bd 405f 48be f213 41be
00000040: e901 c4bd 3f82 27bd

O.layers.4.bias f4 [3]
0.25014463 0.053796697 -0.04424782
00000000: f512 803e ed59 5c3d 343d 35bd

R2.layers.0.weight f4 [6, 9]
-0.08600405 0.109105185 0.19515762 -0.2352293 0.06570114 0.24530518 0.32050332 -0.06230682
-0.29393777 0.17385145 -0.23120098 0.15952858 0.10344353 -0.322664 0.45547643 0.15262116
-0.19149204 -0.11819915 -0.3616554 -0.070275195 -0.08589378 -0.38166714 -0.22330394 -0.0968763
0.17591684 0.07921281 0.04640726 -0.109683156 0.15721892 -0.1502865 0.15579739 0.19101651
-0.00020954572 0.6899202 0.08343054 -0.6892773 0.08998376 0.08961976 -0.15891121 -0.049173836
0.12965916 -0.037876047 0.62130505 0.21836215 -0.8275272 0.40231746 -0.10341206 -0.46048313
0.39137423 -0.040561177 0.06478658 0.52593946 0.41970354 -0.6496581
00000000: e422 b0bd 8a72 df3d 66d7 473e f3df 70be
00000010: 528e 863d 4831 7b3e 0319 a43e 7035 7fbd
00000020: 037f 96be 1d06 323e f3bf 6cbe 765b 233e
00000030: 34da d33d 3734 a5be 3534 e93e b948 1c3e
00000040: 7d16 44be 6512 f2bd e62a b9be 71ec 8fbd
00000050: 14e9 afbd e069 c3be caa9 64be 1567 c6bd
00000060: 8b23 343e 533a a23d 8a15 3e3d 90a1 e0bd
00000070: fffd 203e b4e4 19be 5a89 1f3e d599 433e
00000080: 80b9 5bb9 9c9e 303f a2dd aa3d 7a74 30bf
00000090: 6849 b83d 918a b73d 9fb9 22be 816a 49bd
000000a0: 5fc5 043e ea23 1bbd d90d 1f3f 549a 5f3e
000000b0: d3d8 53bf 8efc cd3e b4c9 d3bd 72c4 ebbe
000000c0: 3462 c83e 7a23 26bd d4ae 843d f8a3 063f
000000d0: 62e3 d63e fe4f 26bf

R2.layers.0.bias f4 [6]
-0.20743223 -0.43825954 -0.24329016 -0.029777989 0.2698653 0.021986542
00000000: 1d69 54be 8e63 e0be 0e21 79be f8f0 f3bc
00000010: c92b 8a3e 1f1d b43c

R2.layers.2.weight f4 [6, 6]
-0.34423116 0.17329274 0.3958227 0.05818791 -0.17098412 -0.14054088 -0.1813182 -0.18200831
-0.008521833 0.1576852 0.10567682 -0.1595804 -0.21815324 0.01480187 0.2444284 -0.32843545
-0.16720203 0.1994839 -0.13252749 -0.09762519 -0.50925714 0.24823916 0.5684749 0.79252404
-0.2237572 0.0753493 0.03637055 -0.25706828 -0.46683457 -0.3151521 -0.19808763 -0.18652518
0.2684268 -0.59233296 -0.32351005 -0.2583551
00000000: 113f b0be a773 313e 46a9 ca3e 7256 6e3d
00000010: 7616 2fbe f3e9 0fbe 7aab 39be 6360 3abe
00000020: 299f 0bbc 3b78 213e 176d d83d 0b69 23be
00000030: 9063 5fbe 8b83 723c 704b 7a3e b128 a8be
00000040: 0237 2bbe 8245 4c3e 49b5 07be b7ef c7bd
00000050: ad5e 02bf 6832 7e3e 9287 113f dbe2 4a3f
00000060: 9c20 65be bc50 9a3d 49f9 143d 749e 83be
00000070: f104 efbe 9e5b a1be 7cd7 4abe 7500 3fbe
00000080: 3d6f 893e 22a3 17bf 1ca3 a5be 1f47 84be

R2.layers.2.bias f4 [6]
-0.27384564 -0.44512105 -0.17764494 0.090392195 0.66596574 0.73201615
00000000: 7f35 8cbe e8e6 e3be 8ee8 35be 8b1f b93d
00000010: bb7c 2a3f 6965 3b3f

R2.layers.4.weight f4 [1, 6]
0.12011471 -0.115676105 -0.03892582 0.38086072 -0.89774096 -0.848221
00000000: b3fe f53d 98e7 ecbd ae70 1fbd 2d00 c33e
00000010: 5ad2 65bf 0325 59bf
