models/optimization/IN_100_8_0.05587722597327292_0.5121148407465783_3_5_state_dict.pt (torch, 7889 bytes, 17 tensors)

R1.layers.0.weight f4 [8, 9]
00000000: 84a9 c4be 0323 033e 6eb6 25bf 390f 1d3f
00000010: aa99 833c ff72 453f b0e1 05c0 b94f 7340
00000020: bd8a 40c0 c7cb 05bf 8516 0ebf bfc5 21be
00000030: 7f70 2e3e 73a8 abbe 8195 3d3e 5665 9dbd
00000040: ae5d a3bb 8666 03bf 6ce5 853e c356 463e
00000050: 9e84 1a3f 51e2 6ebe 78f0 4fbe caa9 0ebf
00000060: 2b04 283f a364 5f3f 07e8 0d41 449d 12bf
00000070: c3d5 913c 0546 44bf 1969 a7be 1f9e c9be
00000080: daec 0ebf 7312 a1bf 7bc5 e43f e971 98bf
00000090: fc68 963e 742b 01bf 7c12 e63d 90bc 7abd
000000a0: 6a37 0cbf de51 babe 3dfa c93d 5965 353d
000000b0: 7869 453e abcf f2be 1912 88bd c572 4abf
000000c0: 738c e83e 9c83 5a3d 9edc 5f3f 62dd 7abf
000000d0: 213d 853f f404 c7c0 cd98 463e 12b8 cebe
000000e0: fed7 ad3e c35a c73e 20a2 0ebf 1e13 2e3f
000000f0: b933 1ac0 2fe5 c2bf f3bb 22c0 d6ec 1e3e
00000100: c332 44be 54ff a1be 4016 00bd 8e8c 47be
00000110: 2025 613d fbca d0bd d605 4f3c 0060 d739
-0.3841058 0.12806325 -0.6473149 0.6135135 0.016064484 0.77128595 -2.0918999 3.801741
-3.008468 -0.52264065 -0.5550311 -0.1579809 0.17035101 -0.33526954 0.18514062 -0.07685344
-0.0049855327 -0.51328313 0.26151597 0.19369034 0.6035861 -0.2332852 -0.20306575 -0.5572783
0.6563136 0.87262934 8.869147 -0.5727122 0.017802125 -0.7666934 -0.3269737 -0.3937845
-0.55830157 -1.2583755 1.7872766 -1.1909763 0.29376972 -0.5045693 0.11233994 -0.061214983
-0.54772055 -0.36390585 0.09862182 0.044286106 0.19278514 -0.47424063 -0.06644077 -0.79081374
0.45419654 0.05334817 0.8744601 -0.97994053 1.040928 -6.2193546 0.19394226 -0.4037481
0.3395385 0.38936433 -0.55716133 0.6799792 -2.409407 -1.5226191 -2.5427215 0.15520033
-0.19159989 -0.31640112 -0.03127122 -0.19487211 0.054967046 -0.101949655 0.012635669 0.0004107952

R1.layers.0.bias f4 [8]
00000000: 762d dc3b 5ce0 bbbe 01ba 20bc 799a 803e
00000010: 76f3 dcbe 479d 513c f36a b8bd b6ef 17bd
0.0067192866 -0.3669461 -0.009809972 0.25117853 -0.43154496 0.0127938455 -0.09004774 -0.03709384

R1.layers.2.weight f4 [8, 8]
00000000: 2676 a6bd 841e b53d cb01 04bf e20b 7ebc
00000010: 32c4 7dbd d04a 8cbf a0d0 6f3c 8fec a2bd
00000020: 6829 2a3f f2fc ebbd 3e1b 48bf 473e 873e
00000030: 9dc1 6abd dc3a 88bf 771b 15be ab26 18be
00000040: 5cd8 07bf b31c ed3e 3496 afbe e3be 32bc
00000050: 34d4 2d3e 25f9 dbbe 0a48 963c 39f0 f33d
00000060: c0c2 21bf 2bce 543e a606 34be 4b02 87be
00000070: ea34 08be 3794 a7be a809 31bd bee9 8d3e
00000080: aa03 863e 196a af3d cc08 acbf 36c0 643e
00000090: 391c ea3e 3326 d5bf 7502 4d3f e936 8bbe
000000a0: dfd3 1cbf 9cbc a13d 2f6e f6be fdc7 0a3d
000000b0: ecef 9e3d fe02 12bf fe3f 3cbe 71b0 873c
000000c0: 7a8e 1d3f 5700 82be 681a acbc 8a71 50bf
000000d0: 2cb3 963d e590 f8bf 8af7 37be 2a08 0f3e
000000e0: 9db9 6cbf e14a 2d3e b904 b1be 4598 093e
000000f0: b3a8 70be 1b6c 81be c40c d1be 41f5 463e
-0.08128004 0.08843711 -0.51565236 -0.015505763 -0.061954685 -1.0960331 0.014637142 -0.07955276
0.6646943 -0.11522855 -0.7816657 0.264147 -0.05731355 -1.0642962 -0.14561258 -0.148585
-0.53064513 0.46310958 -0.34294283 -0.010909769 0.1697548 -0.4296352 0.018344898 0.11911053
-0.6318779 0.20781772 -0.17580661 -0.26368937 -0.13301435 -0.32730266 -0.0432221 0.27717394
0.2617467 0.085651584 -1.3440185 0.22338948 0.45724657 -1.6652282 0.80081874 -0.2719033
-0.6126079 0.078973025 -0.48130938 0.03388213 0.07760605 -0.57035816 -0.18383786 0.016563626
0.61545527 -0.25390884 -0.021008685 -0.81423247 0.07358393 -1.9419218 -0.17965522 0.13967958
-0.92470723 0.16923095 -0.34573916 0.13436992 -0.23501854 -0.2527779 -0.40830052 0.19429494

R1.layers.2.bias f4 [8]
00000000: b0b2 eebe 1055 193e 210b 10bf b89d 23bf
00000010: 5bbf af3f e28e 13bf dd7a 4f3e 3566 49bf
-0.46620703 0.14973855 -0.5626698 -0.63912535 1.3730272 -0.57639897 0.20261712 -0.7867158

R1.layers.4.weight f4 [3, 8]
00000000: 93b5 883e 2e24 f23e 108f 013d 4c39 bb3e
00000010: 2407 993f 35a1 b8bd 557c 873f fac1 1f3e
00000020: 20bd 0abe a95b 0bbf ec21 82be b1bf 1fbf
00000030: f5b6 31bf f76c b3bc d1ec 95be 657e 003d
00000040: d4bb 0abf 93b3 20bf c2c9 8abd 9eac 18be
00000050: f028 c4bf 64a1 233d 3e10 debe 89b0 22bc
0.2670103 0.47293228 0.031630576 0.36567152 1.1955304 -0.09015123 1.0584818 0.1560134
-0.13548708 -0.5443674 -0.25416505 -0.6240187 -0.69419795 -0.021902544 -0.2928224 0.03137054
-0.5419285 -0.6277401 -0.067767635 -0.14909598 -1.5324993 0.039948836 -0.43371767 -0.009929785

R1.layers.4.bias f4 [3]
00000000: 8813 8dbf 13ec a3be 3df1 273f
-1.1021585 -0.32016048 0.65602475

O.layers.0.weight f4 [8, 6]
00000000: 49f4 163f 2832 0c3e 77ed 6b3e 7c8c 58bf
00000010: 2db6 41be 7cee 7e3f 8281 363c 1387 a3be
00000020: 8829 963e 6c63 f03d b5e4 383f 2bd2 2e3f
00000030: 5bfc 493e a300 eebe 5d1d 3a3e e300 993e
00000040: 812e 1d3f 0366 0d3f 17ed 6d3e f1a7 c8bd
00000050: b803 ab3e a081 803f efca 473d ad61 c3bd
00000060: 595f a7be f2e1 12bf 7e03 0d3b 6d00 7b3e
00000070: c7b7 f7bd 901d 253f c888 213d 1382 3b3e
00000080: 90bf a8be f8ea 193e 1e05 1cbf bd56 30bf
00000090: 22b2 39be 4d42 17bf 915e 633d 803a d83e
000000a0: 42f7 1cbf 1be5 f4be 242d 5d3e fb13 90be
000000b0: d9c4 b03e b1df 0cbf d4b3 073f a20b 3c3d
0.589665 0.13691008 0.23039804 -0.8458936 -0.18917151 0.9958265 0.0111392755 -0.3193899
0.2932856 0.11737713 0.7222398 0.6828944 0.19725172 -0.4648486 0.18175264 0.2988349
0.61399084 0.5523378 0.23234974 -0.09797657 0.33401275 1.0039558 0.048777517 -0.095401146
-0.32689932 -0.57376015 0.0021516974 0.24511881 -0.120955996 0.64498234 0.039437085 0.18311338
-0.3295865 0.1503104 -0.6094531 -0.6888235 -0.18134359 -0.5908554 0.055510107 0.42232132
-0.61314785 -0.47831044 0.21599251 -0.28140244 0.34525183 -0.55028826 0.5300877 0.04590953

O.layers.0.bias f4 [8]
00000000: bb19 b0be c407 37bf da04 08bf 218d b7bc
00000010: d59b 1fbe 3ac5 5a3d 37bb 58bf b0c3 3fbf
-0.3439463 -0.71496224 -0.531324 -0.022406163 -0.15586789 0.053410746 -0.8466067 -0.7490797

O.layers.2.weight f4 [8, 8]
00000000: 29b0 1ebf 2e31 ffbe 295d f9be 5db6 083d
00000010: a942 60be a5e2 1dbf 41de 76be f80c 56be
00000020: bfd0 aabe 830d a6be 32f7 7dbd 1767 053e
00000030: cf52 313e 4e13 b0be c991 b73d 87c6 07be
00000040: 5986 31be ac51 f6bc 447f 08be fcd8 65bf
00000050: 181e b0be 7b28 f5be 7497 a7be c9fb d5be
00000060: 6571 febe bf2a 7d3e 9c51 c63d 9665 d43e
00000070: 4484 95be 13d4 9e3e 9cb2 f13e 75fd 893b
00000080: 4b3c b1be 5d84 40bf a2d8 ebbc c53b de3e
00000090: 2b57 943c eaeb 3ebf 70a5 b5be a58d 79be
000000a0: 14e2 96be 27d1 c83e 7152 ee3e 9424 1ebe
000000b0: 2194 f6bc ff1c 1abf 74d6 debe c2a7 7bbe
000000c0: ab55 1fbf bc6f bbbc a4a8 8d3e 62f4 61bd
000000d0: f563 923e 9bc9 59be 92fe 36bf 6253 33bf
000000e0: f256 e8bd 261d 133f f7eb 6bbe 28cc b3be
000000f0: 756d 923d bc0c 18be 5b11 15bf 205b 5e3e
-0.6198755 -0.4984221 -0.48703888 0.03337704 -0.21900429 -0.6167396 -0.2410822 -0.20903385
-0.33362386 -0.32432184 -0.062003322 0.13027607 0.17316745 -0.34389728 0.08963353 -0.13259326
-0.17336406 -0.030068241 -0.13329798 -0.89784217 -0.3439796 -0.47882447 -0.32732737 -0.4179366
-0.49695888 0.24723338 0.096835345 0.41483754 -0.29202473 0.31021175 0.4720658 0.0042111226
-0.34616312 -0.7520197 -0.028789822 0.43404976 0.018107971 -0.74578726 -0.3547778 -0.2437044
-0.2946936 0.3922207 0.46547273 -0.15443641 -0.03009993 -0.60200495 -0.4352299 -0.24575713
-0.62240094 -0.022880428 0.27667725 -0.055164702 0.28591886 -0.21268313 -0.71482193 -0.7004911
-0.113447085 0.5746635 -0.23039232 -0.35116696 0.071497835 -0.14848608 -0.5822961 0.21714449

O.layers.2.bias f4 [8]
00000000: 8c5a 9cbe 690c 1fbe c98c 2ebf ea9d f4be
00000010: 8202 29be 05f4 90bd ae54 2ebf b0ad f6be
-0.30537832 -0.15532078 -0.6818357 -0.4777673 -0.16504863 -0.07077793 -0.6809796 -0.48179388

O.layers.4.weight f4 [3, 8]
00000000: b91e 02bf 1952 66bd 5b6f 10bf 15cd 00be
00000010: e10a 873e ba21 15bf e6ed 1b3c 7df5 56be
00000020: 6c3e 3abd c391 53be 7838 e93c de7a 213d
00000030: cdcf e43e 9cbf 0e3f b1c9 0dbd 81e7 16be
00000040: 33ba 67be 6bbd e33d d1e1 fdbc 2999 f8be
00000050: e914 c8be b7b8 4abb b7f9 11bf b03f 0cbf
-0.5082813 -0.05623064 -0.56419915 -0.12578233 0.26375487 -0.5825459 0.009517169 -0.20992084
-0.045469686 -0.20661072 0.02846931 0.039423816 0.4468979 0.5576112 -0.034616176 -0.14736749
-0.22629623 0.11120113 -0.030991467 -0.48554352 -0.39078453 -0.0030932853 -0.5702166 -0.5478468

O.layers.4.bias f4 [3]
00000000: 72bf 64bf 1db5 ccbe 1d40 893e
-0.8935462 -0.39981928 0.26806727

R2.layers.0.weight f4 [8, 9]
00000000: c970 463e c5b3 043f 92b9 703e cea1 c93e
00000010: 3763 143d 5787 8ebd 9e48 bfbd 81f6 a73e
00000020: 032c b43c f1a8 7f3f 3dd4 94bf 06ee ef3e
00000030: 5b3c 5d3f 9a36 3c3f 2efb a6be 7fa7 cfbe
00000040: 3a9d e93f 3471 ab3e 6302 c53d d8dd 133e
00000050: a03a 273e 8d17 a43e e2fa 3f3e f3d0 213e
00000060: 0534 ff3d 491e ec3e d97c ce3e 0b80 493f
00000070: 0ebf f9bc e19b da3e f7c8 e93e df01 783e
00000080: 65ed ea3e 608e 9ebe e2de 95bd 0067 c1be
00000090: 9524 023f 5fd0 1d3b 3f11 503f ea52 293e
000000a0: 8760 f4bd b2bd 9b3f 04a5 053f 3945 1dbf
000000b0: 6d8d 67bf abd2 1a3f a227 183e e6a9 d33e
000000c0: fd47 fd3e 64e1 1d3f 305c 4d3e 929a eebd
000000d0: e2c8 523e 615a 2a3e 2f48 48bf 2803 04bf
000000e0: c115 10bf 67b4 08bf 5ec8 eebe 3ee4 f33d
000000f0: 9bc6 bebf b536 533d 6df9 753f 106e 19bf
00000100: 62ad d6be ee38 f73e 8c4b 95be e582 3cbe
00000110: 9023 8f3e ccfc 3c3f 1450 acbe 527b 01bf
0.19378962 0.51836807 0.2350829 0.3938126 0.03622743 -0.06959408 -0.093400225 0.32805255
0.021993643 0.9986716 -1.162727 0.46861285 0.8642022 0.73520815 -0.3261351 -0.40557477
1.8251107 0.33484805 0.09619596 0.14440095 0.16330957 0.32049218 0.18748048 0.15802364
0.12461094 0.46116856 0.40329626 0.78711003 -0.03048661 0.4269705 0.45661137 0.24219464
0.45884243 -0.30967999 -0.07317902 -0.37773895 0.5083707 0.0024080498 0.81276315 0.16535535
-0.11932474 1.2167265 0.5220492 -0.6143375 -0.90450174 0.60477704 0.14858869 0.4134056
0.49468985 0.61672044 0.20054698 -0.11650576 0.20584443 0.1663604 -0.78235143 -0.51567316
-0.56283194 -0.5340027 -0.46637243 0.11908768 -1.490436 0.051565845 0.9608372 -0.5993357
-0.41929156 0.4828562 -0.291592 -0.18409307 0.2795682 0.7382324 -0.33654845 -0.50578797

R2.layers.0.bias f4 [8]
00000000: 0456 05bf 9164 ccbf aa99 05bf 997e 8f3d
00000010: 2603 303f e676 03bf a0b5 c53f 2486 d13e
-0.52084374 -1.596819 -0.521876 0.070065685 0.68754804 -0.513533 1.5446053 0.40922654

R2.layers.2.weight f4 [8, 8]
00000000: d4ce f7be 462c bfbc c42b e53d ef14 e0be
00000010: 4d74 b4be 282a fbbd 31f5 29bf ac03 24be
00000020: 6def 2dba de8a a93f 0de8 a2bd f52f a2bd
00000030: d4b5 11bf 63a3 ebbe 3263 c4be 3854 24be
00000040: 36e7 bfbc dd70 65be fe7c 8abe 812d 923c
00000050: 4528 e4be 1cb5 94be 9ef8 65be 00d9 82be
00000060: 95a8 013f c7cf 57be 87d5 1f3f c2a0 d63e
00000070: 7332 b53d 8ec6 363d c322 863f d369 23bf
00000080: a057 073e 241f 04bb e859 1cbd 63b9 0f3e
00000090: c927 383f e99a be3e be0a 4bbd f874 f53e
000000a0: 77c2 9b3e 53e4 003f 1752 98be 19ae a7bd
000000b0: 3990 5a3f 26b3 743e 2175 d5bf fc34 edbc
000000c0: 63a2 19be c219 17bf 9159 8f3e a3dd fcbe
000000d0: 8178 d8be a771 d1bd 4937 96be 3786 6dbd
000000e0: cb1e efbd 0c44 33be 55af 63be 568d 2bbf
000000f0: 636d 08bf 95fc 72be dd2b b2be 026f e4be
-0.48399985 -0.02333654 0.11189988 -0.4376597 -0.3524498 -0.122639 -0.6638976 -0.16017026
-0.00066351035 1.3245504 -0.079544164 -0.07919303 -0.5691807 -0.46023092 -0.3835693 -0.16047752
-0.02342568 -0.22406335 -0.27048486 0.017843964 -0.44561973 -0.29044425 -0.22458121 -0.25556183
0.5064786 -0.21075355 0.6243519 0.41919523 0.08847513 0.04462295 1.0479358 -0.6383335
0.1321702 -0.0020160163 -0.03817168 0.14035563 0.7193571 0.37227562 -0.04957079 0.47940803
0.30421802 0.50348395 -0.2975013 -0.08187503 0.85376316 0.23896465 -1.667637 -0.028955929
-0.15003352 -0.5902368 0.2799802 -0.49387845 -0.42279437 -0.102267556 -0.29339054 -0.057989325
-0.11675795 -0.17506427 -0.22234853 -0.67012537 -0.5329191 -0.23729165 -0.3479909 -0.44615942

R2.layers.2.bias f4 [8]
00000000: 2d5b 73be 1faf 89be b54a e8be 978a 203f
00000010: 2b99 833e b719 f43e 928f abbe cb35 4cbe
-0.2376525 -0.2689142 -0.45369497 0.6271147 0.25702795 0.4767587 -0.33507973 -0.19942395

R2.layers.4.weight f4 [1, 8]
00000000: b7cb 1c3c 69c1 213f a4a4 d13d a77b 44bf
00000010: 9d0b fa3e 4092 093f d5a3 7d3e bea8 aebe
0.009570054 0.63185745 0.10236481 -0.7675118 0.48836985 0.53738785 0.24769528 -0.34113115
