models/optimization/IN_100_8_0.016955431192873432_0.5003295396782066_3_3.pt (torch, 16154 bytes, 18 tensors)

weight f4 [8, 9]
00000000: 8041 a83e 1f1f 8a3e 4efe 173f 7926 a1be
00000010: 680e 87be e439 1ebf 09a5 d03e 4617 f93d
00000020: 4581 8240 1a1c 4f3e cece d4be 41ba 123f
00000030: b9dc 963e 8069 d4bd 85be 1abc 1701 ef3e
00000040: cb6c 21bf bf75 853f 1170 df3e f944 73bd
00000050: 1bf7 f03e fa2f 7bbe c315 063e 3438 49be
00000060: b8f3 793f 209d adbf 4ee8 6a3f a3e2 7b3e
00000070: c298 b83d 5178 e83e 92c0 26bf d42f 573d
00000080: 573d 94be 1939 a03f 2992 943f 0012 8a3f
00000090: f8e2 19bd 8247 c2be bb2c 0ebe f573 1abd
000000a0: ebde 263c 5f85 bebd 4044 76bd 7f1e fabd
000000b0: 7222 bbbd d2ff 823e 0505 68be b15e 523d
000000c0: fa31 7e3d feab debe 9715 a2be d597 873d
000000d0: 63fe af3d dfed f83e e078 cc3e 20c4 853a
000000e0: e6ff b63e 8218 d7be 5ce8 4c3c 11d4 b5be
000000f0: 5dd1 c93e 2909 13bf 2833 7d40 1271 f93e
00000100: 38f7 313d 6b40 de3e 4164 c8be 05c7 e4ba
00000110: aca4 18bf bf2a 8a3f 9659 4bbd c26b 1c40
0.32862473 0.2697687 0.59372413 -0.31474665 -0.2637818 -0.61807084 0.40750912 0.12162642
4.07828 0.20225564 -0.4156403 0.5731545 0.29465273 -0.10371685 -0.009444837 0.4668052
-0.6305663 1.0426558 0.43640187 -0.05939195 0.47063527 -0.2453002 0.13094239 -0.19650346
0.9763751 -1.3563576 0.9176072 0.24598174 0.09013511 0.45404294 -0.6513759 0.052535847
-0.2895305 1.2517425 1.1607105 1.0786743 -0.03756997 -0.3794518 -0.13884251 -0.03770824
0.010184984 -0.09302782 -0.060123682 -0.12212848 -0.09137429 0.255858 -0.22658165 0.051359836
0.06205938 -0.43490595 -0.31657097 0.066207565 0.08593442 0.4861898 0.3993597 0.0010205545
0.3574211 -0.42010885 0.012506571 -0.35513356 0.39417544 -0.5743585 3.9562473 0.48719078
0.043448657 0.43408522 -0.39138988 -0.0017454332 -0.5962627 1.0794295 -0.049645983 2.444077

bias f4 [8]
00000000: d8b8 82bd 45da 7b3e 5a3a 403b 5ede cebd
00000010: 7756 10be bf10 eebd 68bd a6bd 50d1 e93e
-0.063829124 0.24594982 0.0029331655 -0.10101007 -0.14095484 -0.11624288 -0.08141595 0.45667505

weight f4 [8, 8]
00000000: 25cf 6fbe 2bba 8d3e c3df a2be 9b33 babd
00000010: 9af3 5a3e be41 81be dfd3 41bc c37d 173e
00000020: d9a3 6abf e0fb 773d 0e91 e83e 879d e83e
00000030: 84ba 86bd f657 d73d c70c 12bf b2f2 033f
00000040: 3341 bdbf 0507 a73e e1c7 8c3d bf2b df3d
00000050: 9450 ea3e 3e66 233e 8b97 9bbf 181a 2f3f
00000060: 7986 85bf 7790 0a3f b66c 2e3e c799 be3e
00000070: 3c37 3ebe 2a7b 6b3d c536 a3bf fe12 313f
00000080: 0801 bebf 8dec 283d 97ed b43e a231 073e
00000090: 0133 1dbc b98a 28be 0236 3abf 364d 1f3f
000000a0: 640c 9bbe 18dd fe3b 11ed c8bd f0c1 08be
000000b0: 9975 6e3e 0a2d 863c 693d 45be 7c4d 11be
000000c0: 5625 903d 0851 1a3d 5b4b 9cbe 44fa abbe
000000d0: db4b 75bd 3f43 68bd dcbc c2bd c247 0fbd
000000e0: 755e 8f3e 36ea a73e 3758 6d3e ebf4 6d3b
000000f0: 8ebe a9be 91c3 603e f82a cd3e 9e0b 59be
-0.23418863 0.27681097 -0.31811342 -0.09091874 0.21381989 -0.2524547 -0.011830299 0.14794068
-0.9165626 0.06054294 0.45423168 0.45432684 -0.06578544 0.10514824 -0.57050747 0.515422
-1.4785522 0.32622543 0.068740614 0.10897016 0.457646 0.15956971 -1.2155622 0.6839919
-1.0431663 0.54126686 0.17033657 0.37226698 -0.18575758 0.057490505 -1.2751089 0.69169605
-1.4844065 0.041241217 0.35337517 0.13202527 -0.00959468 -0.16459168 -0.7273866 0.6222719
-0.3028289 0.0077778213 -0.09810842 -0.13355231 0.23287047 0.016378898 -0.19261707 -0.14189714
0.07038371 0.037674934 -0.30526242 -0.33589375 -0.059886795 -0.056704756 -0.09508678 -0.034980543
0.28001752 0.32795876 0.23178183 0.0036309313 -0.33153194 0.21949603 0.40071845 -0.21195838

bias f4 [8]
00000000: d77e 7fbe c70b 65be 7b60 f1bc 5c99 01be
00000010: 9207 3cbd 8e43 5ebe 86bc 78be 4f0e 45be
-0.2495073 -0.22367774 -0.02946495 -0.12656158 -0.045905657 -0.21705458 -0.24290666 -0.1924374

weight f4 [3, 8]
00000000: 8f83 8bbd c512 b5be 0bbb 2cbf 33fc 67bf
00000010: 108e 3cbf c0bf 503e 9284 b93c c719 74be
00000020: 8231 563d 21fb 30bf f6b0 95bf b532 58bf
00000030: 6f32 89bf 9b0f b83d 40a6 923e dedc 8f3e
00000040: ef32 4c3e db14 5a3f 0002 183f 6a5f 353f
00000050: 99fc 573f 33d7 25be e872 043e 70b5 35be
-0.06812202 -0.35365883 -0.67472905 -0.906192 -0.7365427 0.20385647 0.022646222 -0.23837958
0.052293308 -0.6913319 -1.1694629 -0.8445237 -1.0718516 0.089873515 0.28642464 0.28098196
0.19941305 0.8518807 0.5937805 0.70848715 0.8436981 -0.16195373 0.12934458 -0.17744994

bias f4 [3]
00000000: 2b93 943e 5000 7ebe ba9b 1abf
0.2901853 -0.24804807 -0.6039387

weight f4 [8, 6]
00000000: ba0c 103e 7e8b 3fbe ca80 a73e bceb cf3e
00000010: 1550 bbbd 5a79 f93d 7cdc 713e 779a a6bd
00000020: d36a 4d3e 2648 07bf bdbf dfbe c7fa 2d3f
00000030: bbd9 c2bd a6f6 de3e 3f7a 8c3e 3e72 573e
00000040: b4d4 263f 25b4 b93c c6f4 423e 12ad f43c
00000050: 9d17 9dbe 5283 293d b9f4 5d3e 705a 89bf
00000060: c7d5 2a3d 4cf5 88be 0e2d 2bbe 62fe 033f
00000070: 8cf4 e7bd e1b4 473e 7144 3fbf 04ee f0be
00000080: 5a8d 5abf c2bc 8ebd c81a 9c3d 0f92 c5be
00000090: 1988 bdbc 2917 87be 30da 57be 8553 37bf
000000a0: f01f 36be 9991 d43d 682b a3be 2402 bc3d
000000b0: 2f14 ac3d 7559 1abf 0a86 bd3d baeb 493e
0.14067355 -0.18705556 0.32715446 0.4060954 -0.09146134 0.12181349 0.23619264 -0.081349306
0.20060281 -0.52844465 -0.43700972 0.6796078 -0.09514185 0.43547553 0.27437016 0.21039674
0.6516831 0.022668907 0.19038686 0.029867683 -0.30682078 0.041385002 0.21675386 -1.0730724
0.04170778 -0.26749647 -0.16716406 0.5156003 -0.113259405 0.19502594 -0.7471381 -0.47056592
-0.85371935 -0.069695964 0.076222956 -0.38587996 -0.023136185 -0.26384857 -0.21079326 -0.71611816
-0.1778562 0.10379333 -0.31869054 0.09180096 0.08402287 -0.6029275 0.092540815 0.19718829

bias f4 [8]
00000000: e0fa 89be 1246 9c3d 2837 303e fc82 cfbe
00000010: 2337 893d b6ab 893e a564 eebc af7e debe
-0.26949215 0.07630552 0.1720854 -0.4052962 0.066999696 0.26888818 -0.029100725 -0.43456027

weight f4 [8, 8]
00000000: 93af a9be ed46 913e ad17 c43d 871a 55be
00000010: a529 95be 09e6 24bf af80 d53e 82e4 073e
00000020: c920 593e 9c53 f43e 62a5 0c3f 7fc1 13bf
00000030: 300e 993e 1f3b 51be d09c f8bd c5ee cfbd
00000040: e676 4abc f81b f1bb ee55 dc3e 3e20 f5bd
00000050: 6269 913e a9c8 d8be bff8 f03e 082f f13e
00000060: f3a9 a7bc 442b c1bd ca14 82be b7dc a2be
00000070: 5785 4bbe c8c9 4ebe 05fe d0bd 6d81 52be
00000080: 1baf 2cbe ac2a 3cbe 7811 1abf d335 51be
00000090: fc93 803d 4d3c 5d3e 0562 2e3e e865 9cbe
000000a0: cf1e f5be f2c9 a2bf 4391 923e 6ddb 333f
000000b0: 0cd6 6a3e 3978 7d3e 29ab a4be 8128 62bd
000000c0: 4d89 2d3e 97df 853e f112 99bc db39 80bc
000000d0: 0b9b 5dbe c663 bbbe 8ad3 ae3e cc98 d93e
000000e0: e814 e5be fb79 653d c9cc 9ebe e449 d43e
000000f0: bfb4 3a3d da53 ac3e 071b 7e3e 35a3 40bf
-0.33141765 0.28374425 0.09574828 -0.208109 -0.29133335 -0.64413506 0.4169974 0.13270763
0.21203913 0.4772004 0.54939854 -0.57717127 0.29893637 -0.20432709 -0.121392846 -0.101529635
-0.012357449 -0.0073580705 0.4303431 -0.1196904 0.28400713 -0.42340592 0.47064778 0.47106194
-0.02046678 -0.094320804 -0.25406486 -0.31809017 -0.19875084 -0.20194161 -0.102047004 -0.20557185
-0.16863672 -0.18375653 -0.60182905 -0.20430689 0.06278226 0.21605034 0.17029579 -0.30546498
-0.47875068 -1.2717879 0.2862645 0.7025669 0.22933215 0.24752893 -0.32161835 -0.05521441
0.16946907 0.26147148 -0.01868579 -0.015652588 -0.21641175 -0.3659956 0.34145766 0.42499387
-0.44742513 0.056024533 -0.31015614 0.41462624 0.04558253 0.33657724 0.24814998 -0.75249034

bias f4 [8]
00000000: 9a27 c83e 22fa 023e e5f2 6d3e 3584 6cbe
00000010: 99f1 45be fe7d 05bf 8661 023f bc98 d53e
0.39092714 0.1279073 0.23237188 -0.23097308 -0.19330443 -0.52145374 0.5093006 0.4171809

weight f4 [3, 8]
00000000: 1874 193f d3bc e73e f3e1 873e f3f7 863c
00000010: a55d c23b b4a9 2fbf d66c ec3e 58f9 233e
00000020: e0a4 123e ae17 943d afca 933e 7d50 87be
00000030: 57ac d7bd 391c 043f 8f80 973d 905e 12be
00000040: 888c b13e 48f2 af3e bd7a 2f3e e39d ecbd
00000050: c0c0 4c3e c173 153e b171 a53d a9c5 20bf
0.5994277 0.4526125 0.26539573 0.016475653 0.0059315735 -0.6861832 0.46176785 0.16013086
0.14320707 0.07231079 0.28865573 -0.26428595 -0.10530918 0.51605564 0.073975675 -0.14293885
0.3467753 0.34364533 0.17136665 -0.11553552 0.19995403 0.14594938 0.080783255 -0.62801605

bias f4 [3]
00000000: 31f3 64bd e703 c6be 6aaf 0dbf
-0.055895988 -0.38674852 -0.55345786

weight f4 [8, 9]
00000000: 662c 0f3c e6d3 293e 94cb 293d c26e a43d
00000010: 46ad 0fbf 89fb dbbe 0bfb 2cbf cbd2 22bf
00000020: abb3 ac3e 27dc 813d 17dc d5be 21c4 96be
00000030: 41a0 dd3e 7540 793d f9c6 713e f500 dd3e
00000040: cc91 acbc 2e7c 84be 5131 873e cf2d 8bbe
00000050: 9f79 03be 0ae9 1e3e c12d 70be 3bd2 0cbf
00000060: 205a f33e 83eb ac3d 7dbb c6bf 4291 f3bd
00000070: 4e7d d5be a785 febe be57 bfbe a733 b6be
00000080: 6204 c3be fbdb 5cbf 8da1 1fbf 4ff7 083f
00000090: d283 66be 7754 dcbe 5a66 6c3e 7a99 4f3e
000000a0: 2575 e8be 66d1 d43e 82a9 503f b75f f73e
000000b0: 50a5 e0be f2d3 44be 70c6 1cbe 4c8b 02be
000000c0: 1323 82be 2592 893e f4a9 e6bc 2edb fe3e
000000d0: da84 973f abd6 51bf 959a 17be 721c 393d
000000e0: 0b88 4bbd 4010 d5be 4933 e23c 0648 a03e
000000f0: 53d1 803d b388 e93e 21b0 93bd 3596 163f
00000100: 7adc 2bbe 423e 79bd bf15 d6bd cac8 35be
00000110: b380 a9be 4fb2 123f ebf0 ca3e 76e6 29bf
0.008738613 0.16584739 0.041453913 0.08028938 -0.5612377 -0.42965344 -0.6757056 -0.63602895
0.33730826 0.06340819 -0.41769478 -0.2944651 0.43286327 0.060852487 0.23611058 0.43164793
-0.021065615 -0.25875992 0.26404813 -0.27183387 -0.12839364 0.15518585 -0.23454954 -0.55008286
0.47529697 0.08443358 -1.5525967 -0.1189294 -0.41697162 -0.49711344 -0.3737163 -0.35586283
-0.3808928 -0.86273164 -0.6235588 0.5350236 -0.22511223 -0.43033192 0.23085919 0.2027339
-0.45401874 0.41566008 0.8150865 0.48315212 -0.43876123 -0.19221476 -0.15310073 -0.1274845
-0.25417385 0.26869312 -0.028157212 0.49776596 1.1837418 -0.8196818 -0.14805062 0.045193143
-0.049690288 -0.4161396 0.027612345 0.3130495 0.062899254 0.45612106 -0.07211328 0.5882295
-0.16783324 -0.06085039 -0.104533665 -0.17752376 -0.33106002 0.5730333 0.3963693 -0.6636728

bias f4 [8]
00000000: 0d7d 123f 88a1 ae3d 533c f13e 6f90 ad3e
00000010: b24f 0bbe 5cd0 123e 7d89 2ebd 92a4 e43e
0.5722206 0.085269034 0.47116336 0.33899257 -0.1360462 0.14337295 -0.042611588 0.44656807

weight f4 [8, 8]
00000000: 96d4 063f ec5f eabe 943b 0c3e c4fb 533f
00000010: 81dc c7bd 78f5 fabe 00b0 85be bf41 e7be
00000020: a751 ec3e b52d 863c 60e7 a9be eacd 1b3f
00000030: 7d61 b73c 72e8 37be b49b c0bc 24c3 afbe
00000040: af06 d53d 2d3d 1c3f 3e05 413f adc8 15bf
00000050: a24f 833e 0eb2 2e3f 7da1 64be 9f5c 2b3f
00000060: 9169 3dbd df1a 54be 3e75 73be a572 0cbd
00000070: 29f5 1bbe 70fe cc3d 3ce4 c7be 1665 a7be
00000080: 9a0a ccbd 9d3b 98bd a127 9abc 862e abbd
00000090: 29ed aebe 1baa 2abe da36 95be 4cdb b6be
000000a0: 1d19 1abf 01a0 20be 7d15 373f bd0d b0be
000000b0: 2d0f 863e 4e26 323f 50f1 ba3e 6967 41bd
000000c0: 09a7 c6be 4271 dd3d 434f 6c3e 042c c2bd
000000d0: e3ae 4e3f cc2c 4d3f ef0f 183e 5a05 753d
000000e0: 26b5 9ebd c106 bb3e 00d9 4f3f effa ecbd
000000f0: 76e8 023f 97d5 153f f790 fd3e df55 053f
0.5266813 -0.45776308 0.13694602 0.8280604 -0.09758855 -0.49015403 -0.2611084 -0.45167348
0.46156046 0.016379217 -0.33184338 0.60861075 0.022385353 -0.17959765 -0.023511745 -0.34328568
0.104016654 0.61030847 0.75398624 -0.5850933 0.25646693 0.6824044 -0.22327228 0.66938204
-0.046243254 -0.20713376 -0.23775193 -0.03428902 -0.1523024 0.100094676 -0.39041317 -0.3269431
-0.099629596 -0.07433245 -0.018817725 -0.08358483 -0.34165314 -0.16666453 -0.2914341 -0.35714185
-0.6019457 -0.15686037 0.71517164 -0.3438548 0.26183453 0.695897 0.36512232 -0.04721776
-0.38799313 0.10812618 0.23077111 -0.094810516 0.80735606 0.8014648 0.14849828 0.059819557
-0.07749395 0.3652859 0.8119049 -0.11571299 0.5113596 0.5852904 0.49524662 0.52084154

bias f4 [8]
00000000: 7eed 3a3f 2f7f 233f 6014 233f 86d5 cabe
00000010: 911b ffbe f6d9 9e3e a256 babe 95be b03e
0.73018634 0.6386594 0.63702965 -0.3961603 -0.4982572 0.31025666 -0.3639422 0.34520403

weight f4 [1, 8]
00000000: d835 2c3f 336b 073f dd89 27bf b119 62bd
00000010: 20f4 a7bd 0bbb a5be 9fbf 8ebe de1a 30bf
0.6726966 0.5289795 -0.6544474 -0.055200282 -0.0820086 -0.32369265 -0.2788057 -0.68790996

E f4 [268, 3]
00000000: 3d30 903e 1767 7abe 7e36 19bf 5881 5bbf
00000010: 3870 e6bf 502c 463f 3d30 903e 1767 7abe
00000020: 7e36 19bf 3fc6 a4bf faac 1dc0 a517 983f
00000030: 91d6 bcbe 2c51 f53e 8eed 85bf 02af 3cbf
00000040: cf29 d6bf 243e 053f 3d30 903e 1767 7abe
00000050: 7e36 19bf 846f 2dbf ff3d c8bf 8035 e23e
00000060: e096 993c 3c51 443d 6b8b 47bf 3d30 903e
00000070: 1767 7abe 7e36 19bf 8cef 4ebf d961 e4bf
00000080: 8065 213f 2a5d 49bf 0b16 e1bf 9c0b 1b3f
00000090: 2ab3 58bf 0702 e8bf 08c5 1c3f 3d85 e3be
000000a0: 572d 103f 0896 8cbf bedd 1fbf 54e7 c2bf
000000b0: faef bd3e 3d30 903e 1767 7abe 7e36 19bf
000000c0: 5c85 25be 3198 7e3e ce56 67bf 5c7a 14bf
000000d0: d0b7 b7bf 4c9c 933e 3a3c 63be d8a0 a13e
000000e0: 28f6 71bf 3d30 903e 1767 7abe 7e36 19bf
000000f0: 2604 72bf 37c8 f6bf be3e 413f d624 5dbf
00000100: 20e7 e7bf 8673 273f 646c fb3d 84d9 8abd
00000110: 1636 35bf 9a6f 98bf c81b 10c0 74b7 863f
00000120: 18c4 35bf 8b8d cabf fad7 0c3f 980e 30bf
00000130: b87c 553f 0e08 a2bf b1ff 9bbf 510d 13c0
00000140: e9d4 8c3f de30 54bf 8b53 e0bf d022 283f
00000150: 3d30 903e 1767 7abe 7e36 19bf 45f9 debf
00000160: d258 3fc0 51df e83f 04f6 4ebf b663 d8bf
00000170: d672 6a3f e897 e7bd dae4 24bf c0c6 3c3c
00000180: a930 f3be d9e4 183f 7d48 8fbf 8a01 5fbe
00000190: 8e46 9f3e cc3b 71bf 3d30 903e 1767 7abe
000001a0: 7e36 19bf baa7 46bf dbd1 dcbf 9eb2 133f
000001b0: 757c e5be 4545 113f a6ec 8cbf 2538 c6be
000001c0: 4978 96bf 9cc5 b53e 3d30 903e 1767 7abe
000001d0: 7e36 19bf 3d30 903e 1767 7abe 7e36 19bf
000001e0: f5f1 a2bf 32e0 1bc0 a75b 9a3f 3d30 903e
000001f0: 1767 7abe 7e36 19bf 4681 1fbf 4665 afbf
00000200: 0069 383f 3d30 903e 1767 7abe 7e36 19bf
00000210: 8ac1 6cbf b3ca f7bf 8eb7 433f c294 82bf
00000220: 0d4a 03c0 d8d2 543f 9492 0fbe db2c 663e
00000230: b08f 63bf 4327 e8bf 6025 45c0 bf21 ec3f
00000240: f9cf d3bf ea93 37c0 e14b d43f c880 2c3d
00000250: c673 0fbf 15a7 a7be 1e80 51bf 16b2 7a3f
00000260: 538b adbf 5610 18be 559f 6f3e d705 65bf
00000270: 2aff d5bf a9e4 f63f 72c2 f8bf 919b 85bf
00000280: e924 08c0 a453 903f 7f0f 24c0 cbee 3a40
00000290: a8aa 23c0 3d90 12c0 4477 2740 b99e 17c0
000002a0: ae41 4bbf 3963 dcbf 44d2 0d3f 3d30 903e
000002b0: 1767 7abe 7e36 19bf 28a2 40be 3061 8e3e
000002c0: 7a01 6cbf 6311 fbbe 5a46 a6bf d868 733e
000002d0: 9ccc 74bf f4fb 903f 1ab2 b9bf 3d30 903e
000002e0: 1767 7abe 7e36 19bf 6cda 4ebf 2f9c e4bf
000002f0: aed1 2c3f 1dae c9be 6acd 013f 6b23 88bf
00000300: 522b 79bf 2d67 fcbf d60f 433f 3d30 903e
00000310: 1767 7abe 7e36 19bf dc8a 25c0 de94 3c40
00000320: d8af 24c0 5c2b 02c0 e839 1540 3555 0cc0
00000330: 40f7 3ebf 93b9 2abf e813 ae3e 414c dabf
00000340: eb48 3cc0 533b e23f 151c 8abf f436 f1bf
00000350: 8e0b b13f d5e1 97bf b777 a53f 3c0b c1bf
00000360: 0b00 a1bf 97cd 1ac0 67eb 923f 7d10 94bf
00000370: 4413 11c0 b94c 843f 3d30 903e 1767 7abe
00000380: 7e36 19bf 767a 74bf 9f12 f9bf b802 473f
00000390: 643f 71bf 2f19 fabf 1eeb 483f 72ea 8abf
000003a0: 5e04 0bc0 c0ac 733f 4e15 5bbe f2b6 69bf
000003b0: 9034 b33d 3d30 903e 1767 7abe 7e36 19bf
000003c0: 3d30 903e 1767 7abe 7e36 19bf 02bf 4abf
000003d0: 1b32 dcbf 2612 0c3f 3d30 903e 1767 7abe
000003e0: 7e36 19bf 3d30 903e 1767 7abe 7e36 19bf
000003f0: 3d30 903e 1767 7abe 7e36 19bf 3d30 903e
0.28161803 -0.24453388 -0.59848773 -0.8574424 -1.8002996 0.77411366 0.28161803 -0.24453388
-0.59848773 -1.2873 -2.4636827 1.1882216 -0.3688245 0.47913492 -1.0463121 -0.7370454
-1.6731509 0.52047944 0.28161803 -0.24453388 -0.59848773 -0.67748284 -1.564392 0.44181442
0.0187487 0.047929034 -0.7794711 0.28161803 -0.24453388 -0.59848773 -0.8083427 -1.7842361
0.630455 -0.7865778 -1.7584852 0.6056459 -0.8464838 -1.8125619 0.61238146 -0.4443759
0.56319183 -1.0983286 -0.62447727 -1.5226846 0.3709715 0.28161803 -0.24453388 -0.59848773
-0.16164154 0.24862744 -0.9036683 -0.57999206 -1.435297 0.28830183 -0.22190943 0.31568027
-0.9451623 0.28161803 -0.24453388 -0.59848773 -0.9453758 -1.9279851 0.7548636 -0.8638433
-1.8117409 0.6541065 0.12276533 -0.06779769 -0.70785654 -1.1909058 -2.2516956 1.0524735
-0.7100234 -1.5824445 0.55017054 -0.6877227 0.8339343 -1.2658708 -1.2187406 -2.2976878
1.1002475 -0.82887065 -1.7525495 0.6567812 0.28161803 -0.24453388 -0.59848773 -1.7419821
-2.9897962 1.8193151 -0.8084414 -1.6905429 0.91581476 -0.11308271 -0.644117 0.011521995
-0.47498062 0.59724194 -1.1193997 -0.21777931 0.31108516 -0.9423187 0.28161803 -0.24453388
-0.59848773 -0.7759968 -1.7251543 0.57694423 -0.44821516 0.5674632 -1.1009719 -0.3871471
-1.1755458 0.35502326 0.28161803 -0.24453388 -0.59848773 0.28161803 -0.24453388 -0.59848773
-1.273009 -2.4355588 1.205922 0.28161803 -0.24453388 -0.59848773 -0.6230663 -1.3702781
0.7203522 0.28161803 -0.24453388 -0.59848773 -0.9248282 -1.9358734 0.7645196 -1.0201647
-2.0513947 0.8313422 -0.14020759 0.22478049 -0.88891125 -1.8136982 -3.0804062 1.8447798
-1.6547843 -2.868403 1.6585656 0.042115003 -0.5603603 -0.3274466 -0.81836116 0.9792799
-1.3558143 -0.14849982 0.23400624 -0.89462036 -1.6718495 1.9288532 -1.943434 -1.04381
-2.1272528 1.1275525 -2.5634458 2.9208248 -2.557291 -2.2900536 2.6166544 -2.3690627
-0.79397094 -1.721778 0.55398965 0.28161803 -0.24453388 -0.59848773 -0.18811858 0.27808523
-0.92189753 -0.49036703 -1.299022 0.23770463 -0.9562471 1.132689 -1.4507477 0.28161803
-0.24453388 -0.59848773 -0.80802035 -1.7860163 0.67507446 -0.3939065 0.5070406 -1.0635809
-0.97331727 -1.9718987 0.7619604 0.28161803 -0.24453388 -0.59848773 -2.5866003 2.9465861
-2.5732327 -2.0338964 2.3316593 -2.1927006 -0.74596024 -0.66689414 0.33999562 -1.7054521
-2.9419506 1.7674354 -1.078982 -1.8844895 1.3831651 -1.1865793 1.2927159 -1.5081553
-1.2578138 -2.4187982 1.1478089 -1.1567532 -2.2668009 1.0335914 0.28161803 -0.24453388
-0.59848773 -0.9549936 -1.9458808 0.77738523 -0.9423735 -1.9538935 0.7848376 -1.0852797
-2.1721416 0.9518547 -0.21394846 -0.9129478 0.0875026 0.28161803 -0.24453388 -0.59848773
0.28161803 -0.24453388 -0.59848773 -0.79197705 -1.7202791 0.5471519 0.28161803 -0.24453388
-0.59848773 0.28161803 -0.24453388 -0.59848773 0.28161803 -0.24453388 -0.59848773 0.28161803
