models/optimization/IN_100_3_0.015520693883113572_0.8155629773130035_3_4_state_dict.pt (torch, 6481 bytes, 17 tensors)

R1.layers.0.weight f4 [3, 9]
0	0x3eb34e1e	0.35020536
1	0xbd304a2b	-0.043039482
2	0x3f1e4513	0.6182415
3	0xbeb1bbe4	-0.34713662
4	0x3d53e01b	0.051727396
5	0xbf19c667	-0.6006836
6	0x3d0ca46c	0.034336492
7	0x3dc177cd	0.09446678
8	0x40a5c578	5.180355
9	0x3ed6edd8	0.41978335
10	0x3df51314	0.119665295
11	0x3f5a1ce2	0.8520032
12	0xbef75e89	-0.48314312
13	0xbe0e127d	-0.1387424
14	0xbf38b2fd	-0.72148114
15	0x3ecbe4cb	0.39822993
16	0xbd7c8e14	-0.061658934
17	0x40904938	4.508938
18	0xbcd5ced6	-0.026099604
19	0xbda89040	-0.082306385
20	0x3d95f0fb	0.07321354
21	0x3de10ff6	0.109893724
22	0xbdfc9280	-0.1233263
23	0x3d790796	0.06079825
24	0x3ddca256	0.107731506
25	0xbd4a8d6b	-0.049451273
26	0xbea4a534	-0.3215729

R1.layers.0.bias f4 [3]
0	0xbd70dd41	-0.058804754
1	0x3f8f0ca2	1.117573
2	0xbd981820	-0.074264765

R1.layers.2.weight f4 [3, 3]
0	0xbfd889e6	-1.6917083
1	0x3f3d2025	0.73877174
2	0xbebfeffb	-0.37487778
3	0xbf0ea3d2	-0.5571872
4	0xbe7d07b0	-0.24709964
5	0xbdb07570	-0.086161494
6	0x3f4a06cc	0.7891662
7	0x3f184efd	0.59495527
8	0x3ea67354	0.32509863

R1.layers.2.bias f4 [3]
0	0x3e800793	0.2500578
1	0xbe7d1b51	-0.24717452
2	0x3dcd05ee	0.100108966

R1.layers.4.weight f4 [3, 3]
0	0x3f530204	0.8242495
1	0xbd8369c4	-0.064166576
2	0xbec08b41	-0.37606242
3	0xbf92a45a	-1.1456406
4	0xbee8eb3f	-0.4549198
5	0xbf323d87	-0.69625133
6	0x3f8596f8	1.0436697
7	0x3cfce6e7	0.030871822
8	0xbe883790	-0.2660489

R1.layers.4.bias f4 [3]
0	0xbf140be4	-0.57830644
1	0x3f0f5e1a	0.5600296
2	0xbec279b4	-0.37983477

O.layers.0.weight f4 [3, 6]
0	0x3e9198c3	0.2843686
1	0xbefa4dff	-0.4888763
2	0xbdb5d37a	-0.088782266
3	0xbe5bd9f1	-0.21469857
4	0x3ead373f	0.33831212
5	0xbc72dd1a	-0.0148232225
6	0xbe49e25f	-0.1971526
7	0xbe906786	-0.28203982
8	0x3de98021	0.11401392
9	0x3eeeebd8	0.4666431
10	0x3e6d5756	0.23177847
11	0x3e46b848	0.19406235
12	0x3e4d4009	0.20043959
13	0x3e99245f	0.2991056
14	0xbefc81dc	-0.49317825
15	0xbe160a71	-0.1465242
16	0x3ef6cb08	0.48201776
17	0xbf81f3a1	-1.0152475

O.layers.0.bias f4 [3]
0	0xbef0b0b4	-0.47009814
1	0xbe9458a8	-0.2897389
2	0x3fa5677b	1.2922205

O.layers.2.weight f4 [3, 3]
0	0x3ec9c6b0	0.394094
1	0x3ef6fd38	0.48240066
2	0x3efab422	0.48965555
3	0xbead8a2f	-0.33894488
4	0xbd0aa070	-0.03384441
5	0x3ea63250	0.3246026
6	0x3d3a851f	0.04553711
7	0x3ef45683	0.47722253
8	0xbeffada0	-0.49937153

O.layers.2.bias f4 [3]
0	0xbf3f2e6b	-0.74680203
1	0xbc884485	-0.016634235
2	0x3f0772b1	0.5290938

O.layers.4.weight f4 [3, 3]
0	0xbf34dca7	-0.7064919
1	0xbe73544d	-0.23762627
2	0x3f6fe771	0.93712527
3	0x3d884598	0.06653899
4	0x3e9efcf8	0.31052375
5	0x3ef5cb93	0.48006877
6	0x3cf95154	0.030434288
7	0xbe95dc25	-0.2926952
8	0xbe77813f	-0.24170397

O.layers.4.bias f4 [3]
0	0x3f165e73	0.5873787
1	0xbd4f0181	-0.050538544
2	0x3e07c62f	0.13259195

R2.layers.0.weight f4 [3, 9]
0	0x3f246acf	0.64225477
1	0x3eb9d627	0.36296198
2	0xbd5526fd	-0.052039135
3	0x3e69369e	0.22774741
4	0xba96707b	-0.0011477614
5	0xbd6c1cc8	-0.057644635
6	0xbe72e21e	-0.2371907
7	0x3f90b074	1.1303849
8	0xbf296d08	-0.66181993
9	0x3f332a8b	0.6998679
10	0xbdbec906	-0.09315686
11	0x3e09f630	0.1347282
12	0x3e73c41f	0.23805283
13	0x3db1b425	0.08676938
14	0xbda5b952	-0.08091988
15	0xbf1daa23	-0.61587733
16	0x3e26e10b	0.16296785
17	0xbfb93216	-1.446841
18	0x3dd37025	0.10324124
19	0xbe5ade49	-0.21373858
20	0x3ebb525c	0.36586273
21	0x3e00eb7c	0.1258983
22	0xbd211a18	-0.039331526
23	0x3e1e2951	0.15445448
24	0x3e551726	0.20809612
25	0x3e9a4236	0.3012864
26	0xbcaeee25	-0.02135379

R2.layers.0.bias f4 [3]
0	0x3f6f87a9	0.93566376
1	0x3f0a1f63	0.5395414
2	0xbef86017	-0.4851081

R2.layers.2.weight f4 [3, 3]
0	0x3fe69c14	1.8016381
1	0x3f62d512	0.8860637
2	0xbd48187d	-0.04885148
3	0xbeeaa300	-0.45827484
4	0xbfae8890	-1.3635426
5	0xbdca15e5	-0.09867457
6	0xbeb25954	-0.34833777
7	0xbeced671	-0.4039798
8	0x3ea8a532	0.32938534

R2.layers.2.bias f4 [3]
0	0xbae110d0	-0.0017171148
1	0x3fbcc8c1	1.4748765
2	0xbecf5b4a	-0.40499336

R2.layers.4.weight f4 [1, 3]
0	0xbf9ca03a	-1.2236397
1	0x3ff1b208	1.8882456
2	0xbe7a9e92	-0.24474552
