models/3_nodes_4_edges/IN_trained_events_1000_neurons_16_state_dict.pt (torch, 11055 bytes, 17 tensors)

R1.layers.0.weight f4 [16, 10]
000000 93 49 01 3b 26 a8 93 bd 7b c7 91 3d e1 52 a7 bd
       0.0019727692 -0.07209806 0.07118126 -0.08170105
000010 fd f7 11 bf ea c7 e3 be f6 cc 00 be 4d 38 2a be
       -0.57019025 -0.4448846 -0.12578186 -0.1662304
000020 8c 81 3f bc 87 53 e4 3d 1b 36 bc be ac 2c 3c be
       -0.011688601 0.11148744 -0.3676003 -0.18376416
000030 51 55 14 be 3c d0 08 be 1a 0e 4e 3e 7b c1 3a 3f
       -0.1448567 -0.13360685 0.20122567 0.7295148
000040 b6 c3 89 3f f5 1a 66 c0 3b 24 88 c0 26 7a dc bc
       1.0762851 -3.5953953 -4.2544227 -0.026913714
000050 8e 9a 22 3c fe 4d 4e be 7c 03 c9 3e 17 25 49 3e
       0.009924544 -0.20146939 0.3926047 0.19643055
000060 a8 a8 88 3e 52 9b 02 bf 65 f8 39 be a7 0e 43 c0
       0.26691175 -0.5101825 -0.18161161 -3.0477693
000070 f9 6b 5e 40 6e a3 39 3d f5 e5 7e 3e b4 55 77 bd
       3.4753401 0.045321874 0.24892409 -0.060384467
000080 c7 06 88 bd 4c 3b e0 bd 38 16 c7 be 4a b1 af bc
       -0.06641918 -0.1094881 -0.3888414 -0.021446843
000090 43 6e 51 be 60 aa 65 bd 13 f1 5b bc d2 34 f4 3d
       -0.20452218 -0.056070685 -0.013424176 0.11924137
0000a0 5e bc 93 bd bc e1 aa 3e d9 e7 5f bf ed 24 85 3e
       -0.072136626 0.33375347 -0.87463146 0.26004735
0000b0 94 b2 50 be dc 12 1e 3f c7 d5 2b be 0e 47 cc 3e
       -0.20380622 0.6174753 -0.16780768 0.3989796
0000c0 31 87 09 c1 02 5d 03 3c 13 94 1a bd d5 99 4b be
       -8.595506 0.00801778 -0.03773887 -0.19882901
0000d0 61 0f 03 bf be 0b 9f bd f7 e7 e8 bd 6e 21 04 3e
       -0.5119534 -0.077659115 -0.11372369 0.12903377
0000e0 51 4b 71 3f 02 cb ed be 3e 83 f7 bf 4e 55 a7 3e
       0.9425555 -0.46443945 -1.9336927 0.3268227
0000f0 cf 57 47 3e a3 c5 9b be bd 7b 2d be c2 6e 14 3e
       0.1946709 -0.30424222 -0.16941734 0.14495376
000100 30 65 9b be ad 94 d6 bd 35 2e 2c be cd 6b 2f 3e
       -0.30350637 -0.104775764 -0.16814502 0.17130966
000110 15 40 82 3c 70 fd 65 be 89 f5 23 3f b3 38 12 be
       0.015899697 -0.2245996 0.6404653 -0.14279442
000120 88 4c 9a bc e3 50 73 be d9 f5 6d be 6e f6 50 bf
       -0.018835321 -0.23761325 -0.23238315 -0.8162602
000130 85 bc 0c 40 19 77 97 3f fd 56 ca 3f dc 37 f1 39
       2.1990063 1.1833221 1.5807797 0.0004600872
000140 16 53 e7 bb 2b a5 09 bd b2 c9 79 3f 7e a2 99 be
       -0.007059465 -0.033604782 0.9757339 -0.30006784
000150 07 60 f6 3d 21 4b 1f bf 1c 9c 9a 3f 38 38 c7 3f
       0.120300345 -0.6222401 1.2078891 1.5564032
000160 08 e5 2a 41 f7 64 b7 3b e5 b6 ff 3d e9 a8 f5 bd
       10.680916 0.0055967527 0.12486056 -0.11995108
000170 9c 37 7d bc c6 b6 22 be ef 4d e0 be 15 d0 a1 bd
       -0.015455153 -0.15890035 -0.4380946 -0.079010166
000180 9c 9c 7b 3e e4 c4 2f bf 33 07 a2 be b3 b4 4e bf
       0.2457146 -0.68659806 -0.31646118 -0.80744475
000190 09 a7 13 bb c6 48 99 3e 99 cc 48 3d a5 15 d8 bd
       -0.002252998 0.29938334 0.049023245 -0.10551003
0001a0 6e 1f f9 be 45 c2 5c 3e ed 1a 3a be 2c d9 65 40
       -0.4865679 0.21558483 -0.18174334 3.5913801
0001b0 63 ce 11 bf fa d0 13 3d 79 b3 68 3e 15 da d9 be
       -0.56955546 0.036087967 0.22724713 -0.42549196
0001c0 73 f1 ce 3e 73 81 14 be 06 cb 07 bd 27 b0 0d 3e
       0.40418586 -0.14502506 -0.033152603 0.13836728
0001d0 c0 9b ed bd 75 1e 0f 3e 75 f6 70 3c 84 ae 8c 3d
       -0.116019726 0.13976462 0.014707197 0.06869224
0001e0 d9 cc e5 3e d7 60 ba bd 82 c2 cb 3e d2 e6 d1 bd
       0.4488285 -0.09100502 0.39796835 -0.102491036
0001f0 7d 37 1d 3e ba e8 54 bf 18 f0 b0 3f 72 d1 bb bf
       0.15353198 -0.8316761 1.3823271 -1.4673293
000200 d7 9e 23 41 42 7b 23 39 03 6f 4c 3e 13 c0 89 be
       10.226279 0.00015590808 0.19964223 -0.26904353
000210 d5 bc 05 3e c6 67 8c be 17 c6 b0 bc 62 3b 7d 3e
       0.13060315 -0.27422923 -0.021578832 0.24729684
000220 9f c6 84 be 20 4f 76 be 4f ec 0d be 6e ef 42 3c
       -0.25932786 -0.24053621 -0.13859676 0.011897905
000230 db 13 33 bd 59 2d 7e be 36 c5 28 3d c7 b0 a2 bd
       -0.043720108 -0.24821986 0.0412037 -0.07943874
000240 ad 3c 17 be 87 35 62 3b b9 ef db 3d 75 cd 4f 3d
       -0.1476924 0.0034516768 0.10739083 0.05073305
000250 03 a9 56 be 74 82 5b 3e 95 5e a6 3d b0 17 d5 3c
       -0.2096291 0.21436483 0.08123509 0.026012272
000260 14 8f 17 bf df 82 5f 3e bb ad 89 3e da fc d2 3e
       -0.59202695 0.21827267 0.26890358 0.41208535
000270 d9 14 58 3f ae eb a8 3f e5 8b b5 c0 47 92 1e bc
       0.8440681 1.3196924 -5.673327 -0.00967843

R1.layers.0.bias f4 [16]
000000 ad 37 67 be 08 c3 a5 bc c4 6a c7 be 60 84 81 be
       -0.22579832 -0.0202346 -0.38948643 -0.25296307
000010 f3 84 0b 3f d8 36 62 3f ab 07 ee 3d 57 7c d1 be
       0.5449974 0.88364935 0.11622556 -0.40915176
000020 ac 33 a4 3e a2 ba 83 bb 75 d9 b6 bf e5 33 34 be
       0.32070673 -0.004020051 -1.4285113 -0.17597921
000030 12 7c ec 3e f9 c8 99 be 2b e8 64 bb 86 2e 8a bd
       0.46188408 -0.30036142 -0.0034928422 -0.06747155

R1.layers.2.weight f4 [16, 16]
000000 b2 23 55 3d 6b 55 cb 3e 17 f0 a4 be ca 71 1e be
       0.052035995 0.39713606 -0.32214424 -0.15473095
000010 06 1f e5 3e 47 09 92 3e 8a 24 5b be 80 f0 d1 be
       0.44750232 0.28522703 -0.21400657 -0.410038
000020 eb 42 b9 be cf 9c 53 3c 8f bf 9a bf 5d 6f 80 3e
       -0.36183867 0.012915804 -1.2089709 0.25084963
000030 f5 56 1f bf c2 92 52 be 48 be 9a bd c7 c2 06 3f
       -0.6224206 -0.20563796 -0.075558245 0.52640957
000040 ba 0e 0c be e4 5c 2a 3f 88 b2 32 bf 3b a0 e6 bd
       -0.13677493 0.6654799 -0.6980367 -0.1126103
000050 ff 6d 38 3f db 29 23 3e 4c f3 aa bd df de 57 be
       0.7204284 0.15933935 -0.083471864 -0.21081112
000060 4a 6e f2 bf 6f bc ad bd 20 9f 6c bf 3c fb 99 3d
       -1.8939908 -0.084832065 -0.92430305 0.07518622
000070 ac 15 02 c0 0a cc 07 3e f0 7c 93 3c 34 ff 1d 3f
       -2.0325727 0.13261428 0.01800391 0.61717534
000080 df 7b c5 3e f7 9b 76 bf 39 6c d5 be 1b 4c c4 3d
       0.3857107 -0.96331733 -0.4168413 0.095848285
000090 54 65 95 bf b5 21 05 bd 30 7c 25 3e 9c 9f 8e bf
       -1.1671548 -0.03250285 0.16160655 -1.1142459
0000a0 65 b9 c6 3d 46 46 99 3d d9 92 6f bf c1 3d 16 bc
       0.0970333 0.07484107 -0.93583447 -0.009169997
0000b0 79 a4 b0 3e 70 03 cb bc 14 f0 78 be 99 40 d4 be
       0.34500483 -0.024781913 -0.24310333 -0.41455534
0000c0 05 52 28 bd d7 69 9c 3d 3c 75 3d bf 50 85 00 be
       -0.041093845 0.07637375 -0.7400701 -0.12550855
0000d0 84 00 d8 3e 8d 52 3c 3e e2 e8 2a 3e 0f b7 b0 3d
       0.42187893 0.18390866 0.166904 0.08628666
0000e0 93 0f 3f bf de a4 63 3e 16 60 5a bf 7f 5e 17 be
       -0.7463314 0.2223086 -0.85302866 -0.14782141
0000f0 54 a5 d8 be 34 b8 23 be a0 a9 64 3d f5 73 3f 3d
       -0.42313635 -0.15988237 0.05582583 0.046741445
000100 05 24 4c 3d 5b 90 98 be 26 de 68 bd 95 0b 3d 3e
       0.04983904 -0.29797634 -0.056852482 0.1846145
000110 c8 06 40 be f7 7e 44 be 30 ae 0a be f0 c8 82 bd
       -0.18752587 -0.19189058 -0.1354301 -0.06385982
000120 ef d2 be 3d 56 ba f8 bd 03 97 96 be 11 86 8f bb
       0.09317576 -0.12144916 -0.29412088 -0.0043799956
000130 45 7c 89 be 24 89 ec bd a8 ef 2c 3d 03 b7 54 be
       -0.26852623 -0.11549595 0.04222074 -0.20772938
000140 c2 e5 b5 3d c6 3a e1 3e c3 9a 84 3e b6 dd 18 3e
       0.088817134 0.43990153 0.25899324 0.14928326
000150 51 8a fd be 2b a1 fa bd 8c 3a 61 be 72 62 74 bf
       -0.4951959 -0.122377716 -0.2199499 -0.95462716
000160 7e 89 7f be 8b 98 e2 3e d2 2e 19 be f6 66 22 3d
       -0.24954793 0.44257006 -0.14959267 0.039648972
000170 a9 50 d2 3e 18 9c 59 bd 40 ad f3 bd 38 19 76 bf
       0.41077164 -0.05312738 -0.11898279 -0.9613223
000180 cf 65 e1 bd 0e 8b 6a 3f 6c d6 e8 3e 0c 7a 93 3e
       -0.110057466 0.9161843 0.4547609 0.28804052
000190 05 80 a5 bd ca 32 44 3e 10 5b fb bc 2d c8 a0 3e
       -0.080810584 0.1916 -0.03068307 0.31402722
0001a0 b3 c2 f1 bf 34 70 51 3e bd f7 86 bf 61 78 93 3e
       -1.8887542 0.20452958 -1.0544354 0.2880278
0001b0 b3 39 c9 bf d6 8a 33 be 78 d0 6c 3d 5d d6 71 be
       -1.5720733 -0.1753343 0.057816 -0.2361693
0001c0 2e ef c4 3d 66 e5 4d 3d 05 28 02 be 00 55 f7 bb
       0.096159324 0.0502676 -0.12710579 -0.0075479746
0001d0 12 d2 b7 be d2 4e 46 3d ac e3 8b 3d 6c 4b 59 3e
       -0.35902458 0.048415013 0.06830534 0.21220177
0001e0 d8 25 9f be 88 05 11 be 58 df 24 be b2 a3 a5 be
       -0.3108356 -0.14162266 -0.16100824 -0.32351452
0001f0 d0 c7 65 be 50 c1 a1 3d 30 2f 2a 3e b9 aa 2c bc
       -0.22439504 0.078981996 0.16619563 -0.01053875
000200 55 86 de bc fe e2 4e 3f 36 1e f3 3e 40 4e 48 3c
       -0.027163664 0.8081511 0.47483987 0.0122256875
000210 39 50 52 3e ff e2 7c 3d 54 f7 34 3e a0 3e b6 bd
       0.20538415 0.061739918 0.17672473 -0.088986635
000220 df 55 24 bf 3d e6 19 3e 7f 0e cb be 23 ec a8 bd
       -0.6419353 0.15029235 -0.39659497 -0.082481645
000230 6a e1 c7 bf 88 74 00 3d a8 a2 97 bd 6e 52 38 be
       -1.5615666 0.031361133 -0.07404071 -0.18000194
000240 d4 bc 10 be 95 67 21 bf 08 4d 29 bf 20 6d 12 3e
       -0.14134532 -0.6304868 -0.66133165 0.1429944
000250 bc 2e 49 3e e8 d6 ab 3d 58 a6 7c 3e 24 fe f2 bd
       0.19646734 0.083905995 0.2467283 -0.1186488
000260 aa 99 fe bf 9b 5a 37 3e c2 d5 5e bf d3 27 cb 3d
       -1.9890645 0.17905657 -0.8704492 0.09919705
000270 54 82 e2 bf 9c dc 2c be 52 85 2c 3e d9 43 81 be
       -1.7696023 -0.16881031 0.16847733 -0.25247076
000280 77 6a d7 bd 7d 2a 83 be d4 3b 9e 3e 4c 2d 70 be
       -0.105183534 -0.25618353 0.3090502 -0.2345478
000290 4b cf 6f 3e 79 8e 69 3e 10 e5 50 3e 98 93 93 3e
       0.2341892 0.22808255 0.2039988 0.28823543
0002a0 98 14 0e bf 2f de a7 3e c6 1a b6 bf fe 4e ab be
       -0.55500174 0.327867 -1.4226921 -0.33458704
0002b0 65 a8 22 bf 64 3b 82 bd 22 ef 1f be 4a 24 81 be
       -0.635382 -0.06358984 -0.15618566 -0.25223
0002c0 0b ec 1a 3e 51 e1 de bd 72 12 83 be da 22 0a be
       0.15129106 -0.108828194 -0.2560001 -0.13489857
0002d0 03 4f fb bd d2 82 26 be 30 96 d7 bd 89 53 24 bd
       -0.1227093 -0.16260841 -0.10526693 -0.040118728
0002e0 92 24 b5 bd 6c 42 4e 3c c3 e9 91 3d d4 6b c4 3c
       -0.08844866 0.012589078 0.07124665 0.023977198
0002f0 80 53 30 3d e4 c0 b3 3d c4 97 9e 3d c4 38 45 be
       0.04304838 0.08777025 0.07743791 -0.19259936
000300 62 0e 24 bd 1d 6f 31 bf 5f 73 75 3c 5d fa 58 be
       -0.04005278 -0.6931017 0.01498112 -0.21189256
000310 09 16 fa bf 8f 29 9b 3e a8 50 3d be 05 09 1c bf
       -1.9537975 0.30305144 -0.18487799 -0.6095126
000320 38 ea 42 3e 2b c3 1d 3b 3f 62 80 be 9a 68 09 3e
       0.1903466 0.0024072628 -0.25074956 0.13418809
000330 1a 8b 8e 3e e8 be 4f 3e 88 15 f8 3d b1 ae f7 bd
       0.278405 0.20287669 0.12113482 -0.120938666
000340 2e 16 3e be 3c 73 5f 3f 40 c0 12 be 7e af 47 3e
       -0.18563148 0.8728521 -0.1433115 0.19500539
000350 ab 00 5f 3f 45 9a b2 3e 10 92 db bd 9c a0 04 bf
       0.87110394 0.34883323 -0.107212186 -0.5180757
000360 14 53 31 bf 66 e0 aa 3d e4 f7 3a bf a4 20 90 3d
       -0.6926739 0.08343582 -0.730345 0.07037476
000370 31 63 ee be 80 09 99 3c 58 93 0d 3e f5 78 fb 3e
       -0.46560052 0.018681288 0.13825738 0.4911572
000380 f7 e9 dd ba 02 89 4f bf b8 6c 4e 3e 52 b4 2e bd
       -0.0016930689 -0.8106843 0.2015866 -0.042652436
000390 9b 78 c6 be 62 61 12 3f c2 cd 22 3e 84 bd 10 bf
       -0.3876389 0.57179844 0.15898803 -0.5653918
0003a0 61 39 97 3e f7 f5 22 3f ad b5 47 bf f4 56 95 3d
       0.29535964 0.6365656 -0.7801159 0.072919756
0003b0 a9 12 9d 3e d4 72 d8 3d c8 57 f4 3d 86 26 ad be
       0.306783 0.10568777 0.119308054 -0.33818454
0003c0 1f 3f ce bc d2 d8 80 3d 93 55 0c bf 10 96 1d be
       -0.025176583 0.06291355 -0.54818076 -0.15389276
0003d0 c0 63 34 bc 3c 8e 79 be d6 bd 34 3e 1c cf d6 3d
       -0.01101011 -0.24370664 0.17650542 0.10488722
0003e0 ee 4a c2 be f5 a0 03 bf 38 b8 47 bf 68 bc db bd
       -0.37947792 -0.51417476 -0.7801547 -0.10729295
0003f0 2a eb 66 be a8 bf 58 be a0 d0 53 3c cc 14 ca bd
       -0.22550645 -0.21166861 0.012928158 -0.09867248

R1.layers.2.bias f4 [16]
000000 55 7b 64 3f c0 22 93 3f 53 8e 77 3f 81 57 8f 3f
       0.8925069 1.149498 0.96701545 1.1198579
000010 7e 9f 15 bd 95 0f 07 c0 df 79 4b 3f a3 08 a8 be
       -0.036529057 -2.110326 0.79482836 -0.3281909
000020 1c c6 16 c0 f3 a8 b5 3f 6d ac ce 3f 2b 7a c5 be
       -2.3558416 1.4192184 1.614637 -0.3856977
000030 0c 18 ec 3f 35 c1 4a 3f 15 6c 97 3f 3b b8 f3 bd
       1.8444839 0.7920106 1.1829859 -0.119003735

R1.layers.4.weight f4 [4, 16]
000000 e4 55 0b bf 10 05 b0 3f 06 fa b8 3d 72 33 a8 3e
       -0.54427934 1.3751545 0.09032063 0.3285175
000010 4c 49 62 3c 4e 4e b3 bb 0f 82 1d 3f 6a 8b 38 be
       0.013811421 -0.005471981 0.6152658 -0.18021932
000020 40 af 19 bf ab 89 9d 3f 13 f9 8e 3e c6 ae c6 bc
       -0.60033035 1.2307638 0.27924404 -0.02425326
000030 6b 50 ef 3e 2e c1 4d bf 7c c3 82 be ff 96 6d bd
       0.46741042 -0.80372894 -0.25539768 -0.05800533
000040 5e f8 61 bd 8a 49 4d be 9c 88 24 be 95 bc 93 3e
       -0.055168502 -0.20047584 -0.16067737 0.28854814
000050 fc 4d 55 bd 20 98 b3 3e 7b 65 12 3e 2f f6 99 3d
       -0.052076325 0.35077 0.14296524 0.07517659
000060 37 d9 37 bd 85 4d c5 be 69 e9 30 3f bd 20 bb 3d
       -0.044884887 -0.38535705 0.69106156 0.09137104
000070 d3 4e de 3e 77 83 c8 bc 26 fe c1 be c2 e3 de bd
       0.43419513 -0.02447675 -0.37889212 -0.10883285
000080 17 1d b9 be cb b6 07 bd c0 93 78 3f b5 92 0b bf
       -0.36155006 -0.03313331 0.9710045 -0.5452073
000090 f2 7d 3b 3c 87 6d 07 bf 2b 95 82 be 7e a4 11 3d
       0.011443602 -0.529015 -0.2550443 0.035557263
0000a0 3e 74 a4 3f aa 6f c7 be 9e cd b7 be e5 fe 9d be
       1.2847974 -0.3895238 -0.3589906 -0.30858532
0000b0 da e2 a9 3e a4 e9 0f bf 23 29 4e 3f 82 e8 f4 be
       0.33180887 -0.5621588 0.8053152 -0.4783364
0000c0 a5 a6 c5 be 20 9a 6f 3f 07 88 00 3e f9 e6 5f bf
       -0.38603702 0.9359455 0.1255189 -0.8746181
0000d0 7f eb ae bd fe dd 59 3f c8 a9 1d 3f f7 8c af bc
       -0.08541011 0.8510436 0.6158719 -0.021429522
0000e0 07 de d2 3e ed 17 66 3e ee 0c b9 bf c1 99 d6 3b
       0.41185018 0.22470064 -1.4457071 0.0065490906
0000f0 ba 13 84 3e c4 c2 62 be 7f 07 7a be 4d 09 20 3e
       0.257963 -0.2214461 -0.24416922 0.15628548

R1.layers.4.bias f4 [4]
000000 7b 97 f1 bf b8 fb d4 be b7 43 e5 3e 0b 7f d2 3d
       -1.8874353 -0.41598296 0.44778225 0.10278138

O.layers.0.weight f4 [16, 7]
000000 e7 09 78 3f ef 62 07 3e 4d bf 27 3f 65 57 11 3f
       0.9689011 0.13221334 0.65526277 0.5677398
000010 91 fd e3 be 72 9c bf 3e 0c 2e 6b 3d b9 2a 8e 3f
       -0.44529393 0.37424046 0.05741696 1.1106788
000020 8f eb 36 bf 94 6b c7 3f 90 a8 99 3e a1 32 88 be
       -0.71453184 1.5579705 0.30011415 -0.26601127
000030 5b 8b 2a 3c f6 00 c7 bd a2 87 73 bd 97 76 81 bf
       0.0104092015 -0.0971698 -0.05945552 -1.0114316
000040 f9 b2 b3 3e d7 7d e9 3e 54 9a b0 3c ce 81 86 3e
       0.35097483 0.4560382 0.021557964 0.26270908
000050 a3 61 05 3e 88 d5 6e bf a1 28 9d be 04 ea 5b bf
       0.13025527 -0.9329457 -0.3069506 -0.85903955
000060 f3 ba e5 3e 88 80 33 3e a0 b2 4a 3e 17 a2 d6 3c
       0.44869193 0.175295 0.19794703 0.026200337
000070 12 17 e3 bd 0c d4 c4 3d 92 57 d7 3d 77 41 60 3f
       -0.11088385 0.09610757 0.105147496 0.8759989
000080 1d 77 fc be c9 b6 05 3f 5b a0 17 3f 2d e1 d1 bf
       -0.49309626 0.52232033 0.5922906 -1.6396843
000090 61 69 14 be 42 39 aa bf f4 ea 37 3f 47 6c 44 3e
       -0.14493324 -1.3298724 0.71842885 0.1918193
0000a0 cc 00 12 3d c3 27 8f 3d 66 74 43 3f b2 24 70 3f
       0.03564529 0.06990006 0.76349485 0.9380599
0000b0 de 18 c6 3f 73 7f 37 3f 5a f3 b5 bc 48 d3 b4 3d
       1.5476339 0.7167885 -0.022210766 0.08829361
0000c0 6a 8c d4 3d d5 76 13 bc 04 ff d3 bd a4 10 96 be
       0.10378344 -0.0090005 -0.10351375 -0.2930957
0000d0 c1 b6 89 3e 6b 90 38 3e ca 86 06 3e 5d f7 f6 3e
       0.26897243 0.18023841 0.13137355 0.48235598
0000e0 06 c3 c5 3c a3 e3 c7 be 5f 21 bd 3e b1 45 f4 3e
       0.024140846 -0.3904086 0.36939523 0.4770942
0000f0 86 02 0a 3d b8 75 c8 3d 5f 9f 3e 3e 0c e5 74 be
       0.033693813 0.09788078 0.18615483 -0.239155
000100 9c 11 7c 3f e1 4d 92 bf 36 af 2f 3f 6d 4a 04 bc
       0.9846437 -1.1430017 0.68626726 -0.008074385
000110 40 f4 23 3e 09 d9 3d 3b 86 10 00 3d 66 cc 81 be
       0.16011143 0.0028968474 0.031265758 -0.25351256
000120 d8 a9 b4 3e dc 2d b5 bf fe 4f df bd 88 1d 59 be
       0.3528583 -1.415462 -0.10903929 -0.21202672
000130 3f bc 39 bf 19 2e 4b be 50 13 65 bf ea bb 87 3e
       -0.72552866 -0.19841804 -0.89482594 0.26510555
000140 fb 49 e9 3e 3d a6 16 be 4b ab 98 3e 61 34 00 3e
       0.45564255 -0.14711852 0.29818186 0.12519981
000150 1a e3 86 be 1d 0e b9 be 4f f2 d2 3e 07 ff 53 bf
       -0.2634514 -0.3614358 0.41200492 -0.82811016
000160 b9 98 90 3e e8 ec cd bd 87 ea 04 3e 74 b2 56 3f
       0.28241518 -0.10054952 0.1298009 0.8386605
000170 b0 23 6c 3e cc 74 04 3f b2 87 39 3f 27 be d6 be
       0.23060489 0.5174072 0.7247268 -0.4194195
000180 57 b0 58 3e 80 46 61 bd 59 eb 45 bf cb 90 d5 be
       0.21161018 -0.054998875 -0.7731224 -0.4171203
000190 89 99 81 bf 59 01 4e 3e aa de 2d 3d 08 62 10 3e
       -1.012498 0.20117702 0.042448677 0.14099896
0001a0 af f2 30 3d ae 0a e9 be a4 8c 3a 3d 20 4f 53 bf
       0.04320019 -0.4551596 0.04554428 -0.8254261
0001b0 f6 18 b2 3f fa c2 39 3d 92 e9 bd bc 01 2c c7 bd
       1.3913867 0.04535196 -0.023182664 -0.0972519

O.layers.0.bias f4 [16]
000000 1b c9 26 bf bb e2 17 bf b1 bb b6 be 09 9c 02 bf
       -0.6515061 -0.5933034 -0.35690072 -0.5101934
000010 53 5e 19 bf 92 54 ce be 4f 37 28 3f 83 1e b8 be
       -0.5990955 -0.40298897 0.65709394 -0.3596078
000020 6c a6 16 bf b0 1d 9c 3f 8c 29 77 bf 3a 7c 49 bf
       -0.5884769 1.219656 -0.9654777 -0.7870518
000030 8c 7e ea bf f4 f7 33 bf 07 f7 15 bf 13 d1 ee be
       -1.8319869 -0.7030022 -0.5858006 -0.46643886

O.layers.2.weight f4 [16, 16]
000000 37 0a 89 be e8 58 90 bd 1a 62 af bd c9 98 26 3d
       -0.26765606 -0.070482075 -0.08563633 0.04067305
000010 c3 40 ee 3d 9f 03 c2 be 34 97 18 bf b3 00 8b 3e
       0.11633446 -0.37893388 -0.5960572 0.2714897
000020 e5 f1 76 be a0 fe 32 be 9f 43 91 be ed fe a7 3d
       -0.24115713 -0.17479944 -0.28371903 0.0820292
000030 ae 8f 77 be c2 a1 33 be b8 98 85 3d 61 f9 af bd
       -0.24175903 -0.17542174 0.065232694 -0.08592487
000040 85 3a fe 3e 0b e6 6b 3f fb ec 3a be 9d 30 c1 3e
       0.49654022 0.9214789 -0.18254463 0.37732401
000050 f4 d1 00 3f 53 d8 3a 3f 76 17 91 3d 86 ab a8 3d
       0.50320363 0.72986335 0.07084553 0.082358405
000060 8e 98 88 bd cd 5b de 3d f7 35 ec bc 05 96 01 be
       -0.066697225 0.10857353 -0.028834326 -0.12654884
000070 8c 61 8d be 9a bb ba 3e ca a2 bf 3e 85 4f 04 3f
       -0.27613485 0.36471254 0.37428886 0.5168384
000080 0a d1 81 be bd 97 84 bd d9 5d 7c 3c 13 00 99 3d
       -0.25354797 -0.06474254 0.015403234 0.07470717
000090 ed 8a d5 3d e7 66 84 3c ec 43 65 be 88 17 aa be
       0.104268886 0.016162349 -0.22389191 -0.33221078
0000a0 9a 18 5e 3c 40 71 1a bf ef 45 95 be 8f 5d 36 3e
       0.01355567 -0.60329056 -0.29154918 0.17809127
0000b0 a1 61 81 be 4e ea 92 bd 82 9e d6 bd aa 05 e3 be
       -0.25269797 -0.07173596 -0.10479452 -0.4434026
0000c0 da 50 df 3e 48 45 46 3f a6 37 9e 3e f8 53 51 3c
       0.43616372 0.77449465 0.3090183 0.012776367
0000d0 17 aa 04 3e ee a0 5e 3e 1b 8d bd bd d1 26 75 be
       0.12955509 0.21741077 -0.09255429 -0.23940589
0000e0 ed 2a 56 3e 1d 8a 31 be 71 81 58 be 82 85 6d 3e
       0.20914812 -0.17337842 -0.21143128 0.2319546
0000f0 f1 34 45 be 17 ae 2a 3e 2b ab 2a bc 3e 04 fa bd
       -0.19258477 0.16667973 -0.010416786 -0.122078404
000100 24 d2 46 be a0 03 ee 3d c7 1a e3 3e 13 b0 3e be
       -0.194161 0.11621785 0.44356367 -0.18621854
000110 6f b7 21 be 11 fe aa be 5f 82 f8 be 8a 89 32 bd
       -0.1579263 -0.33396962 -0.48536965 -0.0435882
000120 22 f2 c5 3d 38 9e 89 bd 1f cc 3b 3c 78 13 bd 3e
       0.09665324 -0.06719631 0.0114622405 0.36928916
000130 72 4f 7a bd af b5 6a 3e 2c a3 01 3e f1 70 9f be
       -0.06111092 0.2292087 0.12659901 -0.31140855
000140 bd 2e 73 be 04 33 69 bc 05 38 25 be ab 1e 88 bd
       -0.23748298 -0.0142333545 -0.16134651 -0.066464745
000150 34 d9 1c be 1e 54 9d be f8 2d af bb cd 3a e2 be
       -0.15317231 -0.3072824 -0.005346056 -0.44185486
000160 c0 fa 53 3d 80 9c 2d bc e4 a6 60 bc 19 5a 38 be
       0.051752806 -0.010596395 -0.013711665 -0.1800312
000170 f1 f6 2f be 8e 6d 71 3d 35 8e ae bd 63 74 aa be
       -0.17184044 0.05894237 -0.085232176 -0.3329192
000180 a0 58 44 be 47 28 bd bd fa f4 8d 3e a9 93 a5 be
       -0.19174433 -0.09236198 0.27725965 -0.32339218
000190 37 73 b3 be cb af bd 3c ef 68 51 bf 95 9f f1 3d
       -0.3504884 0.023155114 -0.8180074 0.11798016
0001a0 f7 fd d1 bd d4 32 b1 be 5a 7e 08 bf c0 fe 07 3c
       -0.10253518 -0.3460909 -0.533178 0.008300483
0001b0 5b f3 70 be 53 93 b0 be 09 41 cc 3d 7c 98 5e be
       -0.23530333 -0.344874 0.09973342 -0.21737856
0001c0 87 6c 2d be 22 1a 85 3d 44 2d a3 be 44 93 41 be
       -0.16935931 0.06499125 -0.31870472 -0.18903834
0001d0 bc b8 0f bd 5f bf 9e be 62 b0 d5 3c ac 7a 79 be
       -0.035088286 -0.3100538 0.026085082 -0.24363202
0001e0 f0 13 bf 3d fa b2 49 be 56 ff 3b be 29 80 1c be
       0.09329975 -0.1969718 -0.18359122 -0.15283264
0001f0 9e c3 a5 be 1e 96 ca 3b a7 36 f4 be 08 84 f8 be
       -0.32375807 0.006182446 -0.47697946 -0.48538232
000200 3d a9 42 bd 05 ce 37 be 0c e7 b6 be df 97 a7 be
       -0.04752468 -0.17949684 -0.3572315 -0.32733056
000210 ac e2 8d bd 0e bf 8f be 80 e3 b1 be 99 0d dd bd
       -0.06928 -0.2807545 -0.3474388 -0.10793609
000220 5a 7f 8b be dd 8a ec be a3 3b 8b be c9 23 b4 3d
       -0.272456 -0.46199694 -0.27193937 0.08795888
000230 e2 9c aa bd ac d8 d0 bd 10 08 a9 3c 2e 94 7d be
       -0.08330704 -0.10197577 0.020633727 -0.24763557
000240 f5 22 58 be 6c d9 da bd 26 d5 b6 be 32 1d ca be
       -0.21107085 -0.10686001 -0.35709494 -0.394754
000250 74 65 4d be 2d 9e 6a bd 8c cb 02 3d e8 13 96 be
       -0.20058233 -0.057279754 0.0319324 -0.29312062
000260 51 cd 23 be 86 41 44 be fc c6 8f bd 08 32 22 bd
       -0.1599629 -0.1916562 -0.07020375 -0.039598495
000270 62 5b a8 be da 38 67 be 5b 77 12 bf 5a 7c c9 be
       -0.3288222 -0.22580281 -0.5721337 -0.39352685
000280 8a 53 96 be 02 16 3a bc a8 fa ca be 62 e8 94 3c
       -0.2936061 -0.011357786 -0.3964436 0.018177215
000290 e3 a5 1f be 4c ce 81 3d 03 88 43 bf b6 a3 b2 3c
       -0.15590625 0.06338176 -0.7637941 0.02180658
0002a0 3b 29 aa be 26 35 c4 be 3e 84 04 bf 73 db 3c be
       -0.3323458 -0.383218 -0.51764286 -0.18443088
0002b0 98 3b f4 be 0e ee 96 bd 77 52 b8 3e 90 67 5c bd
       -0.47701716 -0.07369624 0.36000416 -0.053809702
0002c0 f0 7b 9f bc f8 00 4e 3f 1d 79 57 be 32 e7 a6 3d
       -0.019468278 0.8047023 -0.21042295 0.08149566
0002d0 6d 8e 03 bf 01 70 24 be a0 43 7b bb 32 2d 1a bd
       -0.513892 -0.16058351 -0.0038339868 -0.037640758
0002e0 e1 50 57 be b6 74 39 bf ed e9 76 be 5b 75 9a 3e
       -0.21026947 -0.7244371 -0.24112673 0.3016766
0002f0 55 a4 e7 be 9c 92 c8 bd 79 20 d0 be bd 17 1e be
       -0.45242563 -0.097935885 -0.40649775 -0.15438743
000300 da ce 7c 3d ac b4 e9 bd c2 f3 60 be 12 d3 ba be
       0.061720707 -0.114114136 -0.21967986 -0.3648916
000310 42 ca 90 3d 13 ee 96 be 8b 90 86 be 5e 81 d1 bd
       0.070698276 -0.2947851 -0.26282153 -0.10229753
000320 23 f7 84 be c6 0e 80 bd 70 3e 11 be 6b 6b b4 bc
       -0.259698 -0.06252818 -0.14183974 -0.022023877
000330 89 fc f9 bd 29 96 0d be 8a 72 bb bd bc 9a ab be
       -0.122063704 -0.13826813 -0.09152706 -0.3351649
000340 a8 2b 38 bd 7f 75 b6 3d 80 ba e3 bd 41 40 97 3e
       -0.04496351 0.08909129 -0.111195564 0.2954121
000350 1d 54 9f bb e8 db 1c 3d b1 07 3f bf 26 bb 58 3e
       -0.004862322 0.038295656 -0.7462111 0.21165141
000360 4b d1 3f 3d 0f d6 44 bf 35 5d 3b 3f 77 9a 19 bd
       0.046830457 -0.7688913 0.731891 -0.037500825
000370 29 c8 3d 3e e1 73 e9 bd f5 4b 62 3e fa cb 36 3e
       0.18533386 -0.11399055 0.22099288 0.17851248
000380 89 13 bf 3c c0 89 55 3e 82 8d 9f 3d d0 9a d1 3c
       0.023324745 0.20853329 0.07790662 0.025586516
000390 b8 10 20 3d 22 2a a6 be 32 5f 49 be 3f f4 c4 bd
       0.039078444 -0.3245402 -0.1966522 -0.09616899
0003a0 82 06 1c 3e a7 39 c0 bd 68 18 aa be 65 b0 3a 3e
       0.15236858 -0.09385996 -0.33221745 0.18231352
0003b0 f4 07 aa bd f0 82 af bc cc 6c 2c 3e 3e 95 1d 3e
       -0.08302298 -0.02142474 0.16838378 0.15388963
0003c0 3b aa ba be 0b 1a 98 bd 65 16 0e be 8d a8 96 be
       -0.36458 -0.07426842 -0.1387573 -0.2942547
0003d0 63 4f 2c bd b4 94 e2 3c 87 ad 04 3d 7b 65 ed be
       -0.042067897 0.027658798 0.03239205 -0.46366486
0003e0 f9 b4 45 be 31 01 42 bd a2 a5 ac bd 57 b1 87 be
       -0.19307317 -0.047364417 -0.084300295 -0.26502487
0003f0 93 9d 84 bd ab bf df 3c ab 58 8f be 28 c1 ee bd
       -0.064753674 0.027313074 -0.27997336 -0.116579354

O.layers.2.bias f4 [16]
000000 d9 ac 49 3d eb 34 2b bf ec 6d b8 be 3b aa 03 bf
       0.049237106 -0.6687762 -0.36021364 -0.51431626
000010 83 7a 07 bf c4 b0 9d be f7 1f 43 3d bf af d5 bd
       -0.52921313 -0.30798924 0.047637906 -0.104339115
000020 dd e6 a5 be 55 66 35 be 3e 8d 77 3c 10 6f 43 be
       -0.32402697 -0.17714818 0.015109358 -0.19085336
000030 87 da bb be 9b 98 4c bf cb c8 9f bd c2 01 9a be
       -0.3669016 -0.7992036 -0.0780197 -0.30079466

O.layers.4.weight f4 [3, 16]
000000 a3 0b 2b be f1 41 90 be a7 e9 17 3d 59 7c 03 bd
       -0.16703658 -0.2817531 0.037088063 -0.03210101
000010 3e ff 75 be 13 d0 f7 bc 8c 40 d6 3d e1 c7 39 3d
       -0.24023148 -0.030250585 0.1046153 0.045356635
000020 4c a2 9b be ed 06 84 3d 50 9c 9b bc dd cf 08 be
       -0.3039726 0.064466335 -0.018995434 -0.13360544
000030 0d 32 86 3d 67 6e 21 3f b6 21 35 3d 24 6a b5 bb
       0.06552515 0.63059086 0.044221602 -0.0055363346
000040 36 07 ab bd 9e 3c 51 3d f4 64 40 3e 36 03 21 3e
       -0.08350985 0.0510832 0.1878851 0.15723881
000050 99 f4 da bc 9d ac 6f 3e 51 26 40 3d 13 3f 7f 3d
       -0.026727961 0.2340569 0.04691154 0.06231601
000060 73 ab 0f bc c5 f1 40 bd 48 3c e9 bd 11 3e 32 3e
       -0.008768904 -0.04710557 -0.11388451 0.17406489
000070 52 73 74 3c f4 d7 9d 3b 15 d5 8b 3d 02 c9 ea 3c
       0.014920073 0.0048170034 0.068277515 0.028660301
000080 c1 9e 1d 3d 38 8f 76 be da 4c 9d be 03 fd 9b bd
       0.038481478 -0.24078071 -0.30722696 -0.076166175
000090 17 e3 b6 bc b4 34 dd 3c d0 b6 15 bd 58 fd 50 3d
       -0.022325082 0.02700267 -0.036551297 0.051022857
0000a0 ab 17 ce 3d 13 11 72 3d 8e 1b 35 3e 48 f1 2c 3e
       0.10063108 0.059098314 0.17686293 0.16888916
0000b0 39 ae ce 3d 72 df 1c bd 86 30 9f bd 21 00 37 3d
       0.10091824 -0.03829903 -0.07772927 0.044677857

O.layers.4.bias f4 [3]
000000 d0 df 41 be e8 29 14 be 2d 60 8a 3e
       -0.18933034 -0.14469111 0.270265

R2.layers.0.weight f4 [16, 10]
000000 3f 95 ed bc 7a 4e 3f 3d 67 52 07 3c e0 07 f1 bd
       -0.02900183 0.0467057 0.008259392 -0.1176908
000010 75 21 9e 3e f2 62 a2 be 92 03 6d bf ec cd 1f bf
       0.308849 -0.31716114 -0.9258357 -0.62423587
000020 4f 8c 97 3f b7 44 2a bf cf 78 88 3f 1a 28 6c bd
       1.1839694 -0.665111 1.0661868 -0.05765543
000030 0c eb 60 bc 1c 3c c2 be b4 78 b7 3d 31 63 74 3e
       -0.013727915 -0.37936485 0.08958569 0.23865964
000040 38 cc be 3f 16 58 7a be 70 2e 06 be 69 5d e4 3e
       1.4906073 -0.24447665 -0.13103652 0.44602516
000050 0b 88 6e 3f 93 d5 78 be e5 21 90 bd 8a b5 a6 be
       0.93176335 -0.24300222 -0.07037715 -0.32560378
000060 1c f2 dd 3c 3e f0 82 3e 12 f8 4b 3f c2 e3 94 bd
       0.027092986 0.25573915 0.796754 -0.07270004
000070 29 70 83 3f d6 f0 92 3e 2a 96 83 bd da e1 11 be
       1.0268604 0.28699368 -0.06425126 -0.14246312
000080 d2 96 ba 3d 67 dc b4 3e 9c fd 29 3e f5 d0 ee 3e
       0.09110798 0.35324404 0.1660065 0.46643797
000090 e7 10 5c 3f c7 65 a1 bc 35 2a a0 3e 04 9d cd 3d
       0.8596329 -0.019701852 0.312822 0.10039714
0000a0 05 09 dd 3d 35 ac 25 3e 96 4c 49 be 3d b6 a7 3f
       0.10792736 0.16178973 -0.19658121 1.310249
0000b0 c6 db 4b 3d cc 1b 07 3f 4b e3 a7 3f 50 09 44 3e
       0.04977014 0.5277679 1.3116239 0.19144177
0000c0 88 9b 7d be bc 05 1f bf 6d e3 14 bf 89 0c 5d be
       -0.24766362 -0.62118125 -0.58159524 -0.21586813
0000d0 88 e7 eb 3e 15 04 a5 3f a4 8e a0 3d ae f8 70 bc
       0.46075082 1.2891871 0.078397065 -0.014707727
0000e0 75 67 1c 3d 40 15 c4 3c c0 e7 62 3f 48 86 2f 3f
       0.0381846 0.023935914 0.8863487 0.6856427
0000f0 fb 43 a4 be b0 30 3c be a5 90 11 3d 1b 34 2f bf
       -0.32083115 -0.18377948 0.035538334 -0.6843888
000100 f5 b6 3c be 38 69 b2 bd a6 d6 75 bf f6 2c 00 3e
       -0.18429168 -0.08711475 -0.9603065 0.12517151
000110 8e 25 f2 bd 28 a5 7a bf 4c 24 b4 bd 9e e1 cc be
       -0.11823569 -0.9790826 -0.087959856 -0.40015882
000120 37 ad ab 3e 8e 56 ba 3e 24 24 f6 3e 83 ed eb be
       0.3353059 0.3639416 0.48074448 -0.46079645
000130 90 9d f4 3e f3 67 35 3d 42 b9 85 bf e6 4f 11 3e
       0.4777646 0.044288587 -1.0447161 0.14190635
000140 d9 f1 9a be 93 89 73 3c 68 29 55 3e 9c 86 91 be
       -0.3026264 0.014864343 0.20816576 -0.2842301
000150 ae e9 52 3d e0 9f a6 3e 5e fc 91 be d8 ea 4b bf
       0.051492386 0.3254385 -0.28512853 -0.7965522
000160 9e ae a8 3e de 01 d0 3e ff 6e 9c be f9 10 24 be
       0.32945722 0.40626425 -0.30553433 -0.160221
000170 2f 78 9f 3e 3e ee f4 be d5 a0 4a 3e 43 3c b2 bd
       0.3114638 -0.47838014 0.19787915 -0.087029
000180 c6 c7 2c 3e 3b e3 5b bf 25 c7 1f 3f d2 ef 76 3e
       0.16873083 -0.858936 0.62413245 0.24114922
000190 07 9c f4 3d cb e1 d0 3d bb 3b 68 3e 93 cb 3d bd
       0.11943822 0.101993166 0.22679035 -0.04633672
0001a0 70 24 82 be 91 7f 4f 3d 6b d0 17 bf 02 2f 5a bf
       -0.25418425 0.050658766 -0.59302396 -0.8522798
0001b0 b3 3e ff 3f d0 77 a5 3f 5a f7 df 3d e0 8c 2c bc
       1.9941009 1.2927189 0.109358504 -0.010531634
0001c0 2e 44 32 bd f5 65 c7 3d c9 dc df ba 4b 03 56 be
       -0.043522052 0.09736244 -0.0017079349 -0.20899694
0001d0 d4 9c 94 3f 6c b5 29 3e dc 2b 89 be a1 a7 32 bf
       1.161036 0.16573113 -0.26791275 -0.6978703
0001e0 ce 6e 4e 3e f5 06 8d bd 95 f8 20 3f 25 cf 8a 3f
       0.20159456 -0.068860926 0.62879306 1.0844465
0001f0 ec 44 af be 1d a5 75 bd ca c9 aa 3e 23 59 3c be
       -0.3423227 -0.059971917 0.33357078 -0.18393378
000200 91 0f 71 3f bc af 1e 3d 41 9d a9 be cb bd f9 be
       0.9416438 0.038741812 -0.33127788 -0.48777613
000210 f6 50 8d 3e e6 0b 4d 3f ce 37 16 3e fd 38 45 3f
       0.2760083 0.8009628 0.14669725 0.7704008
000220 1e 05 3e be 9b 26 54 bf 23 be 04 be 32 6b 1b 3d
       -0.1855664 -0.8287141 -0.12963156 0.037944026
000230 ca f4 98 be a5 c3 0e 3e 7f ad c4 bd 15 9e 5c be
       -0.2987426 0.1394182 -0.09603404 -0.21544679
000240 ba fc bb 3e 94 69 3a 3e fd 99 19 bf 59 46 75 be
       0.36716253 0.18204337 -0.6000059 -0.23952617
000250 89 7b 6b 3e 54 ac cd 3e 70 73 42 3e ee f4 5b 3e
       0.22996344 0.40170538 0.18989348 0.21480152
000260 4c b7 ab 3c ce e2 27 3e 19 4d 26 3e 6f ca b4 be
       0.020961426 0.16395113 0.16240348 -0.35310695
000270 07 a0 54 3f 5c 6f f6 be 6d e1 e6 3f 8b 37 d9 3d
       0.8305668 -0.48131835 1.8037544 0.10606297

R2.layers.0.bias f4 [16]
000000 c5 c7 94 3e 43 03 30 be cb 52 1b bf ab a8 bd bf
       0.29058662 -0.17188744 -0.6067321 -1.4817098
000010 9b cb 3c 3e 60 13 e8 3e a8 d5 19 be 40 36 d9 be
       0.18437044 0.45327282 -0.1502291 -0.42424202
000020 86 52 fb 3b 27 86 05 be 0c 74 96 3e c3 44 98 be
       0.0076697497 -0.13039456 0.29385412 -0.2973996
000030 35 75 2a bf dc 11 ab 3e 26 da f3 be ac ee da bb
       -0.66585094 0.33412063 -0.47627372 -0.006681284

R2.layers.2.weight f4 [16, 16]
000000 32 5e 41 3c ba d8 f5 bd bf de 5a be 4d df 30 3e
       0.011802243 -0.12004228 -0.21374033 0.17272682
000010 95 92 3c be 2c 0e ae be 08 93 fb bd 67 c3 a7 be
       -0.18415292 -0.33995187 -0.12283903 -0.32766268
000020 17 5d 4e be a9 f4 67 bd 1e 97 98 be 01 fb 43 be
       -0.20152698 -0.05662981 -0.29802793 -0.19138719
000030 89 1c 5c be 4a ee da 3c ab cd a9 be c4 dc 1f be
       -0.2149526 0.026724953 -0.33164725 -0.15611559
000040 3b 64 a8 3e 67 f0 4f bf dd d3 6a 3e 0b be 8e bd
       0.3288897 -0.812262 0.22932382 -0.069698416
000050 ca 3c 32 3b d7 14 91 bd fe 64 23 3f b2 ff d1 bd
       0.0027196878 -0.07084053 0.63825977 -0.10253848
000060 b2 92 7a 3d 49 6e 33 be 64 74 91 bf a8 b5 ff 3d
       0.061175056 -0.17522539 -1.1363645 0.1248582
000070 73 d9 64 3c 08 87 9f be dc 95 8b 3e 20 99 51 bd
       0.01396786 -0.31157708 0.2726277 -0.051171422
000080 f6 36 5d 3c 52 ae bf be 12 2c 1d bc e4 d4 bd 3e
       0.013501873 -0.37437683 -0.009593027 0.37076485
000090 fa 44 41 bd b2 e7 87 be 6c 06 ca be 1f cc 10 3d
       -0.04718492 -0.26543957 -0.39458025 0.035350915
0000a0 98 e8 55 3d 51 16 8e 3e 8c ad a9 bd 67 91 2e bf
       0.05222377 0.277514 -0.082850546 -0.68190616
0000b0 32 ef c7 be 5e 58 3a bd 93 69 94 be fa a6 11 3e
       -0.3904968 -0.04549443 -0.28986797 0.14223853
0000c0 60 1d 8f bf 82 a0 48 3f b0 ff 33 bf 44 ff a4 3d
       -1.118084 0.78369915 -0.70312023 0.080565006
0000d0 88 73 01 3f 0e 71 75 be ab 46 4f bd 88 66 fc 3e
       0.5056691 -0.23968908 -0.050604504 0.49296975
0000e0 40 39 1c bd 19 37 5a be 45 38 02 3e 9a 26 f4 3e
       -0.038140535 -0.2131008 0.12716778 0.476857
0000f0 68 d4 25 bf ba 1b 84 3d 65 6c 8b be f0 81 1d bf
       -0.6477723 0.06450601 -0.27231136 -0.61526394
000100 5d 61 0b 3f 05 0d bc bf 57 a5 a1 bf 75 a5 72 3b
       0.5444544 -1.4691473 -1.2628583 0.003702489
000110 ea bc 44 bf b8 0d 88 bf 84 2d bb 3e 66 15 e4 bf
       -0.7685076 -1.0629187 0.36558163 -1.781903
000120 ea 86 77 bd a7 21 85 be 35 6c e5 be 8a 61 a8 bd
       -0.0604314 -0.26002237 -0.44809118 -0.08221729
000130 ad 66 bb be ef a0 e6 be b2 27 1d be 8b 53 2b bf
       -0.36601773 -0.45044658 -0.15347174 -0.6692435
000140 08 b0 2e be 37 0f 4b bf 84 8f 10 bd 9c 81 1c 3e
       -0.17059338 -0.7932009 -0.035293117 0.15283817
000150 4f 2d 12 bf ce df 92 be 39 57 eb bc 33 d9 c6 bf
       -0.57100385 -0.28686374 -0.028728114 -1.5535034
000160 28 97 61 bc ec 2b dc bd 38 7d 8b bf 5f c0 14 bb
       -0.013768949 -0.10750565 -1.0897589 -0.002269767
000170 13 37 5e be 7b 9a e0 be af 77 af bd fb 12 5e 3d
       -0.21700697 -0.4386786 -0.0856775 0.05421732
000180 44 01 48 3e 9f ec 15 bf 30 5e b8 3e 08 f4 c7 be
       0.19531733 -0.5856418 0.3600936 -0.3905337
000190 49 39 86 be 34 20 46 3d b6 36 0f be 51 3f 5b be
       -0.2621558 0.048370555 -0.13985714 -0.21410872
0001a0 d9 64 42 be 57 4a 5c be 53 1e 79 bf fa 75 3b 3e
       -0.18983783 -0.21512733 -0.97311896 0.18306723
0001b0 7e fe e4 3e d5 11 ec 3c b1 3e 66 be 75 3e 0a 3f
       0.44725412 0.028817097 -0.22484852 0.5400155
0001c0 49 10 1d bf f6 86 f2 be 9e 7a c7 3e 74 86 2f bf
       -0.61352974 -0.47368592 0.38960737 -0.68564534
0001d0 43 57 d8 be 32 96 ed be be 12 4d bf 96 7d 02 bf
       -0.42254075 -0.46403652 -0.80106723 -0.5097288
0001e0 cd 3f 25 bf 24 6f b7 bd c0 a7 02 be 66 3c 27 be
       -0.6455048 -0.08956745 -0.12759304 -0.16331634
0001f0 43 62 2c bf d2 5f ee be ee eb 3f be 80 78 f3 3d
       -0.67337435 -0.4655748 -0.18742344 0.11888218
000200 59 e8 fe 3d ab 62 3e 3e 45 0e ef be b8 9e ea be
       0.124466605 0.18592326 -0.46690574 -0.45824218
000210 94 89 9e bf 91 6f bc bf 2e ad 03 bf d8 56 5e 3e
       -1.2385736 -1.4721547 -0.51436126 0.21712816
000220 98 f8 07 bf 88 f0 94 3e 22 40 80 3d 34 77 bb be
       -0.531137 0.2908976 0.06262232 -0.36614382
000230 ee 62 69 be b4 61 19 bf d5 79 8b bf c6 1b 8a be
       -0.22791645 -0.5991471 -1.0896555 -0.26974314
000240 0f 20 32 bf 65 79 13 3f f2 42 f5 be e1 ee ad be
       -0.6958017 0.5760711 -0.47902638 -0.33971313
000250 f9 75 ad be 1a 9d 9b be 7b 7c a3 bf c3 18 3b bf
       -0.33879068 -0.30393296 -1.2772363 -0.7308466
000260 f0 8e 9f be 12 7a 80 bf 02 70 68 be d1 ab 10 bf
       -0.3116374 -1.0037253 -0.22698978 -0.5651217
000270 54 1f 24 bf 6d d5 ac bd 3f 6f c9 3d 0c 30 1a 3e
       -0.641103 -0.08439145 0.09835672 0.15057391
000280 d8 5c 33 be 5e 98 86 be 18 dc e9 be e8 89 5f be
       -0.17515886 -0.26288122 -0.4567573 -0.21829951
000290 cc c6 de bd dd 36 a1 be 09 01 33 be 7c 56 8d bd
       -0.10877761 -0.3148717 -0.17480864 -0.06901261
0002a0 dc b7 91 3c 0b 92 2c be c5 27 11 be 48 9c 1d be
       0.017787866 -0.16852586 -0.14175327 -0.15391648
0002b0 12 46 67 3d d2 c6 b2 be 8f 40 b7 be c9 50 98 be
       0.05646331 -0.34917313 -0.35791442 -0.29749134
0002c0 87 cd bd bd a4 9e 5e be 43 07 fe bb bb 2a 2f bf
       -0.09267717 -0.21740204 -0.0077523305 -0.68424577
0002d0 a8 39 ef bd 14 8b 8d 3d f6 f2 cc be 0e 59 f2 bd
       -0.11680919 0.06911293 -0.40029114 -0.11833392
0002e0 93 d3 f0 bd 71 8f dd 3d a0 7a 29 be 7e d1 3f be
       -0.117591046 0.10818375 -0.16550684 -0.18732259
0002f0 e2 ab 38 be 14 dc 07 be e7 c5 2e be bd 6e 1b 3b
       -0.18034318 -0.13267547 -0.17067681 0.0023717128
000300 1c bb df bd 40 d5 58 bf 86 fb c1 be cd 29 22 be
       -0.1092436 -0.84700394 -0.3788721 -0.15836258
000310 00 33 78 bf ad 3c 93 be 52 45 22 3e 1a 55 a6 be
       -0.9695282 -0.2875723 0.15846756 -0.32486802
000320 97 29 ad be e9 28 1a be db f2 35 bf 6c 4b 15 3e
       -0.33820793 -0.15054668 -0.71073693 0.14579552
000330 83 1a 13 bf ba 18 78 be 1f d4 bc bd 4e b5 32 be
       -0.5746233 -0.24228182 -0.092201464 -0.17451975
000340 aa 23 03 3e 47 4e b0 bf 1f b9 a2 be 88 9e ef 3d
       0.12806574 -1.3773888 -0.3178186 0.11700159
000350 2b 21 9a bf 10 d9 06 bf db 52 90 3d e6 98 ae bf
       -1.2041372 -0.5267496 0.070470534 -1.3640411
000360 ae 3c 9b be 9f 09 83 be 1a 56 4f bf 05 3c 8f be
       -0.30319732 -0.25593278 -0.80990756 -0.2797548
000370 5d e1 45 bf ae d3 b2 be 8d bf fe bd 33 29 ee be
       -0.77297 -0.34927124 -0.12438879 -0.46515808
000380 71 7f ea 3c 1b 81 48 be 95 87 06 3f 92 32 be 3d
       0.028625222 -0.195805 0.5255063 0.09286989
000390 c3 3d 68 be 53 3a b2 3e 96 47 33 bf c8 02 02 be
       -0.2267981 0.34810123 -0.70031106 -0.12696373
0003a0 50 27 09 bf 52 62 a8 be 19 3e 52 3f 94 f2 f0 be
       -0.5357561 -0.32887512 0.82126004 -0.47060072
0003b0 d7 47 15 3e d7 74 1e be eb a6 01 bf 5a 9d 3e 3f
       0.14578186 -0.15474258 -0.5064532 0.7445885
0003c0 ba 5d 4b 3c 32 50 0b bf 2c b5 84 be 5f c7 1a 3c
       0.012412483 -0.54419243 -0.25919473 0.009446948
0003d0 85 c6 6e bd d0 d7 3c bf 1c 14 46 be e4 78 d8 be
       -0.05829479 -0.73766804 -0.19343609 -0.42279732
0003e0 92 21 0a bf 92 66 17 bf cb 10 f5 be 42 f3 03 bd
       -0.53957474 -0.59140885 -0.47864375 -0.03221441
0003f0 99 be 2e bf ed 7f 71 be 54 53 f7 be de 66 e1 be
       -0.6825958 -0.23583956 -0.48305762 -0.44023794

R2.layers.2.bias f4 [16]
000000 b3 c4 4d bc c3 32 10 3f 05 f5 31 bf e9 cd 3b bd
       -0.012559104 0.56327456 -0.69514495 -0.045850668
000010 81 02 59 3f 9c 23 36 3f 68 cf 3b 3e 4f 8b dc be
       0.84769446 0.71148086 0.18340838 -0.43075034
000020 28 8c 8b bf 53 1d e1 be 10 02 dd be 96 c2 99 be
       -1.0902147 -0.43967685 -0.43165636 -0.3003127
000030 e1 f2 e8 3e 20 3c c8 3e 30 32 5c be cd 49 93 be
       0.45497802 0.39108372 -0.2150352 -0.28767243

R2.layers.4.weight f4 [1, 16]
000000 9e b9 61 bc c5 b2 b9 3e d7 2b 80 3d 4d af 04 bf
       -0.013777165 0.36269203 0.06258362 -0.5182999
000010 06 0d d9 3e 2b c7 16 3c f5 6f 18 3d 52 9c d4 bd
       0.4239275 0.009202759 0.037216146 -0.10381378
000020 f7 39 b7 3d e4 53 5c 3e f7 a8 6b bd 00 fd 1f 3d
       0.08946603 0.21516377 -0.057534184 0.03905964
000030 e1 20 9b 3d b2 a9 a9 3d 6a 61 c6 be bd e1 63 bd
       0.075746305 0.0828432 -0.38746196 -0.055635203
