models/IN_trained_events_1000_neurons_4_state_dict.pt (torch, 6191 bytes, 17 tensors)

R1.layers.0.weight f4 [4, 10]
0	0xbea4ff0b	-0.32225832
1	0x3e588f8e	0.21148512
2	0xbce12ef6	-0.027488213
3	0x3db00fcc	0.08596763
4	0x3e14cb11	0.14530589
5	0x3e010f5e	0.12603518
6	0x3ecefffb	0.40429673
7	0xbcdced45	-0.026968608
8	0xc0111a8c	-2.2672453
9	0xbcee1bd5	-0.029066006
10	0xbed4c7ef	-0.41558787
11	0x3d5a89b3	0.053353976
12	0xbfb7be02	-1.4354861
13	0x3f075ecd	0.5287903
14	0xbd4033e6	-0.046924494
15	0x3f9a7a59	1.2068588
16	0x3f47d7c9	0.78063637
17	0x3f9dd9e6	1.2332122
18	0xc130ddd7	-11.05416
19	0x3c102b85	0.008799438
20	0xbf2c616b	-0.6733615
21	0xbd7650e9	-0.060135756
22	0xbf8a5d77	-1.0809773
23	0x3f032f53	0.51244086
24	0x3e00dd4d	0.1258442
25	0x3fa511cb	1.2896055
26	0x3f00859f	0.5020389
27	0xbf863b2a	-1.0486805
28	0xc1218fde	-10.097624
29	0xbb1ee51f	-0.0024245454
30	0x3e322b5f	0.17399357
31	0xbe5190bc	-0.20465368
32	0xbdc061ba	-0.0939364
33	0x3c8b2709	0.016986387
34	0xbe8bd7f8	-0.2731321
35	0x3d50289a	0.05081997
36	0x3d9a9f98	0.07549971
37	0xbe2f4e86	-0.17119798
38	0xbe9089e0	-0.2823019
39	0x3d8ce02f	0.06878697

R1.layers.0.bias f4 [4]
0	0x3f08b4fa	0.5340115
1	0x3f56f433	0.8396637
2	0x3f25586c	0.64588046
3	0xbe2388eb	-0.15970199

R1.layers.2.weight f4 [4, 4]
0	0x3f28e171	0.65968996
1	0x3e9a9bff	0.3019714
2	0xbf87ff9d	-1.0624882
3	0xbcf430e9	-0.029808478
4	0x3ea060bc	0.31323802
5	0xbf82ad99	-1.0209228
6	0xbfd42afc	-1.6575618
7	0xbe2b393c	-0.16721052
8	0xbd65a361	-0.056064013
9	0x3f92a4bb	1.1456522
10	0x3ee415fc	0.44548023
11	0x3e0b081e	0.13577315
12	0xbe28e81a	-0.1649479
13	0x3eaa8541	0.3330479
14	0x3f92a140	1.145546
15	0xbdbf3488	-0.093361914

R1.layers.2.bias f4 [4]
0	0x3eed39e0	0.46333218
1	0x3fbeb7f3	1.4899887
2	0xbfae2cda	-1.3607438
3	0xbfab238f	-1.3370227

R1.layers.4.weight f4 [4, 4]
0	0xbe98725a	-0.29774743
1	0x3ffe04a8	1.9845171
2	0xbd8ce5b9	-0.068797536
3	0x3e3d75d3	0.18501978
4	0xbf1d4389	-0.61431175
5	0x3f86001f	1.0468787
6	0x3f83d7c6	1.0300224
7	0xbc9cd9e5	-0.019146869
8	0x3fb363ba	1.4014809
9	0xbfc4d1c2	-1.5376513
10	0xbe933c90	-0.28757143
11	0x3e619e02	0.22032931
12	0xbe0ae285	-0.13562973
13	0x3fc4db2a	1.5379384
14	0x3fdf7af1	1.7459394
15	0x3fbf7969	1.4958926

R1.layers.4.bias f4 [4]
0	0xbf3d7dcc	-0.74020076
1	0xbfde2a41	-1.7356645
2	0x3f577335	0.84160167
3	0xbf4649f5	-0.774566

O.layers.0.weight f4 [4, 7]
0	0x3ea477bd	0.32122603
1	0x3f35e335	0.71049815
2	0xbf2554b1	-0.64582354
3	0xbea62c74	-0.3245579
4	0xbf1100d2	-0.56641877
5	0x3ee7728c	0.4520458
6	0x3e66b045	0.22528179
7	0x3fb3c78a	1.404527
8	0xbe7c13f7	-0.24616991
9	0x3fc8e294	1.5694146
10	0x3f45b56a	0.7722994
11	0x3d61106d	0.054947305
12	0xbf840ac1	-1.0315782
13	0xbd3c4771	-0.04596657
14	0xbe4db6c3	-0.2008925
15	0x3fc94f03	1.5727237
16	0x3ee65740	0.4498844
17	0x3e90d484	0.28287137
18	0x3ec4b7c7	0.3842146
19	0xbf66cda5	-0.9015754
20	0xbce8adf6	-0.028403264
21	0x3baced53	0.0052773147
22	0xbeb1a1c4	-0.3469373
23	0xbd3a7c04	-0.045528427
24	0x3f60d6ff	0.8782806
25	0xbf5980a1	-0.849619
26	0x3e88a2da	0.26686746
27	0xbfbcf8ae	-1.4763391

O.layers.0.bias f4 [4]
0	0xc0278d79	-2.6180098
1	0xbe00df47	-0.12585174
2	0x3caaf8a2	0.02087051
3	0xbfa028e4	-1.2512479

O.layers.2.weight f4 [4, 4]
0	0xbe7d328c	-0.24726313
1	0xbf13238c	-0.57476115
2	0xbf20d686	-0.62827337
3	0xbf94db7b	-1.162948
4	0xbecbaec3	-0.3978177
5	0x3eafdd93	0.34348735
6	0xbeb247db	-0.34820446
7	0xbdde6f62	-0.10861088
8	0x3e16589a	0.14682236
9	0x3f50f95e	0.81630504
10	0x3e225b08	0.15855038
11	0xbfd7402b	-1.6816458
12	0x3f196049	0.59912544
13	0xbd3b7867	-0.04576912
14	0xbf0123e9	-0.5044542
15	0x3edf9fb6	0.43676537

O.layers.2.bias f4 [4]
0	0x3fb9a105	1.4502264
1	0x4029ba4e	2.6519961
2	0xbffee27e	-1.991287
3	0xbf1b9fd7	-0.6079077

O.layers.4.weight f4 [3, 4]
0	0xbfc9dac2	-1.5769885
1	0xbeec7564	-0.46183312
2	0xbcfaa842	-0.03059781
3	0xbd4b9619	-0.04970369
4	0x3f8f33d4	1.1187692
5	0x3f18228f	0.5942773
6	0x3eb39b86	0.35079592
7	0xbf44f78c	-0.76940227
8	0xbefe4119	-0.4965904
9	0xbfb2743d	-1.3941723
10	0x3f1de2c7	0.6167416
11	0x39f6aa86	0.00047047826

O.layers.4.bias f4 [3]
0	0x3ea3b7e0	0.31976223
1	0xbe63df5f	-0.22253178
2	0xbf1f3167	-0.62184757

R2.layers.0.weight f4 [4, 10]
0	0xbd9b6560	-0.07587695
1	0x3d570974	0.05249925
2	0xbf5f7313	-0.87284964
3	0xbe89d8ab	-0.26923117
4	0xbe9e7a6f	-0.30952784
5	0xbfef8632	-1.8712828
6	0xbec2a102	-0.38013464
7	0x3e847fd9	0.2587879
8	0xbf928e0b	-1.1449598
9	0xbd638527	-0.055546906
10	0xbe7048d5	-0.23465283
11	0xbf83d79d	-1.0300175
12	0xbd3efbe9	-0.04662696
13	0x3f13ff9e	0.57811916
14	0x3ee625b1	0.4495063
15	0xbe8a0939	-0.2696016
16	0x3dc3a5ff	0.095531456
17	0x3f835d0d	1.0262772
18	0xbf6d86f1	-0.9278403
19	0x3d4048a1	0.046944264
20	0x3e8c9fda	0.27465707
21	0xbe2e485f	-0.17019795
22	0xbe635b33	-0.22202758
23	0x3d8d324a	0.068943575
24	0xbf0b1e52	-0.5434314
25	0x3ea7cd1d	0.32773677
26	0x3f7b05f5	0.98055965
27	0x3ceddc12	0.029035602
28	0xc077302b	-3.862315
29	0xbe69e71f	-0.22842072
30	0xbe3c9488	-0.18416035
31	0x3e1db120	0.15399599
32	0xbe3d95dd	-0.185142
33	0x3d38af9b	0.045089345
34	0x3f4174a2	0.7556859
35	0xbe205968	-0.15659106
36	0xbf182e57	-0.5944571
37	0xbf6e8015	-0.9316419
38	0x3d97d3c6	0.074134395
39	0xc021c0f0	-2.527401

R2.layers.0.bias f4 [4]
0	0x3fc2c30d	1.5215775
1	0x3f507345	0.8142589
2	0x3f81748f	1.0113696
3	0x3f048d85	0.5177844

R2.layers.2.weight f4 [4, 4]
0	0xbe1bb568	-0.1520592
1	0xbec3fa2e	-0.3827681
2	0xc0bed8a2	-5.9639444
3	0xbf781ace	-0.969159
4	0xbdef7cff	-0.11693763
5	0xbf03f98e	-0.51552665
6	0xbd28abee	-0.04117959
7	0x3f1f7cce	0.6229981
8	0x3f565daf	0.837367
9	0x3e619e9a	0.22033158
10	0x3f40a02a	0.7524439
11	0xbfbb096d	-1.4612252
12	0xbde5f319	-0.11228008
13	0xc00191cf	-2.0245245
14	0xbd0180ae	-0.03161686
15	0x3f23ba32	0.63955986

R2.layers.2.bias f4 [4]
0	0x3fa36dfc	1.276794
1	0x3f2a3400	0.66485596
2	0x3ee3b187	0.4447138
3	0x3effd597	0.49967644

R2.layers.4.weight f4 [1, 4]
0	0x3f5c6485	0.8609088
1	0x3f166880	0.58753204
2	0xbf50bebb	-0.8154103
3	0x3f0eb70f	0.55748075
